…
        max_scale: 1
        min_aspect_ratio: 0.5
        max_aspect_ratio: 2
      }
      sample_constraint {
        min_jaccard_overlap: 0.9
      }
      max_sample: 1
      max_trials: 50
    }
    batch_sampler {
      sampler {
        min_scale: 0.3
        max_scale: 1
        min_aspect_ratio: 0.5
        max_aspect_ratio: 2
      }
      sample_constraint {
        max_jaccard_overlap: 1
      }
      max_sample: 1
      max_trials: 50
    }
    label_map_file: "/home/qiao/caffe-ssd/data/create_lmdb/labelmap_double_camera.prototxt"
  }
}
layer {
  name: "stem1"
  type: "Convolution"
  bottom: "data"
  top: "stem1"
  convolution_param {
    num_output: 32
    bias_term: false
    pad: 1
    kernel_size: 3
    stride: 2
    weight_filler {
      type: "xavier"
    }
    bias_filler {
      type: "constant"
    }
  }
}
layer {
  name: "stem1/bn"
  type: "BatchNorm"
  bottom: "stem1"
  top: "stem1"
  batch_norm_param {
    moving_average_fraction: 0.999
    eps: 0.001
  }
}
layer {
  name: "stem1/scale"
  type: "Scale"
  bottom: "stem1"
  top: "stem1"
  scale_param {
    filler {
      value: 1
    }
    bias_term: true
    bias_filler {
      value: 0
    }
  }
}
layer {
  name: "stem1/relu"
  type: "ReLU"
  bottom: "stem1"
  top: "stem1"
}
layer {
  name: "stem2a"
  type: "Convolution"
  bottom: "stem1"
  top: "stem2a"
  convolution_param {
    num_output: 16
    bias_term: false
    pad: 0
    kernel_size: 1
    stride: 1
    weight_filler {
      type: "xavier"
    }
    bias_filler {
      type: "constant"
    }
  }
}
layer {
  name: "stem2a/bn"
  type: "BatchNorm"
  bottom: "stem2a"
  top: "stem2a"
  batch_norm_param {
    moving_average_fraction: 0.999
    eps: 0.001
  }
}
layer {
  name: "stem2a/scale"
  type: "Scale"
  bottom: "stem2a"
  top: "stem2a"
  scale_param {
    filler {
      value: 1
    }
    bias_term: true
    bias_filler {
      value: 0
    }
  }
}
layer {
  name: "stem2a/relu"
  type: "ReLU"
  bottom: "stem2a"
  top: "stem2a"
}
layer {
  name: "stem2b"
  type: "Convolution"
  bottom: "stem2a"
  top: "stem2b"
  convolution_param {
    num_output: 32
    bias_term: false
    pad: 1
    kernel_size: 3
    stride: 2
    weight_filler {
      type: "xavier"
    }
    bias_filler {
      type: "constant"
    }
  }
}
layer {
  name: "stem2b/bn"
  type: "BatchNorm"
  bottom: "stem2b"
  top: "stem2b"
  batch_norm_param {
    moving_average_fraction: 0.999
    eps: 0.001
  }
}
layer {
  name: "stem2b/scale"
  type: "Scale"
  bottom: "stem2b"
  top: "stem2b"
  scale_param {
    filler {
      value: 1
    }
    bias_term: true
    bias_filler {
      value: 0
    }
  }
}
layer {
  name: "stem2b/relu"
  type: "ReLU"
  bottom: "stem2b"
  top: "stem2b"
}
layer {
  name: "stem/pool"
  type: "Pooling"
  bottom: "stem1"
  top: "stem/pool"
  pooling_param {
    pool: MAX
    kernel_size: 2
    stride: 2
  }
}
layer {
  name: "stem/concat"
  type: "Concat"
  bottom: "stem/pool"
  bottom: "stem2b"
  top: "stem/concat"
  concat_param {
    axis: 1
  }
}
layer {
  name: "stem3"
  type: "Convolution"
  bottom: "stem/concat"
  top: "stem3"
  convolution_param {
    num_output: 32
    bias_term: false
    pad: 0
    kernel_size: 1
    stride: 1
    weight_filler {
      type: "xavier"
    }
    bias_filler {
      type: "constant"
    }
  }
}
layer {
  name: "stem3/bn"
  type: "BatchNorm"
  bottom: "stem3"
  top: "stem3"
  batch_norm_param {
    moving_average_fraction: 0.999
    eps: 0.001
  }
}
layer {
  name: "stem3/scale"
  type: "Scale"
  bottom: "stem3"
  top: "stem3"
  scale_param {
    filler {
      value: 1
    }
    bias_term: true
    bias_filler {
      value: 0
    }
  }
}
layer {
  name: "stem3/relu"
  type: "ReLU"
  bottom: "stem3"
  top: "stem3"
}
layer {
  name: "stage1_1/branch1a"
  type: "Convolution"
  bottom: "stem3"
  top: "stage1_1/branch1a"
  convolution_param {
    num_output: 16
    bias_term: false
    pad: 0
    kernel_size: 1
    stride: 1
    weight_filler {
      type: "xavier"
    }
    bias_filler {
      type: "constant"
    }
  }
}
layer {
  name: "stage1_1/branch1a/bn"
  type: "BatchNorm"
  bottom: "stage1_1/branch1a"
  top: "stage1_1/branch1a"
  batch_norm_param {
    moving_average_fraction: 0.999
    eps: 0.001
  }
}
layer {
  name: "stage1_1/branch1a/scale"
  type: "Scale"
  bottom: "stage1_1/branch1a"
  top: "stage1_1/branch1a"
  scale_param {
    filler {
      value: 1
    }
    bias_term: true
    bias_filler {
      value: 0
    }
  }
}
layer {
  name: "stage1_1/branch1a/relu"
  type: "ReLU"
  bottom: "stage1_1/branch1a"
  top: "stage1_1/branch1a"
}
layer {
  name: "stage1_1/branch1b"
  type: "Convolution"
  bottom: "stage1_1/branch1a"
  top: "stage1_1/branch1b"
  convolution_param {
    num_output: 16
    bias_term: false
    pad: 1
    kernel_size: 3
    stride: 1
    weight_filler {
      type: "xavier"
    }
    bias_filler {
      type: "constant"
    }
  }
}
layer {
  name: "stage1_1/branch1b/bn"
  type: "BatchNorm"
  bottom: "stage1_1/branch1b"
  top: "stage1_1/branch1b"
  batch_norm_param {
    moving_average_fraction: 0.999
    eps: 0.001
  }
}
layer {
  name: "stage1_1/branch1b/scale"
  type: "Scale"
  bottom: "stage1_1/branch1b"
  top: "stage1_1/branch1b"
  scale_param {
    filler {
      value: 1
    }
    bias_term: true
    bias_filler {
      value: 0
    }
  }
}
layer {
  name: "stage1_1/branch1b/relu"
  type: "ReLU"
  bottom: "stage1_1/branch1b"
  top: "stage1_1/branch1b"
}
layer {
  name: "stage1_1/branch2a"
  type: "Convolution"
  bottom: "stem3"
  top: "stage1_1/branch2a"
  convolution_param {
    num_output: 16
    bias_term: false
    pad: 0
    kernel_size: 1
    stride: 1
    weight_filler {
      type: "xavier"
    }
    bias_filler {
      type: "constant"
    }
  }
}
layer {
  name: "stage1_1/branch2a/bn"
  type: "BatchNorm"
  bottom: "stage1_1/branch2a"
  top: "stage1_1/branch2a"
  batch_norm_param {
    moving_average_fraction: 0.999
    eps: 0.001
  }
}
layer {
  name: "stage1_1/branch2a/scale"
  type: "Scale"
  bottom: "stage1_1/branch2a"
  top: "stage1_1/branch2a"
  scale_param {
    filler {
      value: 1
    }
    bias_term: true
    bias_filler {
      value: 0
    }
  }
}
layer {
  name: "stage1_1/branch2a/relu"
  type: "ReLU"
  bottom: "stage1_1/branch2a"
  top: "stage1_1/branch2a"
}
layer {
  name: "stage1_1/branch2b"
  type: "Convolution"
  bottom: "stage1_1/branch2a"
  top: "stage1_1/branch2b"
  convolution_param {
    num_output: 16
    bias_term: false
    pad: 1
    kernel_size: 3
    stride: 1
    weight_filler {
      type: "xavier"
    }
    bias_filler {
      type: "constant"
    }
  }
}
layer {
  name: "stage1_1/branch2b/bn"
  type: "BatchNorm"
  bottom: "stage1_1/branch2b"
  top: "stage1_1/branch2b"
  batch_norm_param {
    moving_average_fraction: 0.999
    eps: 0.001
  }
}
layer {
  name: "stage1_1/branch2b/scale"
  type: "Scale"
  bottom: "stage1_1/branch2b"
  top: "stage1_1/branch2b"
  scale_param {
    filler {
      value: 1
    }
    bias_term: true
    bias_filler {
      value: 0
    }
  }
}
layer {
  name: "stage1_1/branch2b/relu"
  type: "ReLU"
  bottom: "stage1_1/branch2b"
  top: "stage1_1/branch2b"
}
layer {
  name: "stage1_1/branch2c"
  type: "Convolution"
  bottom: "stage1_1/branch2b"
  top: "stage1_1/branch2c"
  convolution_param {
    num_output: 16
    bias_term: false
    pad: 1
    kernel_size: 3
    stride: 1
    weight_filler {
      type: "xavier"
    }
    bias_filler {
      type: "constant"
    }
  }
}
layer {
  name: "stage1_1/branch2c/bn"
  type: "BatchNorm"
  bottom: "stage1_1/branch2c"
  top: "stage1_1/branch2c"
  batch_norm_param {
    moving_average_fraction: 0.999
    eps: 0.001
  }
}
layer {
  name: "stage1_1/branch2c/scale"
  type: "Scale"
  bottom: "stage1_1/branch2c"
  top: "stage1_1/branch2c"
  scale_param {
    filler {
      value: 1
    }
    bias_term: true
    bias_filler {
      value: 0
    }
  }
}
layer {
  name: "stage1_1/branch2c/relu"
  type: "ReLU"
  bottom: "stage1_1/branch2c"
  top: "stage1_1/branch2c"
}
layer {
  name: "stage1_1/concat"
  type: "Concat"
  bottom: "stem3"
  bottom: "stage1_1/branch1b"
  bottom: "stage1_1/branch2c"
  top: "stage1_1/concat"
  concat_param {
    axis: 1
  }
}
layer {
  name: "stage1_2/branch1a"
  type: "Convolution"
  bottom: "stage1_1/concat"
  top: "stage1_2/branch1a"
  convolution_param {
    num_output: 16
    bias_term: false
    pad: 0
    kernel_size: 1
    stride: 1
    weight_filler {
      type: "xavier"
    }
    bias_filler {
      type: "constant"
    }
  }
}
layer {
  name: "stage1_2/branch1a/bn"
  type: "BatchNorm"
  bottom: "stage1_2/branch1a"
  top: "stage1_2/branch1a"
  batch_norm_param {
    moving_average_fraction: 0.999
    eps: 0.001
  }
}
layer {
  name: "stage1_2/branch1a/scale"
  type: "Scale"
  bottom: "stage1_2/branch1a"
  top: "stage1_2/branch1a"
  scale_param {
    filler {
      value: 1
    }
    bias_term: true
    bias_filler {
      value: 0
    }
  }
}
layer {
  name: "stage1_2/branch1a/relu"
  type: "ReLU"
  bottom: "stage1_2/branch1a"
  top: "stage1_2/branch1a"
}
layer {
  name: "stage1_2/branch1b"
  type: "Convolution"
  bottom: "stage1_2/branch1a"
  top: "stage1_2/branch1b"
  convolution_param {
    num_output: 16
    bias_term: false
    pad: 1
    kernel_size: 3
    stride: 1
    weight_filler {
      type: "xavier"
    }
    bias_filler {
      type: "constant"
    }
  }
}
layer {
  name: "stage1_2/branch1b/bn"
  type: "BatchNorm"
  bottom: "stage1_2/branch1b"
  top: "stage1_2/branch1b"
  batch_norm_param {
    moving_average_fraction: 0.999
    eps: 0.001
  }
}
layer {
  name: "stage1_2/branch1b/scale"
  type: "Scale"
  bottom: "stage1_2/branch1b"
  top: "stage1_2/branch1b"
  scale_param {
    filler {
      value: 1
    }
    bias_term: true
    bias_filler {
      value: 0
    }
  }
}
layer {
  name: "stage1_2/branch1b/relu"
  type: "ReLU"
  bottom: "stage1_2/branch1b"
  top: "stage1_2/branch1b"
}
layer {
  name: "stage1_2/branch2a"
  type: "Convolution"
  bottom: "stage1_1/concat"
  top: "stage1_2/branch2a"
  convolution_param {
    num_output: 16
    bias_term: false
    pad: 0
    kernel_size: 1
    stride: 1
    weight_filler {
      type: "xavier"
    }
    bias_filler {
      type: "constant"
    }
  }
}
layer {
  name: "stage1_2/branch2a/bn"
  type: "BatchNorm"
  bottom: "stage1_2/branch2a"
  top: "stage1_2/branch2a"
  batch_norm_param {
    moving_average_fraction: 0.999
    eps: 0.001
  }
}
layer {
  name: "stage1_2/branch2a/scale"
  type: "Scale"
  bottom: "stage1_2/branch2a"
  top: "stage1_2/branch2a"
  scale_param {
    filler {
      value: 1
    }
    bias_term: true
    bias_filler {
      value: 0
    }
  }
}
layer {
  name: "stage1_2/branch2a/relu"
  type: "ReLU"
  bottom: "stage1_2/branch2a"
  top: "stage1_2/branch2a"
}
layer {
  name: "stage1_2/branch2b"
  type: "Convolution"
  bottom: "stage1_2/branch2a"
  top: "stage1_2/branch2b"
  convolution_param {
    num_output: 16
    bias_term: false
    pad: 1
    kernel_size: 3
    stride: 1
    weight_filler {
      type: "xavier"
    }
    bias_filler {
      type: "constant"
    }
  }
}
layer {
  name: "stage1_2/branch2b/bn"
  type: "BatchNorm"
  bottom: "stage1_2/branch2b"
  top: "stage1_2/branch2b"
  batch_norm_param {
    moving_average_fraction: 0.999
    eps: 0.001
  }
}
layer {
  name: "stage1_2/branch2b/scale"
  type: "Scale"
  bottom: "stage1_2/branch2b"
  top: "stage1_2/branch2b"
  scale_param {
    filler {
      value: 1
    }
    bias_term: true
    bias_filler {
      value: 0
    }
  }
}
layer {
  name: "stage1_2/branch2b/relu"
  type: "ReLU"
  bottom: "stage1_2/branch2b"
  top: "stage1_2/branch2b"
}
layer {
  name: "stage1_2/branch2c"
  type: "Convolution"
  bottom: "stage1_2/branch2b"
  top: "stage1_2/branch2c"
  convolution_param {
    num_output: 16
    bias_term: false
    pad: 1
    kernel_size: 3
    stride: 1
    weight_filler {
      type: "xavier"
    }
    bias_filler {
      type: "constant"
    }
  }
}
layer {
  name: "stage1_2/branch2c/bn"
  type: "BatchNorm"
  bottom: "stage1_2/branch2c"
  top: "stage1_2/branch2c"
  batch_norm_param {
    moving_average_fraction: 0.999
    eps: 0.001
  }
}
layer {
  name: "stage1_2/branch2c/scale"
  type: "Scale"
  bottom: "stage1_2/branch2c"
  top: "stage1_2/branch2c"
  scale_param {
    filler {
      value: 1
    }
    bias_term: true
    bias_filler {
      value: 0
    }
  }
}
layer {
  name: "stage1_2/branch2c/relu"
  type: "ReLU"
  bottom: "stage1_2/branch2c"
  top: "stage1_2/branch2c"
}
layer {
  name: "stage1_2/concat"
  type: "Concat"
  bottom: "stage1_1/concat"
  bottom: "stage1_2/branch1b"
  bottom: "stage1_2/branch2c"
  top: "stage1_2/concat"
  concat_param {
    axis: 1
  }
}
layer {
  name: "stage1_3/branch1a"
  type: "Convolution"
  bottom: "stage1_2/concat"
  top: "stage1_3/branch1a"
  convolution_param {
    num_output: 16
    bias_term: false
    pad: 0
    kernel_size: 1
    stride: 1
    weight_filler {
      type: "xavier"
    }
    bias_filler {
      type: "constant"
    }
  }
}
layer {
  name: "stage1_3/branch1a/bn"
  type: "BatchNorm"
  bottom: "stage1_3/branch1a"
  top: "stage1_3/branch1a"
  batch_norm_param {
    moving_average_fraction: 0.999
    eps: 0.001
  }
}
layer {
  name: "stage1_3/branch1a/scale"
  type: "Scale"
  bottom: "stage1_3/branch1a"
  top: "stage1_3/branch1a"
  scale_param {
    filler {
      value: 1
    }
    bias_term: true
    bias_filler {
      value: 0
    }
  }
}
layer {
  name: "stage1_3/branch1a/relu"
  type: "ReLU"
  bottom: "stage1_3/branch1a"
  top: "stage1_3/branch1a"
}
layer {
  name: "stage1_3/branch1b"
  type: "Convolution"
  bottom: "stage1_3/branch1a"
  top: "stage1_3/branch1b"
  convolution_param {
    num_output: 16
    bias_term: false
    pad: 1
    kernel_size: 3
    stride: 1
    weight_filler {
      type: "xavier"
    }
    bias_filler {
      type: "constant"
    }
  }
}
layer {
  name: "stage1_3/branch1b/bn"
  type: "BatchNorm"
  bottom: "stage1_3/branch1b"
  top: "stage1_3/branch1b"
  batch_norm_param {
    moving_average_fraction: 0.999
    eps: 0.001
  }
}
layer {
  name: "stage1_3/branch1b/scale"
  type: "Scale"
  bottom: "stage1_3/branch1b"
  top: "stage1_3/branch1b"
  scale_param {
    filler {
      value: 1
    }
    bias_term: true
    bias_filler {
      value: 0
    }
  }
}
layer {
  name: "stage1_3/branch1b/relu"
  type: "ReLU"
  bottom: "stage1_3/branch1b"
  top: "stage1_3/branch1b"
}
layer {
  name: "stage1_3/branch2a"
  type: "Convolution"
  bottom: "stage1_2/concat"
  top: "stage1_3/branch2a"
  convolution_param {
    num_output: 16
    bias_term: false
    pad: 0
    kernel_size: 1
    stride: 1
    weight_filler {
      type: "xavier"
    }
    bias_filler {
      type: "constant"
    }
  }
}
layer {
  name: "stage1_3/branch2a/bn"
  type: "BatchNorm"
  bottom: "stage1_3/branch2a"
  top: "stage1_3/branch2a"
  batch_norm_param {
    moving_average_fraction: 0.999
    eps: 0.001
  }
}
layer {
  name: "stage1_3/branch2a/scale"
  type: "Scale"
  bottom: "stage1_3/branch2a"
  top: "stage1_3/branch2a"
  scale_param {
    filler {
      value: 1
    }
    bias_term: true
    bias_filler {
      value: 0
    }
  }
}
layer {
  name: "stage1_3/branch2a/relu"
  type: "ReLU"
  bottom: "stage1_3/branch2a"
  top: "stage1_3/branch2a"
}
layer {
  name: "stage1_3/branch2b"
  type: "Convolution"
  bottom: "stage1_3/branch2a"
  top: "stage1_3/branch2b"
  convolution_param {
    num_output: 16
    bias_term: false
    pad: 1
    kernel_size: 3
    stride: 1
    weight_filler {
      type: "xavier"
    }
    bias_filler {
      type: "constant"
    }
  }
}
layer {
  name: "stage1_3/branch2b/bn"
  type: "BatchNorm"
  bottom: "stage1_3/branch2b"
  top: "stage1_3/branch2b"
  batch_norm_param {
    moving_average_fraction: 0.999
    eps: 0.001
  }
}
layer {
  name: "stage1_3/branch2b/scale"
  type: "Scale"
  bottom: "stage1_3/branch2b"
  top: "stage1_3/branch2b"
  scale_param {
    filler {
      value: 1
    }
    bias_term: true
    bias_filler {
      value: 0
    }
  }
}
layer {
  name: "stage1_3/branch2b/relu"
  type: "ReLU"
  bottom: "stage1_3/branch2b"
  top: "stage1_3/branch2b"
}
layer {
  name: "stage1_3/branch2c"
  type: "Convolution"
  bottom: "stage1_3/branch2b"
  top: "stage1_3/branch2c"
  convolution_param {
    num_output: 16
    bias_term: false
    pad: 1
    kernel_size: 3
    stride: 1
    weight_filler {
      type: "xavier"
    }
    bias_filler {
      type: "constant"
    }
  }
}
layer {
  name: "stage1_3/branch2c/bn"
  type: "BatchNorm"
  bottom: "stage1_3/branch2c"
  top: "stage1_3/branch2c"
  batch_norm_param {
    moving_average_fraction: 0.999
    eps: 0.001
  }
}
layer {
  name: "stage1_3/branch2c/scale"
  type: "Scale"
  bottom: "stage1_3/branch2c"
  top: "stage1_3/branch2c"
  scale_param {
    filler {
      value: 1
    }
    bias_term: true
    bias_filler {
      value: 0
    }
  }
}
layer {
  name: "stage1_3/branch2c/relu"
  type: "ReLU"
  bottom: "stage1_3/branch2c"
  top: "stage1_3/branch2c"
}
layer {
  name: "stage1_3/concat"
  type: "Concat"
  bottom: "stage1_2/concat"
  bottom: "stage1_3/branch1b"
  bottom: "stage1_3/branch2c"
  top: "stage1_3/concat"
  concat_param {
    axis: 1
  }
}
layer {
  name: "stage1_tb"
  type: "Convolution"
  bottom: "stage1_3/concat"
  top: "stage1_tb"
  convolution_param {
    num_output: 128
    bias_term: false
    pad: 0
    kernel_size: 1
    stride: 1
    weight_filler {
      type: "xavier"
    }
    bias_filler {
      type: "constant"
    }
  }
}
layer {
  name: "stage1_tb/bn"
  type: "BatchNorm"
  bottom: "stage1_tb"
  top: "stage1_tb"
  batch_norm_param {
    moving_average_fraction: 0.999
    eps: 0.001
  }
}
layer {
  name: "stage1_tb/scale"
  type: "Scale"
  bottom: "stage1_tb"
  top: "stage1_tb"
  scale_param {
    filler {
      value: 1
    }
    bias_term: true
    bias_filler {
      value: 0
    }
  }
}
layer {
  name: "stage1_tb/relu"
  type: "ReLU"
  bottom: "stage1_tb"
  top: "stage1_tb"
}
layer {
  name: "stage1_tb/pool"
  type: "Pooling"
  bottom: "stage1_tb"
  top: "stage1_tb/pool"
  pooling_param {
    pool: AVE
    kernel_size: 2
    stride: 2
  }
}
layer {
  name: "stage2_1/branch1a"
  type: "Convolution"
  bottom: "stage1_tb/pool"
  top: "stage2_1/branch1a"
  convolution_param {
    num_output: 32
    bias_term: false
    pad: 0
    kernel_size: 1
    stride: 1
    weight_filler {
      type: "xavier"
    }
    bias_filler {
      type: "constant"
    }
  }
}
layer {
  name: "stage2_1/branch1a/bn"
  type: "BatchNorm"
  bottom: "stage2_1/branch1a"
  top: "stage2_1/branch1a"
  batch_norm_param {
    moving_average_fraction: 0.999
    eps: 0.001
  }
}
layer {
  name: "stage2_1/branch1a/scale"
  type: "Scale"
  bottom: "stage2_1/branch1a"
  top: "stage2_1/branch1a"
  scale_param {
    filler {
      value: 1
    }
    bias_term: true
    bias_filler {
      value: 0
    }
  }
}
layer {
  name: "stage2_1/branch1a/relu"
  type: "ReLU"
  bottom: "stage2_1/branch1a"
  top: "stage2_1/branch1a"
}
layer {
  name: "stage2_1/branch1b"
  type: "Convolution"
  bottom: "stage2_1/branch1a"
  top: "stage2_1/branch1b"
  convolution_param {
    num_output: 16
    bias_term: false
    pad: 1
    kernel_size: 3
    stride: 1
    weight_filler {
      type: "xavier"
    }
    bias_filler {
      type: "constant"
    }
  }
}
layer {
  name: "stage2_1/branch1b/bn"
  type: "BatchNorm"
  bottom: "stage2_1/branch1b"
  top: "stage2_1/branch1b"
  batch_norm_param {
    moving_average_fraction: 0.999
    eps: 0.001
  }
}
layer {
  name: "stage2_1/branch1b/scale"
  type: "Scale"
  bottom: "stage2_1/branch1b"
  top: "stage2_1/branch1b"
  scale_param {
    filler {
      value: 1
    }
    bias_term: true
    bias_filler {
      value: 0
    }
  }
}
layer {
  name: "stage2_1/branch1b/relu"
  type: "ReLU"
  bottom: "stage2_1/branch1b"
  top: "stage2_1/branch1b"
}
layer {
  name: "stage2_1/branch2a"
  type: "Convolution"
  bottom: "stage1_tb/pool"
  top: "stage2_1/branch2a"
  convolution_param {
    num_output: 32
    bias_term: false
    pad: 0
    kernel_size: 1
    stride: 1
    weight_filler {
      type: "xavier"
    }
    bias_filler {
      type: "constant"
    }
  }
}
layer {
  name: "stage2_1/branch2a/bn"
  type: "BatchNorm"
  bottom: "stage2_1/branch2a"
  top: "stage2_1/branch2a"
  batch_norm_param {
    moving_average_fraction: 0.999
    eps: 0.001
  }
}
layer {
  name: "stage2_1/branch2a/scale"
  type: "Scale"
  bottom: "stage2_1/branch2a"
  top: "stage2_1/branch2a"
  scale_param {
    filler {
      value: 1
    }
    bias_term: true
    bias_filler {
      value: 0
    }
  }
}
layer {
  name: "stage2_1/branch2a/relu"
  type: "ReLU"
  bottom: "stage2_1/branch2a"
  top: "stage2_1/branch2a"
}
layer {
  name: "stage2_1/branch2b"
  type: "Convolution"
  bottom: "stage2_1/branch2a"
  top: "stage2_1/branch2b"
  convolution_param {
    num_output: 16
    bias_term: false
    pad: 1
    kernel_size: 3
    stride: 1
    weight_filler {
      type: "xavier"
    }
    bias_filler {
      type: "constant"
    }
  }
}
layer {
  name: "stage2_1/branch2b/bn"
  type: "BatchNorm"
  bottom: "stage2_1/branch2b"
  top: "stage2_1/branch2b"
  batch_norm_param {
    moving_average_fraction: 0.999
    eps: 0.001
  }
}
layer {
  name: "stage2_1/branch2b/scale"
  type: "Scale"
  bottom: "stage2_1/branch2b"
  top: "stage2_1/branch2b"
  scale_param {
    filler {
      value: 1
    }
    bias_term: true
    bias_filler {
      value: 0
    }
  }
}
layer {
  name: "stage2_1/branch2b/relu"
  type: "ReLU"
  bottom: "stage2_1/branch2b"
  top: "stage2_1/branch2b"
}
layer {
  name: "stage2_1/branch2c"
  type: "Convolution"
  bottom: "stage2_1/branch2b"
  top: "stage2_1/branch2c"
  convolution_param {
    num_output: 16
    bias_term: false
    pad: 1
    kernel_size: 3
    stride: 1
    weight_filler {
      type: "xavier"
    }
    bias_filler {
      type: "constant"
    }
  }
}
layer {
  name: "stage2_1/branch2c/bn"
  type: "BatchNorm"
  bottom: "stage2_1/branch2c"
  top: "stage2_1/branch2c"
  batch_norm_param {
    moving_average_fraction: 0.999
    eps: 0.001
  }
}
layer {
  name: "stage2_1/branch2c/scale"
  type: "Scale"
  bottom: "stage2_1/branch2c"
  top: "stage2_1/branch2c"
  scale_param {
    filler {
      value: 1
    }
    bias_term: true
    bias_filler {
      value: 0
    }
  }
}
layer {
  name: "stage2_1/branch2c/relu"
  type: "ReLU"
  bottom: "stage2_1/branch2c"
  top: "stage2_1/branch2c"
}
layer {
  name: "stage2_1/concat"
  type: "Concat"
  bottom: "stage1_tb/pool"
  bottom: "stage2_1/branch1b"
  bottom: "stage2_1/branch2c"
  top: "stage2_1/concat"
  concat_param {
    axis: 1
  }
}
layer {
  name: "stage2_2/branch1a"
  type: "Convolution"
  bottom: "stage2_1/concat"
  top: "stage2_2/branch1a"
  convolution_param {
    num_output: 32
    bias_term: false
    pad: 0
    kernel_size: 1
    stride: 1
    weight_filler {
      type: "xavier"
    }
    bias_filler {
      type: "constant"
    }
  }
}
layer {
  name: "stage2_2/branch1a/bn"
  type: "BatchNorm"
  bottom: "stage2_2/branch1a"
  top: "stage2_2/branch1a"
  batch_norm_param {
    moving_average_fraction: 0.999
    eps: 0.001
  }
}
layer {
  name: "stage2_2/branch1a/scale"
  type: "Scale"
  bottom: "stage2_2/branch1a"
  top: "stage2_2/branch1a"
  scale_param {
    filler {
      value: 1
    }
    bias_term: true
    bias_filler {
      value: 0
    }
  }
}
layer {
  name: "stage2_2/branch1a/relu"
  type: "ReLU"
  bottom: "stage2_2/branch1a"
  top: "stage2_2/branch1a"
}
layer {
  name: "stage2_2/branch1b"
  type: "Convolution"
  bottom: "stage2_2/branch1a"
  top: "stage2_2/branch1b"
  convolution_param {
    num_output: 16
    bias_term: false
    pad: 1
    kernel_size: 3
    stride: 1
    weight_filler {
      type: "xavier"
    }
    bias_filler {
      type: "constant"
    }
  }
}
layer {
  name: "stage2_2/branch1b/bn"
  type: "BatchNorm"
  bottom: "stage2_2/branch1b"
  top: "stage2_2/branch1b"
  batch_norm_param {
    moving_average_fraction: 0.999
    eps: 0.001
  }
}
layer {
  name: "stage2_2/branch1b/scale"
  type: "Scale"
  bottom: "stage2_2/branch1b"
  top: "stage2_2/branch1b"
  scale_param {
    filler {
      value: 1
    }
    bias_term: true
    bias_filler {
      value: 0
    }
  }
}
layer {
  name: "stage2_2/branch1b/relu"
  type: "ReLU"
  bottom: "stage2_2/branch1b"
  top: "stage2_2/branch1b"
}
layer {
  name: "stage2_2/branch2a"
  type: "Convolution"
  bottom: "stage2_1/concat"
  top: "stage2_2/branch2a"
  convolution_param {
    num_output: 32
    bias_term: false
    pad: 0
    kernel_size: 1
    stride: 1
    weight_filler {
      type: "xavier"
    }
    bias_filler {
      type: "constant"
    }
  }
}
layer {
  name: "stage2_2/branch2a/bn"
  type: "BatchNorm"
  bottom: "stage2_2/branch2a"
  top: "stage2_2/branch2a"
  batch_norm_param {
    moving_average_fraction: 0.999
    eps: 0.001
  }
}
layer {
  name: "stage2_2/branch2a/scale"
  type: "Scale"
  bottom: "stage2_2/branch2a"
  top: "stage2_2/branch2a"
  scale_param {
    filler {
      value: 1
    }
    bias_term: true
    bias_filler {
      value: 0
    }
  }
}
layer {
  name: "stage2_2/branch2a/relu"
  type: "ReLU"
  bottom: "stage2_2/branch2a"
  top: "stage2_2/branch2a"
}
layer {
  name: "stage2_2/branch2b"
  type: "Convolution"
  bottom: "stage2_2/branch2a"
  top: "stage2_2/branch2b"
  convolution_param {
    num_output: 16
    bias_term: false
    pad: 1
    kernel_size: 3
    stride: 1
    weight_filler {
      type: "xavier"
    }
    bias_filler {
      type: "constant"
    }
  }
}
layer {
  name: "stage2_2/branch2b/bn"
  type: "BatchNorm"
  bottom: "stage2_2/branch2b"
  top: "stage2_2/branch2b"
  batch_norm_param {
    moving_average_fraction: 0.999
    eps: 0.001
  }
}
layer {
  name: "stage2_2/branch2b/scale"
  type: "Scale"
  bottom: "stage2_2/branch2b"
  top: "stage2_2/branch2b"
  scale_param {
    filler {
      value: 1
    }
    bias_term: true
    bias_filler {
      value: 0
    }
  }
}
layer {
  name: "stage2_2/branch2b/relu"
  type: "ReLU"
  bottom: "stage2_2/branch2b"
  top: "stage2_2/branch2b"
}
layer {
  name: "stage2_2/branch2c"
  type: "Convolution"
  bottom: "stage2_2/branch2b"
  top: "stage2_2/branch2c"
  convolution_param {
    num_output: 16
    bias_term: false
    pad: 1
    kernel_size: 3
    stride: 1
    weight_filler {
      type: "xavier"
    }
    bias_filler {
      type: "constant"
    }
  }
}
layer {
  name: "stage2_2/branch2c/bn"
  type: "BatchNorm"
  bottom: "stage2_2/branch2c"
  top: "stage2_2/branch2c"
  batch_norm_param {
    moving_average_fraction: 0.999
    eps: 0.001
  }
}
layer {
  name: "stage2_2/branch2c/scale"
  type: "Scale"
  bottom: "stage2_2/branch2c"
  top: "stage2_2/branch2c"
  scale_param {
    filler {
      value: 1
    }
    bias_term: true
    bias_filler {
      value: 0
    }
  }
}
layer {
  name: "stage2_2/branch2c/relu"
  type: "ReLU"
  bottom: "stage2_2/branch2c"
  top: "stage2_2/branch2c"
}
layer {
  name: "stage2_2/concat"
  type: "Concat"
  bottom: "stage2_1/concat"
  bottom: "stage2_2/branch1b"
  bottom: "stage2_2/branch2c"
  top: "stage2_2/concat"
  concat_param {
    axis: 1
  }
}
layer {
  name: "stage2_3/branch1a"
  type: "Convolution"
  bottom: "stage2_2/concat"
  top: "stage2_3/branch1a"
  convolution_param {
    num_output: 32
    bias_term: false
    pad: 0
    kernel_size: 1
    stride: 1
    weight_filler {
      type: "xavier"
    }
    bias_filler {
      type: "constant"
    }
  }
}
layer {
  name: "stage2_3/branch1a/bn"
  type: "BatchNorm"
  bottom: "stage2_3/branch1a"
  top: "stage2_3/branch1a"
  batch_norm_param {
    moving_average_fraction: 0.999
    eps: 0.001
  }
}
layer {
  name: "stage2_3/branch1a/scale"
  type: "Scale"
  bottom: "stage2_3/branch1a"
  top: "stage2_3/branch1a"
  scale_param {
    filler {
      value: 1
    }
    bias_term: true
    bias_filler {
      value: 0
    }
  }
}
layer {
  name: "stage2_3/branch1a/relu"
  type: "ReLU"
  bottom: "stage2_3/branch1a"
  top: "stage2_3/branch1a"
}
layer {
  name: "stage2_3/branch1b"
  type: "Convolution"
  bottom: "stage2_3/branch1a"
  top: "stage2_3/branch1b"
  convolution_param {
    num_output: 16
    bias_term: false
    pa
I1025 13:37:06.733633 13552 layer_factory.hpp:77] Creating layer data
I1025 13:37:06.734752 13552 net.cpp:100] Creating Layer data
I1025 13:37:06.734793 13552 net.cpp:408] data -> data
I1025 13:37:06.734849 13552 net.cpp:408] data -> label
I1025 13:37:06.736485 13560 db_lmdb.cpp:35] Opened lmdb /home/qiao/caffe-ssd/data/create_lmdb/lmdb/double_camera_trainval_lmdb
I1025 13:37:06.799204 13552 annotated_data_layer.cpp:62] output data size: 24,3,300,300
I1025 13:37:06.825043 13552 net.cpp:150] Setting up data
I1025 13:37:06.825067 13552 net.cpp:157] Top shape: 24 3 300 300 (6480000)
I1025 13:37:06.825070 13552 net.cpp:157] Top shape: 1 1 13 8 (104)
I1025 13:37:06.825073 13552 net.cpp:165] Memory required for data: 25920416
I1025 13:37:06.825083 13552 layer_factory.hpp:77] Creating layer data_data_0_split
I1025 13:37:06.825094 13552 net.cpp:100] Creating Layer data_data_0_split
I1025 13:37:06.825100 13552 net.cpp:434] data_data_0_split <- data
I1025 13:37:06.825111 13552 net.cpp:408] data_data_0_split -> data_data_0_split_0
I1025 13:37:06.825120 13552 net.cpp:408] data_data_0_split -> data_data_0_split_1
I1025 13:37:06.825124 13552 net.cpp:408] data_data_0_split -> data_data_0_split_2
I1025 13:37:06.825129 13552 net.cpp:408] data_data_0_split -> data_data_0_split_3
I1025 13:37:06.825134 13552 net.cpp:408] data_data_0_split -> data_data_0_split_4
I1025 13:37:06.825153 13552 net.cpp:408] data_data_0_split -> data_data_0_split_5
I1025 13:37:06.825157 13552 net.cpp:408] data_data_0_split -> data_data_0_split_6
I1025 13:37:06.825222 13552 net.cpp:150] Setting up data_data_0_split
I1025 13:37:06.825227 13552 net.cpp:157] Top shape: 24 3 300 300 (6480000)
I1025 13:37:06.825229 13552 net.cpp:157] Top shape: 24 3 300 300 (6480000)
I1025 13:37:06.825232 13552 net.cpp:157] Top shape: 24 3 300 300 (6480000)
I1025 13:37:06.825234 13552 net.cpp:157] Top shape: 24 3 300 300 (6480000)
I1025 13:37:06.825237 13552 net.cpp:157] Top shape: 24 3 300 300 (6480000)
I1025 13:37:06.825240 13552 net.cpp:157] Top shape: 24 3 300 300 (6480000)
I1025 13:37:06.825242 13552 net.cpp:157] Top shape: 24 3 300 300 (6480000)
I1025 13:37:06.825244 13552 net.cpp:165] Memory required for data: 207360416
I1025 13:37:06.825248 13552 layer_factory.hpp:77] Creating layer stem1
I1025 13:37:06.825261 13552 net.cpp:100] Creating Layer stem1
I1025 13:37:06.825264 13552 net.cpp:434] stem1 <- data_data_0_split_0
I1025 13:37:06.825269 13552 net.cpp:408] stem1 -> stem1
I1025 13:37:10.876595 13552 net.cpp:150] Setting up stem1
I1025 13:37:10.876618 13552 net.cpp:157] Top shape: 24 32 150 150 (17280000)
I1025 13:37:10.876622 13552 net.cpp:165] Memory required for data: 276480416
I1025 13:37:10.876637 13552 layer_factory.hpp:77] Creating layer stem1/bn
I1025 13:37:10.876649 13552 net.cpp:100] Creating Layer stem1/bn
I1025 13:37:10.876654 13552 net.cpp:434] stem1/bn <- stem1
I1025 13:37:10.876659 13552 net.cpp:395] stem1/bn -> stem1 (in-place)
I1025 13:37:10.876840 13552 net.cpp:150] Setting up stem1/bn
I1025 13:37:10.876847 13552 net.cpp:157] Top shape: 24 32 150 150 (17280000)
I1025 13:37:10.876850 13552 net.cpp:165] Memory required for data: 345600416
I1025 13:37:10.876859 13552 layer_factory.hpp:77] Creating layer stem1/scale
I1025 13:37:10.876868 13552 net.cpp:100] Creating Layer stem1/scale
I1025 13:37:10.876871 13552 net.cpp:434] stem1/scale <- stem1
I1025 13:37:10.876878 13552 net.cpp:395] stem1/scale -> stem1 (in-place)
I1025 13:37:10.876915 13552 layer_factory.hpp:77] Creating layer stem1/scale
I1025 13:37:10.877027 13552 net.cpp:150] Setting up stem1/scale
I1025 13:37:10.877033 13552 net.cpp:157] Top shape: 24 32 150 150 (17280000)
I1025 13:37:10.877038 13552 net.cpp:165] Memory required for data: 414720416
I1025 13:37:10.877043 13552 layer_factory.hpp:77] Creating layer stem1/relu
I1025 13:37:10.877049 13552 net.cpp:100] Creating Layer stem1/relu
I1025 13:37:10.877051 13552 net.cpp:434] stem1/relu <- stem1
I1025 13:37:10.877058 13552 net.cpp:395] stem1/relu -> stem1 (in-place)
I1025 13:37:10.884068 13552 net.cpp:150] Setting up stem1/relu
I1025 13:37:10.884088 13552 net.cpp:157] Top shape: 24 32 150 150 (17280000)
I1025 13:37:10.884094 13552 net.cpp:165] Memory required for data: 483840416
I1025 13:37:10.884100 13552 layer_factory.hpp:77] Creating layer stem1_stem1/relu_0_split
I1025 13:37:10.884109 13552 net.cpp:100] Creating Layer stem1_stem1/relu_0_split
I1025 13:37:10.884112 13552 net.cpp:434] stem1_stem1/relu_0_split <- stem1
I1025 13:37:10.884119 13552 net.cpp:408] stem1_stem1/relu_0_split -> stem1_stem1/relu_0_split_0
I1025 13:37:10.884129 13552 net.cpp:408] stem1_stem1/relu_0_split -> stem1_stem1/relu_0_split_1
I1025 13:37:10.884168 13552 net.cpp:150] Setting up stem1_stem1/relu_0_split
I1025 13:37:10.884176 13552 net.cpp:157] Top shape: 24 32 150 150 (17280000)
I1025 13:37:10.884179 13552 net.cpp:157] Top shape: 24 32 150 150 (17280000)
I1025 13:37:10.884182 13552 net.cpp:165] Memory required for data: 622080416
I1025 13:37:10.884186 13552 layer_factory.hpp:77] Creating layer stem2a
I1025 13:37:10.884196 13552 net.cpp:100] Creating Layer stem2a
I1025 13:37:10.884199 13552 net.cpp:434] stem2a <- stem1_stem1/relu_0_split_0
I1025 13:37:10.884207 13552 net.cpp:408] stem2a -> stem2a
I1025 13:37:10.887436 13552 net.cpp:150] Setting up stem2a
I1025 13:37:10.887456 13552 net.cpp:157] Top shape: 24 16 150 150 (8640000)
I1025 13:37:10.887459 13552 net.cpp:165] Memory required for data: 656640416
I1025 13:37:10.887487 13552 layer_factory.hpp:77] Creating layer stem2a/bn
I1025 13:37:10.887501 13552 net.cpp:100] Creating Layer stem2a/bn
I1025 13:37:10.887506 13552 net.cpp:434] stem2a/bn <- stem2a
I1025 13:37:10.887512 13552 net.cpp:395] stem2a/bn -> stem2a (in-place)
I1025 13:37:10.887681 13552 net.cpp:150] Setting up stem2a/bn
I1025 13:37:10.887687 13552 net.cpp:157] Top shape: 24 16 150 150 (8640000)
I1025 13:37:10.887691 13552 net.cpp:165] Memory required for data: 691200416
I1025 13:37:10.887699 13552 layer_factory.hpp:77] Creating layer stem2a/scale
I1025 13:37:10.887710 13552 net.cpp:100] Creating Layer stem2a/scale
I1025 13:37:10.887713 13552 net.cpp:434] stem2a/scale <- stem2a
I1025 13:37:10.887717 13552 net.cpp:395] stem2a/scale -> stem2a (in-place)
I1025 13:37:10.887750 13552 layer_factory.hpp:77] Creating layer stem2a/scale
I1025 13:37:10.887856 13552 net.cpp:150] Setting up stem2a/scale
I1025 13:37:10.887862 13552 net.cpp:157] Top shape: 24 16 150 150 (8640000)
I1025 13:37:10.887864 13552 net.cpp:165] Memory required for data: 725760416
I1025 13:37:10.887869 13552 layer_factory.hpp:77] Creating layer stem2a/relu
I1025 13:37:10.887876 13552 net.cpp:100] Creating Layer stem2a/relu
I1025 13:37:10.887878 13552 net.cpp:434] stem2a/relu <- stem2a
I1025 13:37:10.887882 13552 net.cpp:395] stem2a/relu -> stem2a (in-place)
I1025 13:37:10.888324 13552 net.cpp:150] Setting up stem2a/relu
I1025 13:37:10.888336 13552 net.cpp:157] Top shape: 24 16 150 150 (8640000)
I1025 13:37:10.888339 13552 net.cpp:165] Memory required for data: 760320416
I1025 13:37:10.888342 13552 layer_factory.hpp:77] Creating layer stem2b
I1025 13:37:10.888351 13552 net.cpp:100] Creating Layer stem2b
I1025 13:37:10.888355 13552 net.cpp:434] stem2b <- stem2a
I1025 13:37:10.888360 13552 net.cpp:408] stem2b -> stem2b
I1025 13:37:10.891408 13552 net.cpp:150] Setting up stem2b
I1025 13:37:10.891425 13552 net.cpp:157] Top shape: 24 32 75 75 (4320000)
I1025 13:37:10.891429 13552 net.cpp:165] Memory required for data: 777600416
I1025 13:37:10.891434 13552 layer_factory.hpp:77] Creating layer stem2b/bn
I1025 13:37:10.891443 13552 net.cpp:100] Creating Layer stem2b/bn
I1025 13:37:10.891446 13552 net.cpp:434] stem2b/bn <- stem2b
I1025 13:37:10.891453 13552 net.cpp:395] stem2b/bn -> stem2b (in-place)
I1025 13:37:10.891608 13552 net.cpp:150] Setting up stem2b/bn
I1025 13:37:10.891615 13552 net.cpp:157] Top shape: 24 32 75 75 (4320000)
I1025 13:37:10.891618 13552 net.cpp:165] Memory required for data: 794880416
I1025 13:37:10.891625 13552 layer_factory.hpp:77] Creating layer stem2b/scale
I1025 13:37:10.891630 13552 net.cpp:100] Creating Layer stem2b/scale
I1025 13:37:10.891633 13552 net.cpp:434] stem2b/scale <- stem2b
I1025 13:37:10.891639 13552 net.cpp:395] stem2b/scale -> stem2b (in-place)
I1025 13:37:10.891669 13552 layer_factory.hpp:77] Creating layer stem2b/scale
I1025 13:37:10.891759 13552 net.cpp:150] Setting up stem2b/scale
I1025 13:37:10.891765 13552 net.cpp:157] Top shape: 24 32 75 75 (4320000)
I1025 13:37:10.891768 13552 net.cpp:165] Memory required for data: 812160416
I1025 13:37:10.891777 13552 layer_factory.hpp:77] Creating layer stem2b/relu
I1025 13:37:10.891782 13552 net.cpp:100] Creating Layer stem2b/relu
I1025 13:37:10.891785 13552 net.cpp:434] stem2b/relu <- stem2b
I1025 13:37:10.891789 13552 net.cpp:395] stem2b/relu -> stem2b (in-place)
I1025 13:37:10.893257 13552 net.cpp:150] Setting up stem2b/relu
I1025 13:37:10.893270 13552 net.cpp:157] Top shape: 24 32 75 75 (4320000)
I1025 13:37:10.893275 13552 net.cpp:165] Memory required for data: 829440416
I1025 13:37:10.893277 13552 layer_factory.hpp:77] Creating layer stem/pool
I1025 13:37:10.893285 13552 net.cpp:100] Creating Layer stem/pool
I1025 13:37:10.893290 13552 net.cpp:434] stem/pool <- stem1_stem1/relu_0_split_1
I1025 13:37:10.893294 13552 net.cpp:408] stem/pool -> stem/pool
I1025 13:37:10.893342 13552 net.cpp:150] Setting up stem/pool
I1025 13:37:10.893349 13552 net.cpp:157] Top shape: 24 32 75 75 (4320000)
I1025 13:37:10.893352 13552 net.cpp:165] Memory required for data: 846720416
I1025 13:37:10.893370 13552 layer_factory.hpp:77] Creating layer stem/concat
I1025 13:37:10.893380 13552 net.cpp:100] Creating Layer stem/concat
I1025 13:37:10.893384 13552 net.cpp:434] stem/concat <- stem/pool
I1025 13:37:10.893388 13552 net.cpp:434] stem/concat <- stem2b
I1025 13:37:10.893393 13552 net.cpp:408] stem/concat -> stem/concat
I1025 13:37:10.893415 13552 net.cpp:150] Setting up stem/concat
I1025 13:37:10.893421 13552 net.cpp:157] Top shape: 24 64 75 75 (8640000)
I1025 13:37:10.893424 13552 net.cpp:165] Memory required for data: 881280416
I1025 13:37:10.893426 13552 layer_factory.hpp:77] Creating layer stem3
I1025 13:37:10.893435 13552 net.cpp:100] Creating Layer stem3
I1025 13:37:10.893438 13552 net.cpp:434] stem3 <- stem/concat
I1025 13:37:10.893445 13552 net.cpp:408] stem3 -> stem3
I1025 13:37:10.896389 13552 net.cpp:150] Setting up stem3
I1025 13:37:10.896409 13552 net.cpp:157] Top shape: 24 32 75 75 (4320000)
I1025 13:37:10.896412 13552 net.cpp:165] Memory required for data: 898560416
I1025 13:37:10.896418 13552 layer_factory.hpp:77] Creating layer stem3/bn
I1025 13:37:10.896427 13552 net.cpp:100] Creating Layer stem3/bn
I1025 13:37:10.896431 13552 net.cpp:434] stem3/bn <- stem3
I1025 13:37:10.896440 13552 net.cpp:395] stem3/bn -> stem3 (in-place)
I1025 13:37:10.896649 13552 net.cpp:150] Setting up stem3/bn
I1025 13:37:10.896661 13552 net.cpp:157] Top shape: 24 32 75 75 (4320000)
I1025 13:37:10.896663 13552 net.cpp:165] Memory required for data: 915840416
I1025 13:37:10.896672 13552 layer_factory.hpp:77] Creating layer stem3/scale
I1025 13:37:10.896677 13552 net.cpp:100] Creating Layer stem3/scale
I1025 13:37:10.896680 13552 net.cpp:434] stem3/scale <- stem3
I1025 13:37:10.896687 13552 net.cpp:395] stem3/scale -> stem3 (in-place)
I1025 13:37:10.896726 13552 layer_factory.hpp:77] Creating layer stem3/scale
I1025 13:37:10.896832 13552 net.cpp:150] Setting up stem3/scale
I1025 13:37:10.896843 13552 net.cpp:157] Top shape: 24 32 75 75 (4320000)
I1025 13:37:10.896848 13552 net.cpp:165] Memory required for data: 933120416
I1025 13:37:10.896857 13552 layer_factory.hpp:77] Creating layer stem3/relu
I1025 13:37:10.896863 13552 net.cpp:100] Creating Layer stem3/relu
I1025 13:37:10.896867 13552 net.cpp:434] stem3/relu <- stem3
I1025 13:37:10.896873 13552 net.cpp:395] stem3/relu -> stem3 (in-place)
I1025 13:37:10.897763 13552 net.cpp:150] Setting up stem3/relu
I1025 13:37:10.897774 13552 net.cpp:157] Top shape: 24 32 75 75 (4320000)
I1025 13:37:10.897778 13552 net.cpp:165] Memory required for data: 950400416
I1025 13:37:10.897780 13552 layer_factory.hpp:77] Creating layer stem3_stem3/relu_0_split
I1025 13:37:10.897788 13552 net.cpp:100] Creating Layer stem3_stem3/relu_0_split
I1025 13:37:10.897790 13552 net.cpp:434] stem3_stem3/relu_0_split <- stem3
I1025 13:37:10.897796 13552 net.cpp:408] stem3_stem3/relu_0_split -> stem3_stem3/relu_0_split_0
I1025 13:37:10.897802 13552 net.cpp:408] stem3_stem3/relu_0_split -> stem3_stem3/relu_0_split_1
I1025 13:37:10.897809 13552 net.cpp:408] stem3_stem3/relu_0_split -> stem3_stem3/relu_0_split_2
I1025 13:37:10.897852 13552 net.cpp:150] Setting up stem3_stem3/relu_0_split
I1025 13:37:10.897858 13552 net.cpp:157] Top shape: 24 32 75 75 (4320000)
I1025 13:37:10.897861 13552 net.cpp:157] Top shape: 24 32 75 75 (4320000)
I1025 13:37:10.897866 13552 net.cpp:157] Top shape: 24 32 75 75 (4320000)
I1025 13:37:10.897868 13552 net.cpp:165] Memory required for data: 1002240416
I1025 13:37:10.897871 13552 layer_factory.hpp:77] Creating layer stage1_1/branch1a
I1025 13:37:10.897879 13552 net.cpp:100] Creating Layer stage1_1/branch1a
I1025 13:37:10.897883 13552 net.cpp:434] stage1_1/branch1a <- stem3_stem3/relu_0_split_0
I1025 13:37:10.897889 13552 net.cpp:408] stage1_1/branch1a -> stage1_1/branch1a
I1025 13:37:10.899904 13552 net.cpp:150] Setting up stage1_1/branch1a
I1025 13:37:10.899915 13552 net.cpp:157] Top shape: 24 16 75 75 (2160000)
I1025 13:37:10.899919 13552 net.cpp:165] Memory required for data: 1010880416
I1025 13:37:10.899924 13552 layer_factory.hpp:77] Creating layer stage1_1/branch1a/bn
I1025 13:37:10.899945 13552 net.cpp:100] Creating Layer stage1_1/branch1a/bn
I1025 13:37:10.899950 13552 net.cpp:434] stage1_1/branch1a/bn <- stage1_1/branch1a
I1025 13:37:10.899955 13552 net.cpp:395] stage1_1/branch1a/bn -> stage1_1/branch1a (in-place)
I1025 13:37:10.900136 13552 net.cpp:150] Setting up stage1_1/branch1a/bn
I1025 13:37:10.900147 13552 net.cpp:157] Top shape: 24 16 75 75 (2160000)
I1025 13:37:10.900152 13552 net.cpp:165] Memory required for data: 1019520416
I1025 13:37:10.900163 13552 layer_factory.hpp:77] Creating layer stage1_1/branch1a/scale
I1025 13:37:10.900171 13552 net.cpp:100] Creating Layer stage1_1/branch1a/scale
I1025 13:37:10.900175 13552 net.cpp:434] stage1_1/branch1a/scale <- stage1_1/branch1a
I1025 13:37:10.900179 13552 net.cpp:395] stage1_1/branch1a/scale -> stage1_1/branch1a (in-place)
I1025 13:37:10.900213 13552 layer_factory.hpp:77] Creating layer stage1_1/branch1a/scale
I1025 13:37:10.900305 13552 net.cpp:150] Setting up stage1_1/branch1a/scale
I1025 13:37:10.900311 13552 net.cpp:157] Top shape: 24 16 75 75 (2160000)
I1025 13:37:10.900315 13552 net.cpp:165] Memory required for data: 1028160416
I1025 13:37:10.900319 13552 layer_factory.hpp:77] Creating layer stage1_1/branch1a/relu
I1025 13:37:10.900324 13552 net.cpp:100] Creating Layer stage1_1/branch1a/relu
I1025 13:37:10.900327 13552 net.cpp:434] stage1_1/branch1a/relu <- stage1_1/branch1a
I1025 13:37:10.900332 13552 net.cpp:395] stage1_1/branch1a/relu -> stage1_1/branch1a (in-place)
I1025 13:37:10.918161 13552 net.cpp:150] Setting up stage1_1/branch1a/relu
I1025 13:37:10.918179 13552 net.cpp:157] Top shape: 24 16 75 75 (2160000)
I1025 13:37:10.918180 13552 net.cpp:165] Memory required for data: 1036800416
I1025 13:37:10.918184 13552 layer_factory.hpp:77] Creating layer stage1_1/branch1b
I1025 13:37:10.918195 13552 net.cpp:100] Creating Layer stage1_1/branch1b
I1025 13:37:10.918198 13552 net.cpp:434] stage1_1/branch1b <- stage1_1/branch1a
I1025 13:37:10.918205 13552 net.cpp:408] stage1_1/branch1b -> stage1_1/branch1b
I1025 13:37:10.920294 13552 net.cpp:150] Setting up stage1_1/branch1b
I1025 13:37:10.920305 13552 net.cpp:157] Top shape: 24 16 75 75 (2160000)
I1025 13:37:10.920308 13552 net.cpp:165] Memory required for data: 1045440416
I1025 13:37:10.920312 13552 layer_factory.hpp:77] Creating layer stage1_1/branch1b/bn
I1025 13:37:10.920317 13552 net.cpp:100] Creating Layer stage1_1/branch1b/bn
I1025 13:37:10.920321 13552 net.cpp:434] stage1_1/branch1b/bn <- stage1_1/branch1b
I1025 13:37:10.920326 13552 net.cpp:395] stage1_1/branch1b/bn -> stage1_1/branch1b (in-place)
I1025 13:37:10.920459 13552 net.cpp:150] Setting up stage1_1/branch1b/bn
I1025 13:37:10.920464 13552 net.cpp:157] Top shape: 24 16 75 75 (2160000)
I1025 13:37:10.920467 13552 net.cpp:165] Memory required for data: 1054080416
I1025 13:37:10.920476 13552 layer_factory.hpp:77] Creating layer stage1_1/branch1b/scale
I1025 13:37:10.920481 13552 net.cpp:100] Creating Layer stage1_1/branch1b/scale
I1025 13:37:10.920483 13552 net.cpp:434] stage1_1/branch1b/scale <- stage1_1/branch1b
I1025 13:37:10.920488 13552 net.cpp:395] stage1_1/branch1b/scale -> stage1_1/branch1b (in-place)
I1025 13:37:10.920514 13552 layer_factory.hpp:77] Creating layer stage1_1/branch1b/scale
I1025 13:37:10.920590 13552 net.cpp:150] Setting up stage1_1/branch1b/scale
I1025 13:37:10.920595 13552 net.cpp:157] Top shape: 24 16 75 75 (2160000)
I1025 13:37:10.920598 13552 net.cpp:165] Memory required for data: 1062720416
I1025 13:37:10.920601 13552 layer_factory.hpp:77] Creating layer stage1_1/branch1b/relu
I1025 13:37:10.920605 13552 net.cpp:100] Creating Layer stage1_1/branch1b/relu
I1025 13:37:10.920608 13552 net.cpp:434] stage1_1/branch1b/relu <- stage1_1/branch1b
I1025 13:37:10.920612 13552 net.cpp:395] stage1_1/branch1b/relu -> stage1_1/branch1b (in-place)
I1025 13:37:10.921025 13552 net.cpp:150] Setting up stage1_1/branch1b/relu
I1025 13:37:10.921034 13552 net.cpp:157] Top shape: 24 16 75 75 (2160000)
I1025 13:37:10.921037 13552 net.cpp:165] Memory required for data: 1071360416
I1025 13:37:10.921052 13552 layer_factory.hpp:77] Creating layer stage1_1/branch2a
I1025 13:37:10.921062 13552 net.cpp:100] Creating Layer stage1_1/branch2a
I1025 13:37:10.921067 13552 net.cpp:434] stage1_1/branch2a <- stem3_stem3/relu_0_split_1
I1025 13:37:10.921074 13552 net.cpp:408] stage1_1/branch2a -> stage1_1/branch2a
I1025 13:37:10.922932 13552 net.cpp:150] Setting up stage1_1/branch2a
I1025 13:37:10.922941 13552 net.cpp:157] Top shape: 24 16 75 75 (2160000)
I1025 13:37:10.922945 13552 net.cpp:165] Memory required for data: 1080000416
I1025 13:37:10.922947 13552 layer_factory.hpp:77] Creating layer stage1_1/branch2a/bn
I1025 13:37:10.922952 13552 net.cpp:100] Creating Layer stage1_1/branch2a/bn
I1025 13:37:10.922955 13552 net.cpp:434] stage1_1/branch2a/bn <- stage1_1/branch2a
I1025 13:37:10.922960 13552 net.cpp:395] stage1_1/branch2a/bn -> stage1_1/branch2a (in-place)
I1025 13:37:10.923084 13552 net.cpp:150] Setting up stage1_1/branch2a/bn
I1025 13:37:10.923092 13552 net.cpp:157] Top shape: 24 16 75 75 (2160000)
I1025 13:37:10.923095 13552 net.cpp:165] Memory required for data: 1088640416
I1025 13:37:10.923100 13552 layer_factory.hpp:77] Creating layer stage1_1/branch2a/scale
I1025 13:37:10.923110 13552 net.cpp:100] Creating Layer stage1_1/branch2a/scale
I1025 13:37:10.923112 13552 net.cpp:434] stage1_1/branch2a/scale <- stage1_1/branch2a
I1025 13:37:10.923115 13552 net.cpp:395] stage1_1/branch2a/scale -> stage1_1/branch2a (in-place)
I1025 13:37:10.923146 13552 layer_factory.hpp:77] Creating layer stage1_1/branch2a/scale
I1025 13:37:10.923233 13552 net.cpp:150] Setting up stage1_1/branch2a/scale
I1025 13:37:10.923238 13552 net.cpp:157] Top shape: 24 16 75 75 (2160000)
I1025 13:37:10.923240 13552 net.cpp:165] Memory required for data: 1097280416
I1025 13:37:10.923244 13552 layer_factory.hpp:77] Creating layer stage1_1/branch2a/relu
I1025 13:37:10.923249 13552 net.cpp:100] Creating Layer stage1_1/branch2a/relu
I1025 13:37:10.923251 13552 net.cpp:434] stage1_1/branch2a/relu <- stage1_1/branch2a
I1025 13:37:10.923254 13552 net.cpp:395] stage1_1/branch2a/relu -> stage1_1/branch2a (in-place)
I1025 13:37:10.923538 13552 net.cpp:150] Setting up stage1_1/branch2a/relu
I1025 13:37:10.923547 13552 net.cpp:157] Top shape: 24 16 75 75 (2160000)
I1025 13:37:10.923548 13552 net.cpp:165] Memory required for data: 1105920416
I1025 13:37:10.923552 13552 layer_factory.hpp:77] Creating layer stage1_1/branch2b
I1025 13:37:10.923557 13552 net.cpp:100] Creating Layer stage1_1/branch2b
I1025 13:37:10.923559 13552 net.cpp:434] stage1_1/branch2b <- stage1_1/branch2a
I1025 13:37:10.923564 13552 net.cpp:408] stage1_1/branch2b -> stage1_1/branch2b
I1025 13:37:10.926103 13552 net.cpp:150] Setting up stage1_1/branch2b
I1025 13:37:10.926120 13552 net.cpp:157] Top shape: 24 16 75 75 (2160000)
I1025 13:37:10.926124 13552 net.cpp:165] Memory required for data: 1114560416
I1025 13:37:10.926131 13552 layer_factory.hpp:77] Creating layer stage1_1/branch2b/bn
I1025 13:37:10.926138 13552 net.cpp:100] Creating Layer stage1_1/branch2b/bn
I1025 13:37:10.926143 13552 net.cpp:434] stage1_1/branch2b/bn <- stage1_1/branch2b
I1025 13:37:10.926151 13552 net.cpp:395] stage1_1/branch2b/bn -> stage1_1/branch2b (in-place)
I1025 13:37:10.926287 13552 net.cpp:150] Setting up stage1_1/branch2b/bn
I1025 13:37:10.926293 13552 net.cpp:157] Top shape: 24 16 75 75 (2160000)
I1025 13:37:10.926295 13552 net.cpp:165] Memory required for data: 1123200416
I1025 13:37:10.926299 13552 layer_factory.hpp:77] Creating layer stage1_1/branch2b/scale
I1025 13:37:10.926306 13552 net.cpp:100] Creating Layer stage1_1/branch2b/scale
I1025 13:37:10.926308 13552 net.cpp:434] stage1_1/branch2b/scale <- stage1_1/branch2b
I1025 13:37:10.926311 13552 net.cpp:395] stage1_1/branch2b/scale -> stage1_1/branch2b (in-place)
I1025 13:37:10.926337 13552 layer_factory.hpp:77] Creating layer stage1_1/branch2b/scale
I1025 13:37:10.926417 13552 net.cpp:150] Setting up stage1_1/branch2b/scale
I1025 13:37:10.926424 13552 net.cpp:157] Top shape: 24 16 75 75 (2160000)
I1025 13:37:10.926425 13552 net.cpp:165] Memory required for data: 1131840416
I1025 13:37:10.926441 13552 layer_factory.hpp:77] Creating layer stage1_1/branch2b/relu
I1025 13:37:10.926447 13552 net.cpp:100] Creating Layer stage1_1/branch2b/relu
I1025 13:37:10.926450 13552 net.cpp:434] stage1_1/branch2b/relu <- stage1_1/branch2b
I1025 13:37:10.926455 13552 net.cpp:395] stage1_1/branch2b/relu -> stage1_1/branch2b (in-place)
I1025 13:37:10.926774 13552 net.cpp:150] Setting up stage1_1/branch2b/relu
I1025 13:37:10.926781 13552 net.cpp:157] Top shape: 24 16 75 75 (2160000)
I1025 13:37:10.926784 13552 net.cpp:165] Memory required for data: 1140480416
I1025 13:37:10.926785 13552 layer_factory.hpp:77] Creating layer stage1_1/branch2c
I1025 13:37:10.926792 13552 net.cpp:100] Creating Layer stage1_1/branch2c
I1025 13:37:10.926795 13552 net.cpp:434] stage1_1/branch2c <- stage1_1/branch2b
I1025 13:37:10.926800 13552 net.cpp:408] stage1_1/branch2c -> stage1_1/branch2c
I1025 13:37:10.928280 13552 net.cpp:150] Setting up stage1_1/branch2c
I1025 13:37:10.928289 13552 net.cpp:157] Top shape: 24 16 75 75 (2160000)
I1025 13:37:10.928292 13552 net.cpp:165] Memory required for data: 1149120416
I1025 13:37:10.928295 13552 layer_factory.hpp:77] Creating layer stage1_1/branch2c/bn
I1025 13:37:10.928300 13552 net.cpp:100] Creating Layer stage1_1/branch2c/bn
I1025 13:37:10.928303 13552 net.cpp:434] stage1_1/branch2c/bn <- stage1_1/branch2c
I1025 13:37:10.928306 13552 net.cpp:395] stage1_1/branch2c/bn -> stage1_1/branch2c (in-place)
I1025 13:37:10.928421 13552 net.cpp:150] Setting up stage1_1/branch2c/bn
I1025 13:37:10.928426 13552 net.cpp:157] Top shape: 24 16 75 75 (2160000)
I1025 13:37:10.928428 13552 net.cpp:165] Memory required for data: 1157760416
I1025 13:37:10.928433 13552 layer_factory.hpp:77] Creating layer stage1_1/branch2c/scale
I1025 13:37:10.928437 13552 net.cpp:100] Creating Layer stage1_1/branch2c/scale
I1025 13:37:10.928439 13552 net.cpp:434] stage1_1/branch2c/scale <- stage1_1/branch2c
I1025 13:37:10.928442 13552 net.cpp:395] stage1_1/branch2c/scale -> stage1_1/branch2c (in-place)
I1025 13:37:10.928465 13552 layer_factory.hpp:77] Creating layer stage1_1/branch2c/scale
I1025 13:37:10.928530 13552 net.cpp:150] Setting up stage1_1/branch2c/scale
I1025 13:37:10.928535 13552 net.cpp:157] Top shape: 24 16 75 75 (2160000)
I1025 13:37:10.928537 13552 net.cpp:165] Memory required for data: 1166400416
I1025 13:37:10.928540 13552 layer_factory.hpp:77] Creating layer stage1_1/branch2c/relu
I1025 13:37:10.928546 13552 net.cpp:100] Creating Layer stage1_1/branch2c/relu
I1025 13:37:10.928548 13552 net.cpp:434] stage1_1/branch2c/relu <- stage1_1/branch2c
I1025 13:37:10.928551 13552 net.cpp:395] stage1_1/branch2c/relu -> stage1_1/branch2c (in-place)
I1025 13:37:10.928923 13552 net.cpp:150] Setting up stage1_1/branch2c/relu
I1025 13:37:10.928931 13552 net.cpp:157] Top shape: 24 16 75 75 (2160000)
I1025 13:37:10.928933 13552 net.cpp:165] Memory required for data: 1175040416
I1025 13:37:10.928936 13552 layer_factory.hpp:77] Creating layer stage1_1/concat
I1025 13:37:10.928939 13552 net.cpp:100] Creating Layer stage1_1/concat
I1025 13:37:10.928942 13552 net.cpp:434] stage1_1/concat <- stem3_stem3/relu_0_split_2
I1025 13:37:10.928946 13552 net.cpp:434] stage1_1/concat <- stage1_1/branch1b
I1025 13:37:10.928948 13552 net.cpp:434] stage1_1/concat <- stage1_1/branch2c
I1025 13:37:10.928953 13552 net.cpp:408] stage1_1/concat -> stage1_1/concat
I1025 13:37:10.928972 13552 net.cpp:150] Setting up stage1_1/concat
I1025 13:37:10.928975 13552 net.cpp:157] Top shape: 24 64 75 75 (8640000)
I1025 13:37:10.928977 13552 net.cpp:165] Memory required for data: 1209600416
I1025 13:37:10.928979 13552 layer_factory.hpp:77] Creating layer stage1_1/concat_stage1_1/concat_0_split
I1025 13:37:10.928983 13552 net.cpp:100] Creating Layer stage1_1/concat_stage1_1/concat_0_split
I1025 13:37:10.928985 13552 net.cpp:434] stage1_1/concat_stage1_1/concat_0_split <- stage1_1/concat
I1025 13:37:10.928989 13552 net.cpp:408] stage1_1/concat_stage1_1/concat_0_split -> stage1_1/concat_stage1_1/concat_0_split_0
I1025 13:37:10.928993 13552 net.cpp:408] stage1_1/concat_stage1_1/concat_0_split -> stage1_1/concat_stage1_1/concat_0_split_1
I1025 13:37:10.929008 13552 net.cpp:408] stage1_1/concat_stage1_1/concat_0_split -> stage1_1/concat_stage1_1/concat_0_split_2
I1025 13:37:10.929045 13552 net.cpp:150] Setting up stage1_1/concat_stage1_1/concat_0_split
I1025 13:37:10.929052 13552 net.cpp:157] Top shape: 24 64 75 75 (8640000)
I1025 13:37:10.929056 13552 net.cpp:157] Top shape: 24 64 75 75 (8640000)
I1025 13:37:10.929062 13552 net.cpp:157] Top shape: 24 64 75 75 (8640000)
I1025 13:37:10.929065 13552 net.cpp:165] Memory required for data: 1313280416
I1025 13:37:10.929070 13552 layer_factory.hpp:77] Creating layer stage1_2/branch1a
I1025 13:37:10.929083 13552 net.cpp:100] Creating Layer stage1_2/branch1a
I1025 13:37:10.929087 13552 net.cpp:434] stage1_2/branch1a <- stage1_1/concat_stage1_1/concat_0_split_0
I1025 13:37:10.929093 13552 net.cpp:408] stage1_2/branch1a -> stage1_2/branch1a
I1025 13:37:10.930575 13552 net.cpp:150] Setting up stage1_2/branch1a
I1025 13:37:10.930584 13552 net.cpp:157] Top shape: 24 16 75 75 (2160000)
I1025 13:37:10.930586 13552 net.cpp:165] Memory required for data: 1321920416
I1025 13:37:10.930594 13552 layer_factory.hpp:77] Creating layer stage1_2/branch1a/bn
I1025 13:37:10.930599 13552 net.cpp:100] Creating Layer stage1_2/branch1a/bn
I1025 13:37:10.930603 13552 net.cpp:434] stage1_2/branch1a/bn <- stage1_2/branch1a
I1025 13:37:10.930608 13552 net.cpp:395] stage1_2/branch1a/bn -> stage1_2/branch1a (in-place)
I1025 13:37:10.930721 13552 net.cpp:150] Setting up stage1_2/branch1a/bn
I1025 13:37:10.930727 13552 net.cpp:157] Top shape: 24 16 75 75 (2160000)
I1025 13:37:10.930728 13552 net.cpp:165] Memory required for data: 1330560416
I1025 13:37:10.930733 13552 layer_factory.hpp:77] Creating layer stage1_2/branch1a/scale
I1025 13:37:10.930738 13552 net.cpp:100] Creating Layer stage1_2/branch1a/scale
I1025 13:37:10.930740 13552 net.cpp:434] stage1_2/branch1a/scale <- stage1_2/branch1a
I1025 13:37:10.930743 13552 net.cpp:395] stage1_2/branch1a/scale -> stage1_2/branch1a (in-place)
I1025 13:37:10.930766 13552 layer_factory.hpp:77] Creating layer stage1_2/branch1a/scale
I1025 13:37:10.930832 13552 net.cpp:150] Setting up stage1_2/branch1a/scale
I1025 13:37:10.930837 13552 net.cpp:157] Top shape: 24 16 75 75 (2160000)
I1025 13:37:10.930840 13552 net.cpp:165] Memory required for data: 1339200416
I1025 13:37:10.930843 13552 layer_factory.hpp:77] Creating layer stage1_2/branch1a/relu
I1025 13:37:10.930850 13552 net.cpp:100] Creating Layer stage1_2/branch1a/relu
I1025 13:37:10.930853 13552 net.cpp:434] stage1_2/branch1a/relu <- stage1_2/branch1a
I1025 13:37:10.930856 13552 net.cpp:395] stage1_2/branch1a/relu -> stage1_2/branch1a (in-place)
I1025 13:37:10.931916 13552 net.cpp:150] Setting up stage1_2/branch1a/relu
I1025 13:37:10.931924 13552 net.cpp:157] Top shape: 24 16 75 75 (2160000)
I1025 13:37:10.931926 13552 net.cpp:165] Memory required for data: 1347840416
I1025 13:37:10.931929 13552 layer_factory.hpp:77] Creating layer stage1_2/branch1b
I1025 13:37:10.931936 13552 net.cpp:100] Creating Layer stage1_2/branch1b
I1025 13:37:10.931939 13552 net.cpp:434] stage1_2/branch1b <- stage1_2/branch1a
I1025 13:37:10.931943 13552 net.cpp:408] stage1_2/branch1b -> stage1_2/branch1b
I1025 13:37:10.933372 13552 net.cpp:150] Setting up stage1_2/branch1b
I1025 13:37:10.933382 13552 net.cpp:157] Top shape: 24 16 75 75 (2160000)
I1025 13:37:10.933383 13552 net.cpp:165] Memory required for data: 1356480416
I1025 13:37:10.933387 13552 layer_factory.hpp:77] Creating layer stage1_2/branch1b/bn
I1025 13:37:10.933393 13552 net.cpp:100] Creating Layer stage1_2/branch1b/bn
I1025 13:37:10.933395 13552 net.cpp:434] stage1_2/branch1b/bn <- stage1_2/branch1b
I1025 13:37:10.933398 13552 net.cpp:395] stage1_2/branch1b/bn -> stage1_2/branch1b (in-place)
I1025 13:37:10.933512 13552 net.cpp:150] Setting up stage1_2/branch1b/bn
I1025 13:37:10.933517 13552 net.cpp:157] Top shape: 24 16 75 75 (2160000)
I1025 13:37:10.933519 13552 net.cpp:165] Memory required for data: 1365120416
I1025 13:37:10.933534 13552 layer_factory.hpp:77] Creating layer stage1_2/branch1b/scale
I1025 13:37:10.933538 13552 net.cpp:100] Creating Layer stage1_2/branch1b/scale
I1025 13:37:10.933540 13552 net.cpp:434] stage1_2/branch1b/scale <- stage1_2/branch1b
I1025 13:37:10.933544 13552 net.cpp:395] stage1_2/branch1b/scale -> stage1_2/branch1b (in-place)
I1025 13:37:10.933569 13552 layer_factory.hpp:77] Creating layer stage1_2/branch1b/scale
I1025 13:37:10.933638 13552 net.cpp:150] Setting up stage1_2/branch1b/scale
I1025 13:37:10.933642 13552 net.cpp:157] Top shape: 24 16 75 75 (2160000)
I1025 13:37:10.933645 13552 net.cpp:165] Memory required for data: 1373760416
I1025 13:37:10.933655 13552 layer_factory.hpp:77] Creating layer stage1_2/branch1b/relu
I1025 13:37:10.933660 13552 net.cpp:100] Creating Layer stage1_2/branch1b/relu
I1025 13:37:10.933661 13552 net.cpp:434] stage1_2/branch1b/relu <- stage1_2/branch1b
I1025 13:37:10.933665 13552 net.cpp:395] stage1_2/branch1b/relu -> stage1_2/branch1b (in-place)
I1025 13:37:10.934046 13552 net.cpp:150] Setting up stage1_2/branch1b/relu
I1025 13:37:10.934054 13552 net.cpp:157] Top shape: 24 16 75 75 (2160000)
I1025 13:37:10.934057 13552 net.cpp:165] Memory required for data: 1382400416
I1025 13:37:10.934062 13552 layer_factory.hpp:77] Creating layer stage1_2/branch2a
I1025 13:37:10.934072 13552 net.cpp:100] Creating Layer stage1_2/branch2a
I1025 13:37:10.934075 13552 net.cpp:434] stage1_2/branch2a <- stage1_1/concat_stage1_1/concat_0_split_1
I1025 13:37:10.934082 13552 net.cpp:408] stage1_2/branch2a -> stage1_2/branch2a
I1025 13:37:10.935542 13552 net.cpp:150] Setting up stage1_2/branch2a
I1025 13:37:10.935554 13552 net.cpp:157] Top shape: 24 16 75 75 (2160000)
I1025 13:37:10.935556 13552 net.cpp:165] Memory required for data: 1391040416
I1025 13:37:10.935560 13552 layer_factory.hpp:77] Creating layer stage1_2/branch2a/bn
I1025 13:37:10.935566 13552 net.cpp:100] Creating Layer stage1_2/branch2a/bn
I1025 13:37:10.935570 13552 net.cpp:434] stage1_2/branch2a/bn <- stage1_2/branch2a
I1025 13:37:10.935573 13552 net.cpp:395] stage1_2/branch2a/bn -> stage1_2/branch2a (in-place)
I1025 13:37:10.935691 13552 net.cpp:150] Setting up stage1_2/branch2a/bn
I1025 13:37:10.935695 13552 net.cpp:157] Top shape: 24 16 75 75 (2160000)
I1025 13:37:10.935698 13552 net.cpp:165] Memory required for data: 1399680416
I1025 13:37:10.935703 13552 layer_factory.hpp:77] Creating layer stage1_2/branch2a/scale
I1025 13:37:10.935708 13552 net.cpp:100] Creating Layer stage1_2/branch2a/scale
I1025 13:37:10.935709 13552 net.cpp:434] stage1_2/branch2a/scale <- stage1_2/branch2a
I1025 13:37:10.935714 13552 net.cpp:395] stage1_2/branch2a/scale -> stage1_2/branch2a (in-place)
I1025 13:37:10.935737 13552 layer_factory.hpp:77] Creating layer stage1_2/branch2a/scale
I1025 13:37:10.935807 13552 net.cpp:150] Setting up stage1_2/branch2a/scale
I1025 13:37:10.935812 13552 net.cpp:157] Top shape: 24 16 75 75 (2160000)
I1025 13:37:10.935814 13552 net.cpp:165] Memory required for data: 1408320416
I1025 13:37:10.935817 13552 layer_factory.hpp:77] Creating layer stage1_2/branch2a/relu
I1025 13:37:10.935822 13552 net.cpp:100] Creating Layer stage1_2/branch2a/relu
I1025 13:37:10.935824 13552 net.cpp:434] stage1_2/branch2a/relu <- stage1_2/branch2a
I1025 13:37:10.935829 13552 net.cpp:395] stage1_2/branch2a/relu -> stage1_2/branch2a (in-place)
I1025 13:37:10.936251 13552 net.cpp:150] Setting up stage1_2/branch2a/relu
I1025 13:37:10.936259 13552 net.cpp:157] Top shape: 24 16 75 75 (2160000)
I1025 13:37:10.936261 13552 net.cpp:165] Memory required for data: 1416960416
I1025 13:37:10.936264 13552 layer_factory.hpp:77] Creating layer stage1_2/branch2b
I1025 13:37:10.936271 13552 net.cpp:100] Creating Layer stage1_2/branch2b
I1025 13:37:10.936275 13552 net.cpp:434] stage1_2/branch2b <- stage1_2/branch2a
I1025 13:37:10.936280 13552 net.cpp:408] stage1_2/branch2b -> stage1_2/branch2b
I1025 13:37:10.950711 13552 net.cpp:150] Setting up stage1_2/branch2b
I1025 13:37:10.950726 13552 net.cpp:157] Top shape: 24 16 75 75 (2160000)
I1025 13:37:10.950728 13552 net.cpp:165] Memory required for data: 1425600416
I1025 13:37:10.950748 13552 layer_factory.hpp:77] Creating layer stage1_2/branch2b/bn
I1025 13:37:10.950757 13552 net.cpp:100] Creating Layer stage1_2/branch2b/bn
I1025 13:37:10.950762 13552 net.cpp:434] stage1_2/branch2b/bn <- stage1_2/branch2b
I1025 13:37:10.950767 13552 net.cpp:395] stage1_2/branch2b/bn -> stage1_2/branch2b (in-place)
I1025 13:37:10.950897 13552 net.cpp:150] Setting up stage1_2/branch2b/bn
I1025 13:37:10.950902 13552 net.cpp:157] Top shape: 24 16 75 75 (2160000)
I1025 13:37:10.950904 13552 net.cpp:165] Memory required for data: 1434240416
I1025 13:37:10.950909 13552 layer_factory.hpp:77] Creating layer stage1_2/branch2b/scale
I1025 13:37:10.950915 13552 net.cpp:100] Creating Layer stage1_2/branch2b/scale
I1025 13:37:10.950919 13552 net.cpp:434] stage1_2/branch2b/scale <- stage1_2/branch2b
I1025 13:37:10.950922 13552 net.cpp:395] stage1_2/branch2b/scale -> stage1_2/branch2b (in-place)
I1025 13:37:10.950948 13552 layer_factory.hpp:77] Creating layer stage1_2/branch2b/scale
I1025 13:37:10.951018 13552 net.cpp:150] Setting up stage1_2/branch2b/scale
I1025 13:37:10.951025 13552 net.cpp:157] Top shape: 24 16 75 75 (2160000)
I1025 13:37:10.951028 13552 net.cpp:165] Memory required for data: 1442880416
I1025 13:37:10.951035 13552 layer_factory.hpp:77] Creating layer stage1_2/branch2b/relu
I1025 13:37:10.951040 13552 net.cpp:100] Creating Layer stage1_2/branch2b/relu
I1025 13:37:10.951045 13552 net.cpp:434] stage1_2/branch2b/relu <- stage1_2/branch2b
I1025 13:37:10.951050 13552 net.cpp:395] stage1_2/branch2b/relu -> stage1_2/branch2b (in-place)
I1025 13:37:10.951367 13552 net.cpp:150] Setting up stage1_2/branch2b/relu
I1025 13:37:10.951375 13552 net.cpp:157] Top shape: 24 16 75 75 (2160000)
I1025 13:37:10.951378 13552 net.cpp:165] Memory required for data: 1451520416
I1025 13:37:10.951380 13552 layer_factory.hpp:77] Creating layer stage1_2/branch2c
I1025 13:37:10.951387 13552 net.cpp:100] Creating Layer stage1_2/branch2c
I1025 13:37:10.951390 13552 net.cpp:434] stage1_2/branch2c <- stage1_2/branch2b
I1025 13:37:10.951395 13552 net.cpp:408] stage1_2/branch2c -> stage1_2/branch2c
I1025 13:37:10.953269 13552 net.cpp:150] Setting up stage1_2/branch2c
I1025 13:37:10.953279 13552 net.cpp:157] Top shape: 24 16 75 75 (2160000)
I1025 13:37:10.953281 13552 net.cpp:165] Memory required for data: 1460160416
I1025 13:37:10.953285 13552 layer_factory.hpp:77] Creating layer stage1_2/branch2c/bn
I1025 13:37:10.953294 13552 net.cpp:100] Creating Layer stage1_2/branch2c/bn
I1025 13:37:10.953295 13552 net.cpp:434] stage1_2/branch2c/bn <- stage1_2/branch2c
I1025 13:37:10.953299 13552 net.cpp:395] stage1_2/branch2c/bn -> stage1_2/branch2c (in-place)
I1025 13:37:10.953426 13552 net.cpp:150] Setting up stage1_2/branch2c/bn
I1025 13:37:10.953431 13552 net.cpp:157] Top shape: 24 16 75 75 (2160000)
I1025 13:37:10.953433 13552 net.cpp:165] Memory required for data: 1468800416
I1025 13:37:10.953438 13552 layer_factory.hpp:77] Creating layer stage1_2/branch2c/scale
I1025 13:37:10.953442 13552 net.cpp:100] Creating Layer stage1_2/branch2c/scale
I1025 13:37:10.953444 13552 net.cpp:434] stage1_2/branch2c/scale <- stage1_2/branch2c
I1025 13:37:10.953449 13552 net.cpp:395] stage1_2/branch2c/scale -> stage1_2/branch2c (in-place)
I1025 13:37:10.953471 13552 layer_factory.hpp:77] Creating layer stage1_2/branch2c/scale
I1025 13:37:10.953538 13552 net.cpp:150] Setting up stage1_2/branch2c/scale
I1025 13:37:10.953543 13552 net.cpp:157] Top shape: 24 16 75 75 (2160000)
I1025 13:37:10.953546 13552 net.cpp:165] Memory required for data: 1477440416
I1025 13:37:10.953548 13552 layer_factory.hpp:77] Creating layer stage1_2/branch2c/relu
I1025 13:37:10.953552 13552 net.cpp:100] Creating Layer stage1_2/branch2c/relu
I1025 13:37:10.953554 13552 net.cpp:434] stage1_2/branch2c/relu <- stage1_2/branch2c
I1025 13:37:10.953558 13552 net.cpp:395] stage1_2/branch2c/relu -> stage1_2/branch2c (in-place)
I1025 13:37:10.953946 13552 net.cpp:150] Setting up stage1_2/branch2c/relu
I1025 13:37:10.953955 13552 net.cpp:157] Top shape: 24 16 75 75 (2160000)
I1025 13:37:10.953969 13552 net.cpp:165] Memory required for data: 1486080416
I1025 13:37:10.953971 13552 layer_factory.hpp:77] Creating layer stage1_2/concat
I1025 13:37:10.953985 13552 net.cpp:100] Creating Layer stage1_2/concat
I1025 13:37:10.953989 13552 net.cpp:434] stage1_2/concat <- stage1_1/concat_stage1_1/concat_0_split_2
I1025 13:37:10.953992 13552 net.cpp:434] stage1_2/concat <- stage1_2/branch1b
I1025 13:37:10.953995 13552 net.cpp:434] stage1_2/concat <- stage1_2/branch2c
I1025 13:37:10.953999 13552 net.cpp:408] stage1_2/concat -> stage1_2/concat
I1025 13:37:10.954018 13552 net.cpp:150] Setting up stage1_2/concat
I1025 13:37:10.954022 13552 net.cpp:157] Top shape: 24 96 75 75 (12960000)
I1025 13:37:10.954025 13552 net.cpp:165] Memory required for data: 1537920416
I1025 13:37:10.954026 13552 layer_factory.hpp:77] Creating layer stage1_2/concat_stage1_2/concat_0_split
I1025 13:37:10.954032 13552 net.cpp:100] Creating Layer stage1_2/concat_stage1_2/concat_0_split
I1025 13:37:10.954035 13552 net.cpp:434] stage1_2/concat_stage1_2/concat_0_split <- stage1_2/concat
I1025 13:37:10.954038 13552 net.cpp:408] stage1_2/concat_stage1_2/concat_0_split -> stage1_2/concat_stage1_2/concat_0_split_0
I1025 13:37:10.954042 13552 net.cpp:408] stage1_2/concat_stage1_2/concat_0_split -> stage1_2/concat_stage1_2/concat_0_split_1
I1025 13:37:10.954048 13552 net.cpp:408] stage1_2/concat_stage1_2/concat_0_split -> stage1_2/concat_stage1_2/concat_0_split_2
I1025 13:37:10.954088 13552 net.cpp:150] Setting up stage1_2/concat_stage1_2/concat_0_split
I1025 13:37:10.954097 13552 net.cpp:157] Top shape: 24 96 75 75 (12960000)
I1025 13:37:10.954100 13552 net.cpp:157] Top shape: 24 96 75 75 (12960000)
I1025 13:37:10.954105 13552 net.cpp:157] Top shape: 24 96 75 75 (12960000)
I1025 13:37:10.954108 13552 net.cpp:165] Memory required for data: 1693440416
I1025 13:37:10.954111 13552 layer_factory.hpp:77] Creating layer stage1_3/branch1a
I1025 13:37:10.954121 13552 net.cpp:100] Creating Layer stage1_3/branch1a
I1025 13:37:10.954125 13552 net.cpp:434] stage1_3/branch1a <- stage1_2/concat_stage1_2/concat_0_split_0
I1025 13:37:10.954133 13552 net.cpp:408] stage1_3/branch1a -> stage1_3/branch1a
I1025 13:37:10.955583 13552 net.cpp:150] Setting up stage1_3/branch1a
I1025 13:37:10.955595 13552 net.cpp:157] Top shape: 24 16 75 75 (2160000)
I1025 13:37:10.955598 13552 net.cpp:165] Memory required for data: 1702080416
I1025 13:37:10.955605 13552 layer_factory.hpp:77] Creating layer stage1_3/branch1a/bn
I1025 13:37:10.955611 13552 net.cpp:100] Creating Layer stage1_3/branch1a/bn
I1025 13:37:10.955616 13552 net.cpp:434] stage1_3/branch1a/bn <- stage1_3/branch1a
I1025 13:37:10.955623 13552 net.cpp:395] stage1_3/branch1a/bn -> stage1_3/branch1a (in-place)
I1025 13:37:10.955752 13552 net.cpp:150] Setting up stage1_3/branch1a/bn
I1025 13:37:10.955758 13552 net.cpp:157] Top shape: 24 16 75 75 (2160000)
I1025 13:37:10.955761 13552 net.cpp:165] Memory required for data: 1710720416
I1025 13:37:10.955767 13552 layer_factory.hpp:77] Creating layer stage1_3/branch1a/scale
I1025 13:37:10.955775 13552 net.cpp:100] Creating Layer stage1_3/branch1a/scale
I1025 13:37:10.955780 13552 net.cpp:434] stage1_3/branch1a/scale <- stage1_3/branch1a
I1025 13:37:10.955786 13552 net.cpp:395] stage1_3/branch1a/scale -> stage1_3/branch1a (in-place)
I1025 13:37:10.955816 13552 layer_factory.hpp:77] Creating layer stage1_3/branch1a/scale
I1025 13:37:10.955890 13552 net.cpp:150] Setting up stage1_3/branch1a/scale
I1025 13:37:10.955896 13552 net.cpp:157] Top shape: 24 16 75 75 (2160000)
I1025 13:37:10.955899 13552 net.cpp:165] Memory required for data: 1719360416
I1025 13:37:10.955904 13552 layer_factory.hpp:77] Creating layer stage1_3/branch1a/relu
I1025 13:37:10.955910 13552 net.cpp:100] Creating Layer stage1_3/branch1a/relu
I1025 13:37:10.955914 13552 net.cpp:434] stage1_3/branch1a/relu <- stage1_3/branch1a
I1025 13:37:10.955919 13552 net.cpp:395] stage1_3/branch1a/relu -> stage1_3/branch1a (in-place)
I1025 13:37:10.957572 13552 net.cpp:150] Setting up stage1_3/branch1a/relu
I1025 13:37:10.957597 13552 net.cpp:157] Top shape: 24 16 75 75 (2160000)
I1025 13:37:10.957600 13552 net.cpp:165] Memory required for data: 1728000416
I1025 13:37:10.957604 13552 layer_factory.hpp:77] Creating layer stage1_3/branch1b
I1025 13:37:10.957614 13552 net.cpp:100] Creating Layer stage1_3/branch1b
I1025 13:37:10.957620 13552 net.cpp:434] stage1_3/branch1b <- stage1_3/branch1a
I1025 13:37:10.957628 13552 net.cpp:408] stage1_3/branch1b -> stage1_3/branch1b
I1025 13:37:10.966620 13552 net.cpp:150] Setting up stage1_3/branch1b
I1025 13:37:10.966634 13552 net.cpp:157] Top shape: 24 16 75 75 (2160000)
I1025 13:37:10.966636 13552 net.cpp:165] Memory required for data: 1736640416
I1025 13:37:10.966643 13552 layer_factory.hpp:77] Creating layer stage1_3/branch1b/bn
I1025 13:37:10.966652 13552 net.cpp:100] Creating Layer stage1_3/branch1b/bn
I1025 13:37:10.966657 13552 net.cpp:434] stage1_3/branch1b/bn <- stage1_3/branch1b
I1025 13:37:10.966663 13552 net.cpp:395] stage1_3/branch1b/bn -> stage1_3/branch1b (in-place)
I1025 13:37:10.966794 13552 net.cpp:150] Setting up stage1_3/branch1b/bn
I1025 13:37:10.966800 13552 net.cpp:157] Top shape: 24 16 75 75 (2160000)
I1025 13:37:10.966804 13552 net.cpp:165] Memory required for data: 1745280416
I1025 13:37:10.966810 13552 layer_factory.hpp:77] Creating layer stage1_3/branch1b/scale
I1025 13:37:10.966820 13552 net.cpp:100] Creating Layer stage1_3/branch1b/scale
I1025 13:37:10.966823 13552 net.cpp:434] stage1_3/branch1b/scale <- stage1_3/branch1b
I1025 13:37:10.966828 13552 net.cpp:395] stage1_3/branch1b/scale -> stage1_3/branch1b (in-place)
I1025 13:37:10.966866 13552 layer_factory.hpp:77] Creating layer stage1_3/branch1b/scale
I1025 13:37:10.966945 13552 net.cpp:150] Setting up stage1_3/branch1b/scale
I1025 13:37:10.966951 13552 net.cpp:157] Top shape: 24 16 75 75 (2160000)
I1025 13:37:10.966954 13552 net.cpp:165] Memory required for data: 1753920416
I1025 13:37:10.966960 13552 layer_factory.hpp:77] Creating layer stage1_3/branch1b/relu
I1025 13:37:10.966966 13552 net.cpp:100] Creating Layer stage1_3/branch1b/relu
I1025 13:37:10.966970 13552 net.cpp:434] stage1_3/branch1b/relu <- stage1_3/branch1b
I1025 13:37:10.966976 13552 net.cpp:395] stage1_3/branch1b/relu -> stage1_3/branch1b (in-place)
I1025 13:37:10.967368 13552 net.cpp:150] Setting up stage1_3/branch1b/relu
I1025 13:37:10.967377 13552 net.cpp:157] Top shape: 24 16 75 75 (2160000)
I1025 13:37:10.967381 13552 net.cpp:165] Memory required for data: 1762560416
I1025 13:37:10.967384 13552 layer_factory.hpp:77] Creating layer stage1_3/branch2a
I1025 13:37:10.967396 13552 net.cpp:100] Creating Layer stage1_3/branch2a
I1025 13:37:10.967399 13552 net.cpp:434] stage1_3/branch2a <- stage1_2/concat_stage1_2/concat_0_split_1
I1025 13:37:10.967407 13552 net.cpp:408] stage1_3/branch2a -> stage1_3/branch2a
I1025 13:37:10.969156 13552 net.cpp:150] Setting up stage1_3/branch2a
I1025 13:37:10.969166 13552 net.cpp:157] Top shape: 24 16 75 75 (2160000)
I1025 13:37:10.969169 13552 net.cpp:165] Memory required for data: 1771200416
I1025 13:37:10.969174 13552 layer_factory.hpp:77] Creating layer stage1_3/branch2a/bn
I1025 13:37:10.969184 13552 net.cpp:100] Creating Layer stage1_3/branch2a/bn
I1025 13:37:10.969189 13552 net.cpp:434] stage1_3/branch2a/bn <- stage1_3/branch2a
I1025 13:37:10.969194 13552 net.cpp:395] stage1_3/branch2a/bn -> stage1_3/branch2a (in-place)
I1025 13:37:10.969321 13552 net.cpp:150] Setting up stage1_3/branch2a/bn
I1025 13:37:10.969326 13552 net.cpp:157] Top shape: 24 16 75 75 (2160000)
I1025 13:37:10.969329 13552 net.cpp:165] Memory required for data: 1779840416
I1025 13:37:10.969336 13552 layer_factory.hpp:77] Creating layer stage1_3/branch2a/scale
I1025 13:37:10.969347 13552 net.cpp:100] Creating Layer stage1_3/branch2a/scale
I1025 13:37:10.969350 13552 net.cpp:434] stage1_3/branch2a/scale <- stage1_3/branch2a
I1025 13:37:10.969355 13552 net.cpp:395] stage1_3/branch2a/scale -> stage1_3/branch2a (in-place)
I1025 13:37:10.969388 13552 layer_factory.hpp:77] Creating layer stage1_3/branch2a/scale
I1025 13:37:10.969480 13552 net.cpp:150] Setting up stage1_3/branch2a/scale
I1025 13:37:10.969485 13552 net.cpp:157] Top shape: 24 16 75 75 (2160000)
I1025 13:37:10.969488 13552 net.cpp:165] Memory required for data: 1788480416
I1025 13:37:10.969494 13552 layer_factory.hpp:77] Creating layer stage1_3/branch2a/relu
I1025 13:37:10.969501 13552 net.cpp:100] Creating Layer stage1_3/branch2a/relu
I1025 13:37:10.969504 13552 net.cpp:434] stage1_3/branch2a/relu <- stage1_3/branch2a
I1025 13:37:10.969511 13552 net.cpp:395] stage1_3/branch2a/relu -> stage1_3/branch2a (in-place)
I1025 13:37:10.970026 13552 net.cpp:150] Setting up stage1_3/branch2a/relu
I1025 13:37:10.970036 13552 net.cpp:157] Top shape: 24 16 75 75 (2160000)
I1025 13:37:10.970038 13552 net.cpp:165] Memory required for data: 1797120416
I1025 13:37:10.970042 13552 layer_factory.hpp:77] Creating layer stage1_3/branch2b
I1025 13:37:10.970053 13552 net.cpp:100] Creating Layer stage1_3/branch2b
I1025 13:37:10.970058 13552 net.cpp:434] stage1_3/branch2b <- stage1_3/branch2a
I1025 13:37:10.970067 13552 net.cpp:408] stage1_3/branch2b -> stage1_3/branch2b
I1025 13:37:10.973314 13552 net.cpp:150] Setting up stage1_3/branch2b
I1025 13:37:10.973327 13552 net.cpp:157] Top shape: 24 16 75 75 (2160000)
I1025 13:37:10.973332 13552 net.cpp:165] Memory required for data: 1805760416
I1025 13:37:10.973338 13552 layer_factory.hpp:77] Creating layer stage1_3/branch2b/bn
I1025 13:37:10.973348 13552 net.cpp:100] Creating Layer stage1_3/branch2b/bn
I1025 13:37:10.973353 13552 net.cpp:434] stage1_3/branch2b/bn <- stage1_3/branch2b
I1025 13:37:10.973361 13552 net.cpp:395] stage1_3/branch2b/bn -> stage1_3/branch2b (in-place)
I1025 13:37:10.973491 13552 net.cpp:150] Setting up stage1_3/branch2b/bn
I1025 13:37:10.973497 13552 net.cpp:157] Top shape: 24 16 75 75 (2160000)
I1025 13:37:10.973500 13552 net.cpp:165] Memory required for data: 1814400416
I1025 13:37:10.973508 13552 layer_factory.hpp:77] Creating layer stage1_3/branch2b/scale
I1025 13:37:10.973515 13552 net.cpp:100] Creating Layer stage1_3/branch2b/scale
I1025 13:37:10.973520 13552 net.cpp:434] stage1_3/branch2b/scale <- stage1_3/branch2b
I1025 13:37:10.973526 13552 net.cpp:395] stage1_3/branch2b/scale -> stage1_3/branch2b (in-place)
I1025 13:37:10.973559 13552 layer_factory.hpp:77] Creating layer stage1_3/branch2b/scale
I1025 13:37:10.974205 13552 net.cpp:150] Setting up stage1_3/branch2b/scale
I1025 13:37:10.974215 13552 net.cpp:157] Top shape: 24 16 75 75 (2160000)
I1025 13:37:10.974217 13552 net.cpp:165] Memory required for data: 1823040416
I1025 13:37:10.974223 13552 layer_factory.hpp:77] Creating layer stage1_3/branch2b/relu
I1025 13:37:10.974231 13552 net.cpp:100] Creating Layer stage1_3/branch2b/relu
I1025 13:37:10.974234 13552 net.cpp:434] stage1_3/branch2b/relu <- stage1_3/branch2b
I1025 13:37:10.974241 13552 net.cpp:395] stage1_3/branch2b/relu -> stage1_3/branch2b (in-place)
I1025 13:37:10.974543 13552 net.cpp:150] Setting up stage1_3/branch2b/relu
I1025 13:37:10.974550 13552 net.cpp:157] Top shape: 24 16 75 75 (2160000)
I1025 13:37:10.974555 13552 net.cpp:165] Memory required for data: 1831680416
I1025 13:37:10.974558 13552 layer_factory.hpp:77] Creating layer stage1_3/branch2c
I1025 13:37:10.974568 13552 net.cpp:100] Creating Layer stage1_3/branch2c
I1025 13:37:10.974572 13552 net.cpp:434] stage1_3/branch2c <- stage1_3/branch2b
I1025 13:37:10.974581 13552 net.cpp:408] stage1_3/branch2c -> stage1_3/branch2c
I1025 13:37:10.984277 13552 net.cpp:150] Setting up stage1_3/branch2c
I1025 13:37:10.984292 13552 net.cpp:157] Top shape: 24 16 75 75 (2160000)
I1025 13:37:10.984294 13552 net.cpp:165] Memory required for data: 1840320416
I1025 13:37:10.984299 13552 layer_factory.hpp:77] Creating layer stage1_3/branch2c/bn
I1025 13:37:10.984305 13552 net.cpp:100] Creating Layer stage1_3/branch2c/bn
I1025 13:37:10.984308 13552 net.cpp:434] stage1_3/branch2c/bn <- stage1_3/branch2c
I1025 13:37:10.984314 13552 net.cpp:395] stage1_3/branch2c/bn -> stage1_3/branch2c (in-place)
I1025 13:37:10.984436 13552 net.cpp:150] Setting up stage1_3/branch2c/bn
I1025 13:37:10.984453 13552 net.cpp:157] Top shape: 24 16 75 75 (2160000)
I1025 13:37:10.984455 13552 net.cpp:165] Memory required for data: 1848960416
I1025 13:37:10.984460 13552 layer_factory.hpp:77] Creating layer stage1_3/branch2c/scale
I1025 13:37:10.984464 13552 net.cpp:100] Creating Layer stage1_3/branch2c/scale
I1025 13:37:10.984467 13552 net.cpp:434] stage1_3/branch2c/scale <- stage1_3/branch2c
I1025 13:37:10.984470 13552 net.cpp:395] stage1_3/branch2c/scale -> stage1_3/branch2c (in-place)
I1025 13:37:10.984496 13552 layer_factory.hpp:77] Creating layer stage1_3/branch2c/scale
I1025 13:37:10.984565 13552 net.cpp:150] Setting up stage1_3/branch2c/scale
I1025 13:37:10.984571 13552 net.cpp:157] Top shape: 24 16 75 75 (2160000)
I1025 13:37:10.984573 13552 net.cpp:165] Memory required for data: 1857600416
I1025 13:37:10.984577 13552 layer_factory.hpp:77] Creating layer stage1_3/branch2c/relu
I1025 13:37:10.984580 13552 net.cpp:100] Creating Layer stage1_3/branch2c/relu
I1025 13:37:10.984582 13552 net.cpp:434] stage1_3/branch2c/relu <- stage1_3/branch2c
I1025 13:37:10.984586 13552 net.cpp:395] stage1_3/branch2c/relu -> stage1_3/branch2c (in-place)
I1025 13:37:10.985273 13552 net.cpp:150] Setting up stage1_3/branch2c/relu
I1025 13:37:10.985281 13552 net.cpp:157] Top shape: 24 16 75 75 (2160000)
I1025 13:37:10.985283 13552 net.cpp:165] Memory required for data: 1866240416
I1025 13:37:10.985286 13552 layer_factory.hpp:77] Creating layer stage1_3/concat
I1025 13:37:10.985293 13552 net.cpp:100] Creating Layer stage1_3/concat
I1025 13:37:10.985296 13552 net.cpp:434] stage1_3/concat <- stage1_2/concat_stage1_2/concat_0_split_2
I1025 13:37:10.985299 13552 net.cpp:434] stage1_3/concat <- stage1_3/branch1b
I1025 13:37:10.985301 13552 net.cpp:434] stage1_3/concat <- stage1_3/branch2c
I1025 13:37:10.985306 13552 net.cpp:408] stage1_3/concat -> stage1_3/concat
I1025 13:37:10.985325 13552 net.cpp:150] Setting up stage1_3/concat
I1025 13:37:10.985330 13552 net.cpp:157] Top shape: 24 128 75 75 (17280000)
I1025 13:37:10.985332 13552 net.cpp:165] Memory required for data: 1935360416
I1025 13:37:10.985334 13552 layer_factory.hpp:77] Creating layer stage1_tb
I1025 13:37:10.985342 13552 net.cpp:100] Creating Layer stage1_tb
I1025 13:37:10.985344 13552 net.cpp:434] stage1_tb <- stage1_3/concat
I1025 13:37:10.985348 13552 net.cpp:408] stage1_tb -> stage1_tb
I1025 13:37:10.987257 13552 net.cpp:150] Setting up stage1_tb
I1025 13:37:10.987268 13552 net.cpp:157] Top shape: 24 128 75 75 (17280000)
I1025 13:37:10.987270 13552 net.cpp:165] Memory required for data: 2004480416
I1025 13:37:10.987274 13552 layer_factory.hpp:77] Creating layer stage1_tb/bn
I1025 13:37:10.987278 13552 net.cpp:100] Creating Layer stage1_tb/bn
I1025 13:37:10.987282 13552 net.cpp:434] stage1_tb/bn <- stage1_tb
I1025 13:37:10.987287 13552 net.cpp:395] stage1_tb/bn -> stage1_tb (in-place)
I1025 13:37:10.987406 13552 net.cpp:150] Setting up stage1_tb/bn
I1025 13:37:10.987411 13552 net.cpp:157] Top shape: 24 128 75 75 (17280000)
I1025 13:37:10.987413 13552 net.cpp:165] Memory required for data: 2073600416
I1025 13:37:10.987417 13552 layer_factory.hpp:77] Creating layer stage1_tb/scale
I1025 13:37:10.987422 13552 net.cpp:100] Creating Layer stage1_tb/scale
I1025 13:37:10.987424 13552 net.cpp:434] stage1_tb/scale <- stage1_tb
I1025 13:37:10.987428 13552 net.cpp:395] stage1_tb/scale -> stage1_tb (in-place)
I1025 13:37:10.987455 13552 layer_factory.hpp:77] Creating layer stage1_tb/scale
I1025 13:37:10.987522 13552 net.cpp:150] Setting up stage1_tb/scale
I1025 13:37:10.987527 13552 net.cpp:157] Top shape: 24 128 75 75 (17280000)
I1025 13:37:10.987530 13552 net.cpp:165] Memory required for data: 2142720416
I1025 13:37:10.987534 13552 layer_factory.hpp:77] Creating layer stage1_tb/relu
I1025 13:37:10.987537 13552 net.cpp:100] Creating Layer stage1_tb/relu
I1025 13:37:10.987540 13552 net.cpp:434] stage1_tb/relu <- stage1_tb
I1025 13:37:10.987543 13552 net.cpp:395] stage1_tb/relu -> stage1_tb (in-place)
I1025 13:37:10.988890 13552 net.cpp:150] Setting up stage1_tb/relu
I1025 13:37:10.988919 13552 net.cpp:157] Top shape: 24 128 75 75 (17280000)
I1025 13:37:10.988922 13552 net.cpp:165] Memory required for data: 2211840416
I1025 13:37:10.988925 13552 layer_factory.hpp:77] Creating layer stage1_tb/pool
I1025 13:37:10.988934 13552 net.cpp:100] Creating Layer stage1_tb/pool
I1025 13:37:10.988936 13552 net.cpp:434] stage1_tb/pool <- stage1_tb
I1025 13:37:10.988945 13552 net.cpp:408] stage1_tb/pool -> stage1_tb/pool
I1025 13:37:10.989280 13552 net.cpp:150] Setting up stage1_tb/pool
I1025 13:37:10.989289 13552 net.cpp:157] Top shape: 24 128 38 38 (4435968)
I1025 13:37:10.989290 13552 net.cpp:165] Memory required for data: 2229584288
I1025 13:37:10.989292 13552 layer_factory.hpp:77] Creating layer stage1_tb/pool_stage1_tb/pool_0_split
I1025 13:37:10.989298 13552 net.cpp:100] Creating Layer stage1_tb/pool_stage1_tb/pool_0_split
I1025 13:37:10.989301 13552 net.cpp:434] stage1_tb/pool_stage1_tb/pool_0_split <- stage1_tb/pool
I1025 13:37:10.989305 13552 net.cpp:408] stage1_tb/pool_stage1_tb/pool_0_split -> stage1_tb/pool_stage1_tb/pool_0_split_0
I1025 13:37:10.989310 13552 net.cpp:408] stage1_tb/pool_stage1_tb/pool_0_split -> stage1_tb/pool_stage1_tb/pool_0_split_1
I1025 13:37:10.989315 13552 net.cpp:408] stage1_tb/pool_stage1_tb/pool_0_split -> stage1_tb/pool_stage1_tb/pool_0_split_2
I1025 13:37:10.989346 13552 net.cpp:150] Setting up stage1_tb/pool_stage1_tb/pool_0_split
I1025 13:37:10.989349 13552 net.cpp:157] Top shape: 24 128 38 38 (4435968)
I1025 13:37:10.989352 13552 net.cpp:157] Top shape: 24 128 38 38 (4435968)
I1025 13:37:10.989356 13552 net.cpp:157] Top shape: 24 128 38 38 (4435968)
I1025 13:37:10.989356 13552 net.cpp:165] Memory required for data: 2282815904
I1025 13:37:10.989358 13552 layer_factory.hpp:77] Creating layer stage2_1/branch1a
I1025 13:37:10.989367 13552 net.cpp:100] Creating Layer stage2_1/branch1a
I1025 13:37:10.989369 13552 net.cpp:434] stage2_1/branch1a <- stage1_tb/pool_stage1_tb/pool_0_split_0
I1025 13:37:10.989373 13552 net.cpp:408] stage2_1/branch1a -> stage2_1/branch1a
I1025 13:37:10.991474 13552 net.cpp:150] Setting up stage2_1/branch1a
I1025 13:37:10.991487 13552 net.cpp:157] Top shape: 24 32 38 38 (1108992)
I1025 13:37:10.991488 13552 net.cpp:165] Memory required for data: 2287251872
I1025 13:37:10.991493 13552 layer_factory.hpp:77] Creating layer stage2_1/branch1a/bn
I1025 13:37:10.991498 13552 net.cpp:100] Creating Layer stage2_1/branch1a/bn
I1025 13:37:10.991502 13552 net.cpp:434] stage2_1/branch1a/bn <- stage2_1/branch1a
I1025 13:37:10.991506 13552 net.cpp:395] stage2_1/branch1a/bn -> stage2_1/branch1a (in-place)
I1025 13:37:10.991629 13552 net.cpp:150] Setting up stage2_1/branch1a/bn
I1025 13:37:10.991634 13552 net.cpp:157] Top shape: 24 32 38 38 (1108992)
I1025 13:37:10.991636 13552 net.cpp:165] Memory required for data: 2291687840
I1025 13:37:10.991641 13552 layer_factory.hpp:77] Creating layer stage2_1/branch1a/scale
I1025 13:37:10.991645 13552 net.cpp:100] Creating Layer stage2_1/branch1a/scale
I1025 13:37:10.991647 13552 net.cpp:434] stage2_1/branch1a/scale <- stage2_1/branch1a
I1025 13:37:10.991650 13552 net.cpp:395] stage2_1/branch1a/scale -> stage2_1/branch1a (in-place)
I1025 13:37:10.991678 13552 layer_factory.hpp:77] Creating layer stage2_1/branch1a/scale
I1025 13:37:10.991746 13552 net.cpp:150] Setting up stage2_1/branch1a/scale
I1025 13:37:10.991751 13552 net.cpp:157] Top shape: 24 32 38 38 (1108992)
I1025 13:37:10.991753 13552 net.cpp:165] Memory required for data: 2296123808
I1025 13:37:10.991757 13552 layer_factory.hpp:77] Creating layer stage2_1/branch1a/relu
I1025 13:37:10.991761 13552 net.cpp:100] Creating Layer stage2_1/branch1a/relu
I1025 13:37:10.991763 13552 net.cpp:434] stage2_1/branch1a/relu <- stage2_1/branch1a
I1025 13:37:10.991766 13552 net.cpp:395] stage2_1/branch1a/relu -> stage2_1/branch1a (in-place)
I1025 13:37:10.992460 13552 net.cpp:150] Setting up stage2_1/branch1a/relu
I1025 13:37:10.992468 13552 net.cpp:157] Top shape: 24 32 38 38 (1108992)
I1025 13:37:10.992470 13552 net.cpp:165] Memory required for data: 2300559776
I1025 13:37:10.992473 13552 layer_factory.hpp:77] Creating layer stage2_1/branch1b
I1025 13:37:10.992496 13552 net.cpp:100] Creating Layer stage2_1/branch1b
I1025 13:37:10.992501 13552 net.cpp:434] stage2_1/branch1b <- stage2_1/branch1a
I1025 13:37:10.992508 13552 net.cpp:408] stage2_1/branch1b -> stage2_1/branch1b
I1025 13:37:11.000735 13552 net.cpp:150] Setting up stage2_1/branch1b
I1025 13:37:11.000746 13552 net.cpp:157] Top shape: 24 16 38 38 (554496)
I1025 13:37:11.000749 13552 net.cpp:165] Memory required for data: 2302777760
I1025 13:37:11.000753 13552 layer_factory.hpp:77] Creating layer stage2_1/branch1b/bn
I1025 13:37:11.000759 13552 net.cpp:100] Creating Layer stage2_1/branch1b/bn
I1025 13:37:11.000761 13552 net.cpp:434] stage2_1/branch1b/bn <- stage2_1/branch1b
I1025 13:37:11.000766 13552 net.cpp:395] stage2_1/branch1b/bn -> stage2_1/branch1b (in-place)
I1025 13:37:11.000890 13552 net.cpp:150] Setting up stage2_1/branch1b/bn
I1025 13:37:11.000895 13552 net.cpp:157] Top shape: 24 16 38 38 (554496)
I1025 13:37:11.000897 13552 net.cpp:165] Memory required for data: 2304995744
I1025 13:37:11.000914 13552 layer_factory.hpp:77] Creating layer stage2_1/branch1b/scale
I1025 13:37:11.000919 13552 net.cpp:100] Creating Layer stage2_1/branch1b/scale
I1025 13:37:11.000922 13552 net.cpp:434] stage2_1/branch1b/scale <- stage2_1/branch1b
I1025 13:37:11.000926 13552 net.cpp:395] stage2_1/branch1b/scale -> stage2_1/branch1b (in-place)
I1025 13:37:11.000953 13552 layer_factory.hpp:77] Creating layer stage2_1/branch1b/scale
I1025 13:37:11.001024 13552 net.cpp:150] Setting up stage2_1/branch1b/scale
I1025 13:37:11.001029 13552 net.cpp:157] Top shape: 24 16 38 38 (554496)
I1025 13:37:11.001030 13552 net.cpp:165] Memory required for data: 2307213728
I1025 13:37:11.001034 13552 layer_factory.hpp:77] Creating layer stage2_1/branch1b/relu
I1025 13:37:11.001039 13552 net.cpp:100] Creating Layer stage2_1/branch1b/relu
I1025 13:37:11.001040 13552 net.cpp:434] stage2_1/branch1b/relu <- stage2_1/branch1b
I1025 13:37:11.001044 13552 net.cpp:395] stage2_1/branch1b/relu -> stage2_1/branch1b (in-place)
I1025 13:37:11.001435 13552 net.cpp:150] Setting up stage2_1/branch1b/relu
I1025 13:37:11.001441 13552 net.cpp:157] Top shape: 24 16 38 38 (554496)
I1025 13:37:11.001444 13552 net.cpp:165] Memory required for data: 2309431712
I1025 13:37:11.001446 13552 layer_factory.hpp:77] Creating layer stage2_1/branch2a
I1025 13:37:11.001453 13552 net.cpp:100] Creating Layer stage2_1/branch2a
I1025 13:37:11.001456 13552 net.cpp:434] stage2_1/branch2a <- stage1_tb/pool_stage1_tb/pool_0_split_1
I1025 13:37:11.001461 13552 net.cpp:408] stage2_1/branch2a -> stage2_1/branch2a
I1025 13:37:11.004242 13552 net.cpp:150] Setting up stage2_1/branch2a
I1025 13:37:11.004261 13552 net.cpp:157] Top shape: 24 32 38 38 (1108992)
I1025 13:37:11.004264 13552 net.cpp:165] Memory required for data: 2313867680
I1025 13:37:11.004274 13552 layer_factory.hpp:77] Creating layer stage2_1/branch2a/bn
I1025 13:37:11.004284 13552 net.cpp:100] Creating Layer stage2_1/branch2a/bn
I1025 13:37:11.004289 13552 net.cpp:434] stage2_1/branch2a/bn <- stage2_1/branch2a
I1025 13:37:11.004295 13552 net.cpp:395] stage2_1/branch2a/bn -> stage2_1/branch2a (in-place)
I1025 13:37:11.004426 13552 net.cpp:150] Setting up stage2_1/branch2a/bn
I1025 13:37:11.004432 13552 net.cpp:157] Top shape: 24 32 38 38 (1108992)
I1025 13:37:11.004434 13552 net.cpp:165] Memory required for data: 2318303648
I1025 13:37:11.004439 13552 layer_factory.hpp:77] Creating layer stage2_1/branch2a/scale
I1025 13:37:11.004444 13552 net.cpp:100] Creating Layer stage2_1/branch2a/scale
I1025 13:37:11.004446 13552 net.cpp:434] stage2_1/branch2a/scale <- stage2_1/branch2a
I1025 13:37:11.004451 13552 net.cpp:395] stage2_1/branch2a/scale -> stage2_1/branch2a (in-place)
I1025 13:37:11.004479 13552 layer_factory.hpp:77] Creating layer stage2_1/branch2a/scale
I1025 13:37:11.004551 13552 net.cpp:150] Setting up stage2_1/branch2a/scale
I1025 13:37:11.004556 13552 net.cpp:157] Top shape: 24 32 38 38 (1108992)
I1025 13:37:11.004559 13552 net.cpp:165] Memory required for data: 2322739616
I1025 13:37:11.004575 13552 layer_factory.hpp:77] Creating layer stage2_1/branch2a/relu
I1025 13:37:11.004580 13552 net.cpp:100] Creating Layer stage2_1/branch2a/relu
I1025 13:37:11.004581 13552 net.cpp:434] stage2_1/branch2a/relu <- stage2_1/branch2a
I1025 13:37:11.004586 13552 net.cpp:395] stage2_1/branch2a/relu -> stage2_1/branch2a (in-place)
I1025 13:37:11.005091 13552 net.cpp:150] Setting up stage2_1/branch2a/relu
I1025 13:37:11.005103 13552 net.cpp:157] Top shape: 24 32 38 38 (1108992)
I1025 13:37:11.005106 13552 net.cpp:165] Memory required for data: 2327175584
I1025 13:37:11.005108 13552 layer_factory.hpp:77] Creating layer stage2_1/branch2b
I1025 13:37:11.005120 13552 net.cpp:100] Creating Layer stage2_1/branch2b
I1025 13:37:11.005122 13552 net.cpp:434] stage2_1/branch2b <- stage2_1/branch2a
I1025 13:37:11.005129 13552 net.cpp:408] stage2_1/branch2b -> stage2_1/branch2b
I1025 13:37:11.006582 13552 net.cpp:150] Setting up stage2_1/branch2b
I1025 13:37:11.006598 13552 net.cpp:157] Top shape: 24 16 38 38 (554496)
I1025 13:37:11.006601 13552 net.cpp:165] Memory required for data: 2329393568
I1025 13:37:11.006605 13552 layer_factory.hpp:77] Creating layer stage2_1/branch2b/bn
I1025 13:37:11.006610 13552 net.cpp:100] Creating Layer stage2_1/branch2b/bn
I1025 13:37:11.006614 13552 net.cpp:434] stage2_1/branch2b/bn <- stage2_1/branch2b
I1025 13:37:11.006618 13552 net.cpp:395] stage2_1/branch2b/bn -> stage2_1/branch2b (in-place)
I1025 13:37:11.006742 13552 net.cpp:150] Setting up stage2_1/branch2b/bn
I1025 13:37:11.006747 13552 net.cpp:157] Top shape: 24 16 38 38 (554496)
I1025 13:37:11.006750 13552 net.cpp:165] Memory required for data: 2331611552
I1025 13:37:11.006754 13552 layer_factory.hpp:77] Creating layer stage2_1/branch2b/scale
I1025 13:37:11.006760 13552 net.cpp:100] Creating Layer stage2_1/branch2b/scale
I1025 13:37:11.006762 13552 net.cpp:434] stage2_1/branch2b/scale <- stage2_1/branch2b
I1025 13:37:11.006765 13552 net.cpp:395] stage2_1/branch2b/scale -> stage2_1/branch2b (in-place)
I1025 13:37:11.006793 13552 layer_factory.hpp:77] Creating layer stage2_1/branch2b/scale
I1025 13:37:11.006865 13552 net.cpp:150] Setting up stage2_1/branch2b/scale
I1025 13:37:11.006870 13552 net.cpp:157] Top shape: 24 16 38 38 (554496)
I1025 13:37:11.006871 13552 net.cpp:165] Memory required for data: 2333829536
I1025 13:37:11.006876 13552 layer_factory.hpp:77] Creating layer stage2_1/branch2b/relu
I1025 13:37:11.006883 13552 net.cpp:100] Creating Layer stage2_1/branch2b/relu
I1025 13:37:11.006887 13552 net.cpp:434] stage2_1/branch2b/relu <- stage2_1/branch2b
I1025 13:37:11.006892 13552 net.cpp:395] stage2_1/branch2b/relu -> stage2_1/branch2b (in-place)
I1025 13:37:11.007357 13552 net.cpp:150] Setting up stage2_1/branch2b/relu
I1025 13:37:11.007365 13552 net.cpp:157] Top shape: 24 16 38 38 (554496)
I1025 13:37:11.007367 13552 net.cpp:165] Memory required for data: 2336047520
I1025 13:37:11.007370 13552 layer_factory.hpp:77] Creating layer stage2_1/branch2c
I1025 13:37:11.007376 13552 net.cpp:100] Creating Layer stage2_1/branch2c
I1025 13:37:11.007380 13552 net.cpp:434] stage2_1/branch2c <- stage2_1/branch2b
I1025 13:37:11.007385 13552 net.cpp:408] stage2_1/branch2c -> stage2_1/branch2c
I1025 13:37:11.017323 13552 net.cpp:150] Setting up stage2_1/branch2c
I1025 13:37:11.017340 13552 net.cpp:157] Top shape: 24 16 38 38 (554496)
I1025 13:37:11.017343 13552 net.cpp:165] Memory required for data: 2338265504
I1025 13:37:11.017351 13552 layer_factory.hpp:77] Creating layer stage2_1/branch2c/bn
I1025 13:37:11.017359 13552 net.cpp:100] Creating Layer stage2_1/branch2c/bn
I1025 13:37:11.017362 13552 net.cpp:434] stage2_1/branch2c/bn <- stage2_1/branch2c
I1025 13:37:11.017369 13552 net.cpp:395] stage2_1/branch2c/bn -> stage2_1/branch2c (in-place)
I1025 13:37:11.017498 13552 net.cpp:150] Setting up stage2_1/branch2c/bn
I1025 13:37:11.017503 13552 net.cpp:157] Top shape: 24 16 38 38 (554496)
I1025 13:37:11.017505 13552 net.cpp:165] Memory required for data: 2340483488
I1025 13:37:11.017510 13552 layer_factory.hpp:77] Creating layer stage2_1/branch2c/scale
I1025 13:37:11.017527 13552 net.cpp:100] Creating Layer stage2_1/branch2c/scale
I1025 13:37:11.017530 13552 net.cpp:434] stage2_1/branch2c/scale <- stage2_1/branch2c
I1025 13:37:11.017534 13552 net.cpp:395] stage2_1/branch2c/scale -> stage2_1/branch2c (in-place)
I1025 13:37:11.017560 13552 layer_factory.hpp:77] Creating layer stage2_1/branch2c/scale
I1025 13:37:11.017634 13552 net.cpp:150] Setting up stage2_1/branch2c/scale
I1025 13:37:11.017639 13552 net.cpp:157] Top shape: 24 16 38 38 (554496)
I1025 13:37:11.017642 13552 net.cpp:165] Memory required for data: 2342701472
I1025 13:37:11.017645 13552 layer_factory.hpp:77] Creating layer stage2_1/branch2c/relu
I1025 13:37:11.017649 13552 net.cpp:100] Creating Layer stage2_1/branch2c/relu
I1025 13:37:11.017652 13552 net.cpp:434] stage2_1/branch2c/relu <- stage2_1/branch2c
I1025 13:37:11.017654 13552 net.cpp:395] stage2_1/branch2c/relu -> stage2_1/branch2c (in-place)
I1025 13:37:11.017959 13552 net.cpp:150] Setting up stage2_1/branch2c/relu
I1025 13:37:11.017967 13552 net.cpp:157] Top shape: 24 16 38 38 (554496)
I1025 13:37:11.017969 13552 net.cpp:165] Memory required for data: 2344919456
I1025 13:37:11.017971 13552 layer_factory.hpp:77] Creating layer stage2_1/concat
I1025 13:37:11.017976 13552 net.cpp:100] Creating Layer stage2_1/concat
I1025 13:37:11.017978 13552 net.cpp:434] stage2_1/concat <- stage1_tb/pool_stage1_tb/pool_0_split_2
I1025 13:37:11.017982 13552 net.cpp:434] stage2_1/concat <- stage2_1/branch1b
I1025 13:37:11.017985 13552 net.cpp:434] stage2_1/concat <- stage2_1/branch2c
I1025 13:37:11.017988 13552 net.cpp:408] stage2_1/concat -> stage2_1/concat
I1025 13:37:11.018010 13552 net.cpp:150] Setting up stage2_1/concat
I1025 13:37:11.018014 13552 net.cpp:157] Top shape: 24 160 38 38 (5544960)
I1025 13:37:11.018016 13552 net.cpp:165] Memory required for data: 2367099296
I1025 13:37:11.018018 13552 layer_factory.hpp:77] Creating layer stage2_1/concat_stage2_1/concat_0_split
I1025 13:37:11.018025 13552 net.cpp:100] Creating Layer stage2_1/concat_stage2_1/concat_0_split
I1025 13:37:11.018028 13552 net.cpp:434] stage2_1/concat_stage2_1/concat_0_split <- stage2_1/concat
I1025 13:37:11.018035 13552 net.cpp:408] stage2_1/concat_stage2_1/concat_0_split -> stage2_1/concat_stage2_1/concat_0_split_0
I1025 13:37:11.018043 13552 net.cpp:408] stage2_1/concat_stage2_1/concat_0_split -> stage2_1/concat_stage2_1/concat_0_split_1
I1025 13:37:11.018048 13552 net.cpp:408] stage2_1/concat_stage2_1/concat_0_split -> stage2_1/concat_stage2_1/concat_0_split_2
I1025 13:37:11.018082 13552 net.cpp:150] Setting up stage2_1/concat_stage2_1/concat_0_split
I1025 13:37:11.018086 13552 net.cpp:157] Top shape: 24 160 38 38 (5544960)
I1025 13:37:11.018090 13552 net.cpp:157] Top shape: 24 160 38 38 (5544960)
I1025 13:37:11.018092 13552 net.cpp:157] Top shape: 24 160 38 38 (5544960)
I1025 13:37:11.018095 13552 net.cpp:165] Memory required for data: 2433638816
I1025 13:37:11.018098 13552 layer_factory.hpp:77] Creating layer stage2_2/branch1a
I1025 13:37:11.018106 13552 net.cpp:100] Creating Layer stage2_2/branch1a
I1025 13:37:11.018110 13552 net.cpp:434] stage2_2/branch1a <- stage2_1/concat_stage2_1/concat_0_split_0
I1025 13:37:11.018115 13552 net.cpp:408] stage2_2/branch1a -> stage2_2/branch1a
I1025 13:37:11.020534 13552 net.cpp:150] Setting up stage2_2/branch1a
I1025 13:37:11.020546 13552 net.cpp:157] Top shape: 24 32 38 38 (1108992)
I1025 13:37:11.020550 13552 net.cpp:165] Memory required for data: 2438074784
I1025 13:37:11.020553 13552 layer_factory.hpp:77] Creating layer stage2_2/branch1a/bn
I1025 13:37:11.020560 13552 net.cpp:100] Creating Layer stage2_2/branch1a/bn
I1025 13:37:11.020562 13552 net.cpp:434] stage2_2/branch1a/bn <- stage2_2/branch1a
I1025 13:37:11.020566 13552 net.cpp:395] stage2_2/branch1a/bn -> stage2_2/branch1a (in-place)
I1025 13:37:11.020694 13552 net.cpp:150] Setting up stage2_2/branch1a/bn
I1025 13:37:11.020699 13552 net.cpp:157] Top shape: 24 32 38 38 (1108992)
I1025 13:37:11.020700 13552 net.cpp:165] Memory required for data: 2442510752
I1025 13:37:11.020716 13552 layer_factory.hpp:77] Creating layer stage2_2/branch1a/scale
I1025 13:37:11.020721 13552 net.cpp:100] Creating Layer stage2_2/branch1a/scale
I1025 13:37:11.020723 13552 net.cpp:434] stage2_2/branch1a/scale <- stage2_2/branch1a
I1025 13:37:11.020727 13552 net.cpp:395] stage2_2/branch1a/scale -> stage2_2/branch1a (in-place)
I1025 13:37:11.020754 13552 layer_factory.hpp:77] Creating layer stage2_2/branch1a/scale
I1025 13:37:11.020823 13552 net.cpp:150] Setting up stage2_2/branch1a/scale
I1025 13:37:11.020828 13552 net.cpp:157] Top shape: 24 32 38 38 (1108992)
I1025 13:37:11.020830 13552 net.cpp:165] Memory required for data: 2446946720
I1025 13:37:11.020833 13552 layer_factory.hpp:77] Creating layer stage2_2/branch1a/relu
I1025 13:37:11.020838 13552 net.cpp:100] Creating Layer stage2_2/branch1a/relu
I1025 13:37:11.020839 13552 net.cpp:434] stage2_2/branch1a/relu <- stage2_2/branch1a
I1025 13:37:11.020843 13552 net.cpp:395] stage2_2/branch1a/relu -> stage2_2/branch1a (in-place)
I1025 13:37:11.021242 13552 net.cpp:150] Setting up stage2_2/branch1a/relu
I1025 13:37:11.021252 13552 net.cpp:157] Top shape: 24 32 38 38 (1108992)
I1025 13:37:11.021255 13552 net.cpp:165] Memory required for data: 2451382688
I1025 13:37:11.021256 13552 layer_factory.hpp:77] Creating layer stage2_2/branch1b
I1025 13:37:11.021263 13552 net.cpp:100] Creating Layer stage2_2/branch1b
I1025 13:37:11.021266 13552 net.cpp:434] stage2_2/branch1b <- stage2_2/branch1a
I1025 13:37:11.021271 13552 net.cpp:408] stage2_2/branch1b -> stage2_2/branch1b
I1025 13:37:11.022714 13552 net.cpp:150] Setting up stage2_2/branch1b
I1025 13:37:11.022724 13552 net.cpp:157] Top shape: 24 16 38 38 (554496)
I1025 13:37:11.022727 13552 net.cpp:165] Memory required for data: 2453600672
I1025 13:37:11.022730 13552 layer_factory.hpp:77] Creating layer stage2_2/branch1b/bn
I1025 13:37:11.022735 13552 net.cpp:100] Creating Layer stage2_2/branch1b/bn
I1025 13:37:11.022738 13552 net.cpp:434] stage2_2/branch1b/bn <- stage2_2/branch1b
I1025 13:37:11.022743 13552 net.cpp:395] stage2_2/branch1b/bn -> stage2_2/branch1b (in-place)
I1025 13:37:11.022868 13552 net.cpp:150] Setting up stage2_2/branch1b/bn
I1025 13:37:11.022873 13552 net.cpp:157] Top shape: 24 16 38 38 (554496)
I1025 13:37:11.022876 13552 net.cpp:165] Memory required for data: 2455818656
I1025 13:37:11.022881 13552 layer_factory.hpp:77] Creating layer stage2_2/branch1b/scale
I1025 13:37:11.022886 13552 net.cpp:100] Creating Layer stage2_2/branch1b/scale
I1025 13:37:11.022888 13552 net.cpp:434] stage2_2/branch1b/scale <- stage2_2/branch1b
I1025 13:37:11.022891 13552 net.cpp:395] stage2_2/branch1b/scale -> stage2_2/branch1b (in-place)
I1025 13:37:11.022915 13552 layer_factory.hpp:77] Creating layer stage2_2/branch1b/scale
I1025 13:37:11.022987 13552 net.cpp:150] Setting up stage2_2/branch1b/scale
I1025 13:37:11.022992 13552 net.cpp:157] Top shape: 24 16 38 38 (554496)
I1025 13:37:11.022994 13552 net.cpp:165] Memory required for data: 2458036640
I1025 13:37:11.022998 13552 layer_factory.hpp:77] Creating layer stage2_2/branch1b/relu
I1025 13:37:11.023002 13552 net.cpp:100] Creating Layer stage2_2/branch1b/relu
I1025 13:37:11.023005 13552 net.cpp:434] stage2_2/branch1b/relu <- stage2_2/branch1b
I1025 13:37:11.023008 13552 net.cpp:395] stage2_2/branch1b/relu -> stage2_2/branch1b (in-place)
I1025 13:37:11.023689 13552 net.cpp:150] Setting up stage2_2/branch1b/relu
I1025 13:37:11.023697 13552 net.cpp:157] Top shape: 24 16 38 38 (554496)
I1025 13:37:11.023700 13552 net.cpp:165] Memory required for data: 2460254624
I1025 13:37:11.023702 13552 layer_factory.hpp:77] Creating layer stage2_2/branch2a
I1025 13:37:11.023710 13552 net.cpp:100] Creating Layer stage2_2/branch2a
I1025 13:37:11.023713 13552 net.cpp:434] stage2_2/branch2a <- stage2_1/concat_stage2_1/concat_0_split_1
I1025 13:37:11.023718 13552 net.cpp:408] stage2_2/branch2a -> stage2_2/branch2a
I1025 13:37:11.027091 13552 net.cpp:150] Setting up stage2_2/branch2a
I1025 13:37:11.027119 13552 net.cpp:157] Top shape: 24 32 38 38 (1108992)
I1025 13:37:11.027122 13552 net.cpp:165] Memory required for data: 2464690592
I1025 13:37:11.027144 13552 layer_factory.hpp:77] Creating layer stage2_2/branch2a/bn
I1025 13:37:11.027153 13552 net.cpp:100] Creating Layer stage2_2/branch2a/bn
I1025 13:37:11.027156 13552 net.cpp:434] stage2_2/branch2a/bn <- stage2_2/branch2a
I1025 13:37:11.027161 13552 net.cpp:395] stage2_2/branch2a/bn -> stage2_2/branch2a (in-place)
I1025 13:37:11.027292 13552 net.cpp:150] Setting up stage2_2/branch2a/bn
I1025 13:37:11.027295 13552 net.cpp:157] Top shape: 24 32 38 38 (1108992)
I1025 13:37:11.027298 13552 net.cpp:165] Memory required for data: 2469126560
I1025 13:37:11.027302 13552 layer_factory.hpp:77] Creating layer stage2_2/branch2a/scale
I1025 13:37:11.027308 13552 net.cpp:100] Creating Layer stage2_2/branch2a/scale
I1025 13:37:11.027312 13552 net.cpp:434] stage2_2/branch2a/scale <- stage2_2/branch2a
I1025 13:37:11.027314 13552 net.cpp:395] stage2_2/branch2a/scale -> stage2_2/branch2a (in-place)
I1025 13:37:11.027341 13552 layer_factory.hpp:77] Creating layer stage2_2/branch2a/scale
I1025 13:37:11.027411 13552 net.cpp:150] Setting up stage2_2/branch2a/scale
I1025 13:37:11.027416 13552 net.cpp:157] Top shape: 24 32 38 38 (1108992)
I1025 13:37:11.027420 13552 net.cpp:165] Memory required for data: 2473562528
I1025 13:37:11.027422 13552 layer_factory.hpp:77] Creating layer stage2_2/branch2a/relu
I1025 13:37:11.027426 13552 net.cpp:100] Creating Layer stage2_2/branch2a/relu
I1025 13:37:11.027429 13552 net.cpp:434] stage2_2/branch2a/relu <- stage2_2/branch2a
I1025 13:37:11.027433 13552 net.cpp:395] stage2_2/branch2a/relu -> stage2_2/branch2a (in-place)
I1025 13:37:11.027822 13552 net.cpp:150] Setting up stage2_2/branch2a/relu
I1025 13:37:11.027829 13552 net.cpp:157] Top shape: 24 32 38 38 (1108992)
I1025 13:37:11.027832 13552 net.cpp:165] Memory required for data: 2477998496
I1025 13:37:11.027834 13552 layer_factory.hpp:77] Creating layer stage2_2/branch2b
I1025 13:37:11.027842 13552 net.cpp:100] Creating Layer stage2_2/branch2b
I1025 13:37:11.027845 13552 net.cpp:434] stage2_2/branch2b <- stage2_2/branch2a
I1025 13:37:11.027851 13552 net.cpp:408] stage2_2/branch2b -> stage2_2/branch2b
I1025 13:37:11.029255 13552 net.cpp:150] Setting up stage2_2/branch2b
I1025 13:37:11.029264 13552 net.cpp:157] Top shape: 24 16 38 38 (554496)
I1025 13:37:11.029266 13552 net.cpp:165] Memory required for data: 2480216480
I1025 13:37:11.029270 13552 layer_factory.hpp:77] Creating layer stage2_2/branch2b/bn
I1025 13:37:11.029292 13552 net.cpp:100] Creating Layer stage2_2/branch2b/bn
I1025 13:37:11.029295 13552 net.cpp:434] stage2_2/branch2b/bn <- stage2_2/branch2b
I1025 13:37:11.029299 13552 net.cpp:395] stage2_2/branch2b/bn -> stage2_2/branch2b (in-place)
I1025 13:37:11.029422 13552 net.cpp:150] Setting up stage2_2/branch2b/bn
I1025 13:37:11.029428 13552 net.cpp:157] Top shape: 24 16 38 38 (554496)
I1025 13:37:11.029430 13552 net.cpp:165] Memory required for data: 2482434464
I1025 13:37:11.029434 13552 layer_factory.hpp:77] Creating layer stage2_2/branch2b/scale
I1025 13:37:11.029439 13552 net.cpp:100] Creating Layer stage2_2/branch2b/scale
I1025 13:37:11.029443 13552 net.cpp:434] stage2_2/branch2b/scale <- stage2_2/branch2b
I1025 13:37:11.029445 13552 net.cpp:395] stage2_2/branch2b/scale -> stage2_2/branch2b (in-place)
I1025 13:37:11.029469 13552 layer_factory.hpp:77] Creating layer stage2_2/branch2b/scale
I1025 13:37:11.029539 13552 net.cpp:150] Setting up stage2_2/branch2b/scale
I1025 13:37:11.029544 13552 net.cpp:157] Top shape: 24 16 38 38 (554496)
I1025 13:37:11.029546 13552 net.cpp:165] Memory required for data: 2484652448
I1025 13:37:11.029551 13552 layer_factory.hpp:77] Creating layer stage2_2/branch2b/relu
I1025 13:37:11.029553 13552 net.cpp:100] Creating Layer stage2_2/branch2b/relu
I1025 13:37:11.029556 13552 net.cpp:434] stage2_2/branch2b/relu <- stage2_2/branch2b
I1025 13:37:11.029561 13552 net.cpp:395] stage2_2/branch2b/relu -> stage2_2/branch2b (in-place)
I1025 13:37:11.029935 13552 net.cpp:150] Setting up stage2_2/branch2b/relu
I1025 13:37:11.029944 13552 net.cpp:157] Top shape: 24 16 38 38 (554496)
I1025 13:37:11.029954 13552 net.cpp:165] Memory required for data: 2486870432
I1025 13:37:11.029958 13552 layer_factory.hpp:77] Creating layer stage2_2/branch2c
I1025 13:37:11.029964 13552 net.cpp:100] Creating Layer stage2_2/branch2c
I1025 13:37:11.029968 13552 net.cpp:434] stage2_2/branch2c <- stage2_2/branch2b
I1025 13:37:11.029971 13552 net.cpp:408] stage2_2/branch2c -> stage2_2/branch2c
I1025 13:37:11.032212 13552 net.cpp:150] Setting up stage2_2/branch2c
I1025 13:37:11.032222 13552 net.cpp:157] Top shape: 24 16 38 38 (554496)
I1025 13:37:11.032225 13552 net.cpp:165] Memory required for data: 2489088416
I1025 13:37:11.032229 13552 layer_factory.hpp:77] Creating layer stage2_2/branch2c/bn
I1025 13:37:11.032235 13552 net.cpp:100] Creating Layer stage2_2/branch2c/bn
I1025 13:37:11.032239 13552 net.cpp:434] stage2_2/branch2c/bn <- stage2_2/branch2c
I1025 13:37:11.032243 13552 net.cpp:395] stage2_2/branch2c/bn -> stage2_2/branch2c (in-place)
I1025 13:37:11.032367 13552 net.cpp:150] Setting up stage2_2/branch2c/bn
I1025 13:37:11.032372 13552 net.cpp:157] Top shape: 24 16 38 38 (554496)
I1025 13:37:11.032374 13552 net.cpp:165] Memory required for data: 2491306400
I1025 13:37:11.032378 13552 layer_factory.hpp:77] Creating layer stage2_2/branch2c/scale
I1025 13:37:11.032383 13552 net.cpp:100] Creating Layer stage2_2/branch2c/scale
I1025 13:37:11.032387 13552 net.cpp:434] stage2_2/branch2c/scale <- stage2_2/branch2c
I1025 13:37:11.032390 13552 net.cpp:395] stage2_2/branch2c/scale -> stage2_2/branch2c (in-place)
I1025 13:37:11.032414 13552 layer_factory.hpp:77] Creating layer stage2_2/branch2c/scale
I1025 13:37:11.032482 13552 net.cpp:150] Setting up stage2_2/branch2c/scale
I1025 13:37:11.032487 13552 net.cpp:157] Top shape: 24 16 38 38 (554496)
I1025 13:37:11.032490 13552 net.cpp:165] Memory required for data: 2493524384
I1025 13:37:11.032492 13552 layer_factory.hpp:77] Creating layer stage2_2/branch2c/relu
I1025 13:37:11.032496 13552 net.cpp:100] Creating Layer stage2_2/branch2c/relu
I1025 13:37:11.032500 13552 net.cpp:434] stage2_2/branch2c/relu <- stage2_2/branch2c
I1025 13:37:11.032505 13552 net.cpp:395] stage2_2/branch2c/relu -> stage2_2/branch2c (in-place)
I1025 13:37:11.032789 13552 net.cpp:150] Setting up stage2_2/branch2c/relu
I1025 13:37:11.032796 13552 net.cpp:157] Top shape: 24 16 38 38 (554496)
I1025 13:37:11.032799 13552 net.cpp:165] Memory required for data: 2495742368
I1025 13:37:11.032802 13552 layer_factory.hpp:77] Creating layer stage2_2/concat
I1025 13:37:11.032806 13552 net.cpp:100] Creating Layer stage2_2/concat
I1025 13:37:11.032810 13552 net.cpp:434] stage2_2/concat <- stage2_1/concat_stage2_1/concat_0_split_2
I1025 13:37:11.032814 13552 net.cpp:434] stage2_2/concat <- stage2_2/branch1b
I1025 13:37:11.032816 13552 net.cpp:434] stage2_2/concat <- stage2_2/branch2c
I1025 13:37:11.032820 13552 net.cpp:408] stage2_2/concat -> stage2_2/concat
I1025 13:37:11.032838 13552 net.cpp:150] Setting up stage2_2/concat
I1025 13:37:11.032843 13552 net.cpp:157] Top shape: 24 192 38 38 (6653952)
I1025 13:37:11.032845 13552 net.cpp:165] Memory required for data: 2522358176
I1025 13:37:11.032847 13552 layer_factory.hpp:77] Creating layer stage2_2/concat_stage2_2/concat_0_split
I1025 13:37:11.032851 13552 net.cpp:100] Creating Layer stage2_2/concat_stage2_2/concat_0_split
I1025 13:37:11.032855 13552 net.cpp:434] stage2_2/concat_stage2_2/concat_0_split <- stage2_2/concat
I1025 13:37:11.032858 13552 net.cpp:408] stage2_2/concat_stage2_2/concat_0_split -> stage2_2/concat_stage2_2/concat_0_split_0
I1025 13:37:11.032872 13552 net.cpp:408] stage2_2/concat_stage2_2/concat_0_split -> stage2_2/concat_stage2_2/concat_0_split_1
I1025 13:37:11.032877 13552 net.cpp:408] stage2_2/concat_stage2_2/concat_0_split -> stage2_2/concat_stage2_2/concat_0_split_2
I1025 13:37:11.032904 13552 net.cpp:150] Setting up stage2_2/concat_stage2_2/concat_0_split
I1025 13:37:11.032909 13552 net.cpp:157] Top shape: 24 192 38 38 (6653952)
I1025 13:37:11.032914 13552 net.cpp:157] Top shape: 24 192 38 38 (6653952)
I1025 13:37:11.032929 13552 net.cpp:157] Top shape: 24 192 38 38 (6653952)
I1025 13:37:11.032932 13552 net.cpp:165] Memory required for data: 2602205600
I1025 13:37:11.032936 13552 layer_factory.hpp:77] Creating layer stage2_3/branch1a
I1025 13:37:11.032945 13552 net.cpp:100] Creating Layer stage2_3/branch1a
I1025 13:37:11.032950 13552 net.cpp:434] stage2_3/branch1a <- stage2_2/concat_stage2_2/concat_0_split_0
I1025 13:37:11.032955 13552 net.cpp:408] stage2_3/branch1a -> stage2_3/branch1a
I1025 13:37:11.034451 13552 net.cpp:150] Setting up stage2_3/branch1a
I1025 13:37:11.034461 13552 net.cpp:157] Top shape: 24 32 38 38 (1108992)
I1025 13:37:11.034466 13552 net.cpp:165] Memory required for data: 2606641568
I1025 13:37:11.034471 13552 layer_factory.hpp:77] Creating layer stage2_3/branch1a/bn
I1025 13:37:11.034478 13552 net.cpp:100] Creating Layer stage2_3/branch1a/bn
I1025 13:37:11.034483 13552 net.cpp:434] stage2_3/branch1a/bn <- stage2_3/branch1a
I1025 13:37:11.034489 13552 net.cpp:395] stage2_3/branch1a/bn -> stage2_3/branch1a (in-place)
I1025 13:37:11.034621 13552 net.cpp:150] Setting up stage2_3/branch1a/bn
I1025 13:37:11.034627 13552 net.cpp:157] Top shape: 24 32 38 38 (1108992)
I1025 13:37:11.034629 13552 net.cpp:165] Memory required for data: 2611077536
I1025 13:37:11.034636 13552 layer_factory.hpp:77] Creating layer stage2_3/branch1a/scale
I1025 13:37:11.034641 13552 net.cpp:100] Creating Layer stage2_3/branch1a/scale
I1025 13:37:11.034646 13552 net.cpp:434] stage2_3/branch1a/scale <- stage2_3/branch1a
I1025 13:37:11.034651 13552 net.cpp:395] stage2_3/branch1a/scale -> stage2_3/branch1a (in-place)
I1025 13:37:11.034679 13552 layer_factory.hpp:77] Creating layer stage2_3/branch1a/scale
I1025 13:37:11.034749 13552 net.cpp:150] Setting up stage2_3/branch1a/scale
I1025 13:37:11.034754 13552 net.cpp:157] Top shape: 24 32 38 38 (1108992)
I1025 13:37:11.034756 13552 net.cpp:165] Memory required for data: 2615513504
I1025 13:37:11.034762 13552 layer_factory.hpp:77] Creating layer stage2_3/branch1a/relu
I1025 13:37:11.034767 13552 net.cpp:100] Creating Layer stage2_3/branch1a/relu
I1025 13:37:11.034771 13552 net.cpp:434] stage2_3/branch1a/relu <- stage2_3/branch1a
I1025 13:37:11.034777 13552 net.cpp:395] stage2_3/branch1a/relu -> stage2_3/branch1a (in-place)
I1025 13:37:11.035156 13552 net.cpp:150] Setting up stage2_3/branch1a/relu
I1025 13:37:11.035164 13552 net.cpp:157] Top shape: 24 32 38 38 (1108992)
I1025 13:37:11.035167 13552 net.cpp:165] Memory required for data: 2619949472
I1025 13:37:11.035169 13552 layer_factory.hpp:77] Creating layer stage2_3/branch1b
I1025 13:37:11.035176 13552 net.cpp:100] Creating Layer stage2_3/branch1b
I1025 13:37:11.035179 13552 net.cpp:434] stage2_3/branch1b <- stage2_3/branch1a
I1025 13:37:11.035185 13552 net.cpp:408] stage2_3/branch1b -> stage2_3/branch1b
I1025 13:37:11.036571 13552 net.cpp:150] Setting up stage2_3/branch1b
I1025 13:37:11.036581 13552 net.cpp:157] Top shape: 24 16 38 38 (554496)
I1025 13:37:11.036583 13552 net.cpp:165] Memory required for data: 2622167456
I1025 13:37:11.036586 13552 layer_factory.hpp:77] Creating layer stage2_3/branch1b/bn
I1025 13:37:11.036592 13552 net.cpp:100] Creating Layer stage2_3/branch1b/bn
I1025 13:37:11.036595 13552 net.cpp:434] stage2_3/branch1b/bn <- stage2_3/branch1b
I1025 13:37:11.036600 13552 net.cpp:395] stage2_3/branch1b/bn -> stage2_3/branch1b (in-place)
I1025 13:37:11.036718 13552 net.cpp:150] Setting up stage2_3/branch1b/bn
I1025 13:37:11.036722 13552 net.cpp:157] Top shape: 24 16 38 38 (554496)
I1025 13:37:11.036725 13552 net.cpp:165] Memory required for data: 2624385440
I1025 13:37:11.036729 13552 layer_factory.hpp:77] Creating layer stage2_3/branch1b/scale
I1025 13:37:11.036734 13552 net.cpp:100] Creating Layer stage2_3/branch1b/scale
I1025 13:37:11.036737 13552 net.cpp:434] stage2_3/branch1b/scale <- stage2_3/branch1b
I1025 13:37:11.036741 13552 net.cpp:395] stage2_3/branch1b/scale -> stage2_3/branch1b (in-place)
I1025 13:37:11.036763 13552 layer_factory.hpp:77] Creating layer stage2_3/branch1b/scale
I1025 13:37:11.036830 13552 net.cpp:150] Setting up stage2_3/branch1b/scale
I1025 13:37:11.036844 13552 net.cpp:157] Top shape: 24 16 38 38 (554496)
I1025 13:37:11.036845 13552 net.cpp:165] Memory required for data: 2626603424
I1025 13:37:11.036850 13552 layer_factory.hpp:77] Creating layer stage2_3/branch1b/relu
I1025 13:37:11.036855 13552 net.cpp:100] Creating Layer stage2_3/branch1b/relu
I1025 13:37:11.036859 13552 net.cpp:434] stage2_3/branch1b/relu <- stage2_3/branch1b
I1025 13:37:11.036862 13552 net.cpp:395] stage2_3/branch1b/relu -> stage2_3/branch1b (in-place)
I1025 13:37:11.037238 13552 net.cpp:150] Setting up stage2_3/branch1b/relu
I1025 13:37:11.037246 13552 net.cpp:157] Top shape: 24 16 38 38 (554496)
I1025 13:37:11.037248 13552 net.cpp:165] Memory required for data: 2628821408
I1025 13:37:11.037251 13552 layer_factory.hpp:77] Creating layer stage2_3/branch2a
I1025 13:37:11.037259 13552 net.cpp:100] Creating Layer stage2_3/branch2a
I1025 13:37:11.037262 13552 net.cpp:434] stage2_3/branch2a <- stage2_2/concat_stage2_2/concat_0_split_1
I1025 13:37:11.037267 13552 net.cpp:408] stage2_3/branch2a -> stage2_3/branch2a
I1025 13:37:11.039508 13552 net.cpp:150] Setting up stage2_3/branch2a
I1025 13:37:11.039521 13552 net.cpp:157] Top shape: 24 32 38 38 (1108992)
I1025 13:37:11.039525 13552 net.cpp:165] Memory required for data: 2633257376
I1025 13:37:11.039528 13552 layer_factory.hpp:77] Creating layer stage2_3/branch2a/bn
I1025 13:37:11.039533 13552 net.cpp:100] Creating Layer stage2_3/branch2a/bn
I1025 13:37:11.039538 13552 net.cpp:434] stage2_3/branch2a/bn <- stage2_3/branch2a
I1025 13:37:11.039543 13552 net.cpp:395] stage2_3/branch2a/bn -> stage2_3/branch2a (in-place)
I1025 13:37:11.039666 13552 net.cpp:150] Setting up stage2_3/branch2a/bn
I1025 13:37:11.039670 13552 net.cpp:157] Top shape: 24 32 38 38 (1108992)
I1025 13:37:11.039676 13552 net.cpp:165] Memory required for data: 2637693344
I1025 13:37:11.039681 13552 layer_factory.hpp:77] Creating layer stage2_3/branch2a/scale
I1025 13:37:11.039686 13552 net.cpp:100] Creating Layer stage2_3/branch2a/scale
I1025 13:37:11.039688 13552 net.cpp:434] stage2_3/branch2a/scale <- stage2_3/branch2a
I1025 13:37:11.039691 13552 net.cpp:395] stage2_3/branch2a/scale -> stage2_3/branch2a (in-place)
I1025 13:37:11.039716 13552 layer_factory.hpp:77] Creating layer stage2_3/branch2a/scale
I1025 13:37:11.039783 13552 net.cpp:150] Setting up stage2_3/branch2a/scale
I1025 13:37:11.039788 13552 net.cpp:157] Top shape: 24 32 38 38 (1108992)
I1025 13:37:11.039790 13552 net.cpp:165] Memory required for data: 2642129312
I1025 13:37:11.039794 13552 layer_factory.hpp:77] Creating layer stage2_3/branch2a/relu
I1025 13:37:11.039800 13552 net.cpp:100] Creating Layer stage2_3/branch2a/relu
I1025 13:37:11.039803 13552 net.cpp:434] stage2_3/branch2a/relu <- stage2_3/branch2a
I1025 13:37:11.039806 13552 net.cpp:395] stage2_3/branch2a/relu -> stage2_3/branch2a (in-place)
I1025 13:37:11.040182 13552 net.cpp:150] Setting up stage2_3/branch2a/relu
I1025 13:37:11.040190 13552 net.cpp:157] Top shape: 24 32 38 38 (1108992)
I1025 13:37:11.040192 13552 net.cpp:165] Memory required for data: 2646565280
I1025 13:37:11.040195 13552 layer_factory.hpp:77] Creating layer stage2_3/branch2b
I1025 13:37:11.040202 13552 net.cpp:100] Creating Layer stage2_3/branch2b
I1025 13:37:11.040205 13552 net.cpp:434] stage2_3/branch2b <- stage2_3/branch2a
I1025 13:37:11.040210 13552 net.cpp:408] stage2_3/branch2b -> stage2_3/branch2b
I1025 13:37:11.041666 13552 net.cpp:150] Setting up stage2_3/branch2b
I1025 13:37:11.041676 13552 net.cpp:157] Top shape: 24 16 38 38 (554496)
I1025 13:37:11.041678 13552 net.cpp:165] Memory required for data: 2648783264
I1025 13:37:11.041682 13552 layer_factory.hpp:77] Creating layer stage2_3/branch2b/bn
I1025 13:37:11.041687 13552 net.cpp:100] Creating Layer stage2_3/branch2b/bn
I1025 13:37:11.041689 13552 net.cpp:434] stage2_3/branch2b/bn <- stage2_3/branch2b
I1025 13:37:11.041693 13552 net.cpp:395] stage2_3/branch2b/bn -> stage2_3/branch2b (in-place)
I1025 13:37:11.041815 13552 net.cpp:150] Setting up stage2_3/branch2b/bn
I1025 13:37:11.041831 13552 net.cpp:157] Top shape: 24 16 38 38 (554496)
I1025 13:37:11.041832 13552 net.cpp:165] Memory required for data: 2651001248
I1025 13:37:11.041837 13552 layer_factory.hpp:77] Creating layer stage2_3/branch2b/scale
I1025 13:37:11.041841 13552 net.cpp:100] Creating Layer stage2_3/branch2b/scale
I1025 13:37:11.041844 13552 net.cpp:434] stage2_3/branch2b/scale <- stage2_3/branch2b
I1025 13:37:11.041848 13552 net.cpp:395] stage2_3/branch2b/scale -> stage2_3/branch2b (in-place)
I1025 13:37:11.041872 13552 layer_factory.hpp:77] Creating layer stage2_3/branch2b/scale
I1025 13:37:11.041941 13552 net.cpp:150] Setting up stage2_3/branch2b/scale
I1025 13:37:11.041946 13552 net.cpp:157] Top shape: 24 16 38 38 (554496)
I1025 13:37:11.041949 13552 net.cpp:165] Memory required for data: 2653219232
I1025 13:37:11.041952 13552 layer_factory.hpp:77] Creating layer stage2_3/branch2b/relu
I1025 13:37:11.041955 13552 net.cpp:100] Creating Layer stage2_3/branch2b/relu
I1025 13:37:11.041959 13552 net.cpp:434] stage2_3/branch2b/relu <- stage2_3/branch2b
I1025 13:37:11.041961 13552 net.cpp:395] stage2_3/branch2b/relu -> stage2_3/branch2b (in-place)
I1025 13:37:11.042348 13552 net.cpp:150] Setting up stage2_3/branch2b/relu
I1025 13:37:11.042356 13552 net.cpp:157] Top shape: 24 16 38 38 (554496)
I1025 13:37:11.042358 13552 net.cpp:165] Memory required for data: 2655437216
I1025 13:37:11.042361 13552 layer_factory.hpp:77] Creating layer stage2_3/branch2c
I1025 13:37:11.042368 13552 net.cpp:100] Creating Layer stage2_3/branch2c
I1025 13:37:11.042372 13552 net.cpp:434] stage2_3/branch2c <- stage2_3/branch2b
I1025 13:37:11.042376 13552 net.cpp:408] stage2_3/branch2c -> stage2_3/branch2c
I1025 13:37:11.045357 13552 net.cpp:150] Setting up stage2_3/branch2c
I1025 13:37:11.045372 13552 net.cpp:157] Top shape: 24 16 38 38 (554496)
I1025 13:37:11.045373 13552 net.cpp:165] Memory required for data: 2657655200
I1025 13:37:11.045377 13552 layer_factory.hpp:77] Creating layer stage2_3/branch2c/bn
I1025 13:37:11.045382 13552 net.cpp:100] Creating Layer stage2_3/branch2c/bn
I1025 13:37:11.045387 13552 net.cpp:434] stage2_3/branch2c/bn <- stage2_3/branch2c
I1025 13:37:11.045390 13552 net.cpp:395] stage2_3/branch2c/bn -> stage2_3/branch2c (in-place)
I1025 13:37:11.045514 13552 net.cpp:150] Setting up stage2_3/branch2c/bn
I1025 13:37:11.045518 13552 net.cpp:157] Top shape: 24 16 38 38 (554496)
I1025 13:37:11.045521 13552 net.cpp:165] Memory required for data: 2659873184
I1025 13:37:11.045526 13552 layer_factory.hpp:77] Creating layer stage2_3/branch2c/scale
I1025 13:37:11.045531 13552 net.cpp:100] Creating Layer stage2_3/branch2c/scale
I1025 13:37:11.045533 13552 net.cpp:434] stage2_3/branch2c/scale <- stage2_3/branch2c
I1025 13:37:11.045537 13552 net.cpp:395] stage2_3/branch2c/scale -> stage2_3/branch2c (in-place)
I1025 13:37:11.045560 13552 layer_factory.hpp:77] Creating layer stage2_3/branch2c/scale
I1025 13:37:11.045629 13552 net.cpp:150] Setting up stage2_3/branch2c/scale
I1025 13:37:11.045634 13552 net.cpp:157] Top shape: 24 16 38 38 (554496)
I1025 13:37:11.045636 13552 net.cpp:165] Memory required for data: 2662091168
I1025 13:37:11.045640 13552 layer_factory.hpp:77] Creating layer stage2_3/branch2c/relu
I1025 13:37:11.045644 13552 net.cpp:100] Creating Layer stage2_3/branch2c/relu
I1025 13:37:11.045647 13552 net.cpp:434] stage2_3/branch2c/relu <- stage2_3/branch2c
I1025 13:37:11.045652 13552 net.cpp:395] stage2_3/branch2c/relu -> stage2_3/branch2c (in-place)
I1025 13:37:11.045943 13552 net.cpp:150] Setting up stage2_3/branch2c/relu
I1025 13:37:11.045949 13552 net.cpp:157] Top shape: 24 16 38 38 (554496)
I1025 13:37:11.045951 13552 net.cpp:165] Memory required for data: 2664309152
I1025 13:37:11.045954 13552 layer_factory.hpp:77] Creating layer stage2_3/concat
I1025 13:37:11.045958 13552 net.cpp:100] Creating Layer stage2_3/concat
I1025 13:37:11.045961 13552 net.cpp:434] stage2_3/concat <- stage2_2/concat_stage2_2/concat_0_split_2
I1025 13:37:11.045964 13552 net.cpp:434] stage2_3/concat <- stage2_3/branch1b
I1025 13:37:11.045967 13552 net.cpp:434] stage2_3/concat <- stage2_3/branch2c
I1025 13:37:11.045982 13552 net.cpp:408] stage2_3/concat -> stage2_3/concat
I1025 13:37:11.046001 13552 net.cpp:150] Setting up stage2_3/concat
I1025 13:37:11.046006 13552 net.cpp:157] Top shape: 24 224 38 38 (7762944)
I1025 13:37:11.046008 13552 net.cpp:165] Memory required for data: 2695360928
I1025 13:37:11.046010 13552 layer_factory.hpp:77] Creating layer stage2_3/concat_stage2_3/concat_0_split
I1025 13:37:11.046015 13552 net.cpp:100] Creating Layer stage2_3/concat_stage2_3/concat_0_split
I1025 13:37:11.046016 13552 net.cpp:434] stage2_3/concat_stage2_3/concat_0_split <- stage2_3/concat
I1025 13:37:11.046022 13552 net.cpp:408] stage2_3/concat_stage2_3/concat_0_split -> stage2_3/concat_stage2_3/concat_0_split_0
I1025 13:37:11.046028 13552 net.cpp:408] stage2_3/concat_stage2_3/concat_0_split -> stage2_3/concat_stage2_3/concat_0_split_1
I1025 13:37:11.046033 13552 net.cpp:408] stage2_3/concat_stage2_3/concat_0_split -> stage2_3/concat_stage2_3/concat_0_split_2
I1025 13:37:11.046066 13552 net.cpp:150] Setting up stage2_3/concat_stage2_3/concat_0_split
I1025 13:37:11.046070 13552 net.cpp:157] Top shape: 24 224 38 38 (7762944)
I1025 13:37:11.046072 13552 net.cpp:157] Top shape: 24 224 38 38 (7762944)
I1025 13:37:11.046074 13552 net.cpp:157] Top shape: 24 224 38 38 (7762944)
I1025 13:37:11.046077 13552 net.cpp:165] Memory required for data: 2788516256
I1025 13:37:11.046079 13552 layer_factory.hpp:77] Creating layer stage2_4/branch1a
I1025 13:37:11.046087 13552 net.cpp:100] Creating Layer stage2_4/branch1a
I1025 13:37:11.046090 13552 net.cpp:434] stage2_4/branch1a <- stage2_3/concat_stage2_3/concat_0_split_0
I1025 13:37:11.046095 13552 net.cpp:408] stage2_4/branch1a -> stage2_4/branch1a
I1025 13:37:11.047646 13552 net.cpp:150] Setting up stage2_4/branch1a
I1025 13:37:11.047657 13552 net.cpp:157] Top shape: 24 32 38 38 (1108992)
I1025 13:37:11.047659 13552 net.cpp:165] Memory required for data: 2792952224
I1025 13:37:11.047665 13552 layer_factory.hpp:77] Creating layer stage2_4/branch1a/bn
I1025 13:37:11.047672 13552 net.cpp:100] Creating Layer stage2_4/branch1a/bn
I1025 13:37:11.047675 13552 net.cpp:434] stage2_4/branch1a/bn <- stage2_4/branch1a
I1025 13:37:11.047680 13552 net.cpp:395] stage2_4/branch1a/bn -> stage2_4/branch1a (in-place)
I1025 13:37:11.047811 13552 net.cpp:150] Setting up stage2_4/branch1a/bn
I1025 13:37:11.047816 13552 net.cpp:157] Top shape: 24 32 38 38 (1108992)
I1025 13:37:11.047817 13552 net.cpp:165] Memory required for data: 2797388192
I1025 13:37:11.047823 13552 layer_factory.hpp:77] Creating layer stage2_4/branch1a/scale
I1025 13:37:11.047829 13552 net.cpp:100] Creating Layer stage2_4/branch1a/scale
I1025 13:37:11.047834 13552 net.cpp:434] stage2_4/branch1a/scale <- stage2_4/branch1a
I1025 13:37:11.047838 13552 net.cpp:395] stage2_4/branch1a/scale -> stage2_4/branch1a (in-place)
I1025 13:37:11.047868 13552 layer_factory.hpp:77] Creating layer stage2_4/branch1a/scale
I1025 13:37:11.047937 13552 net.cpp:150] Setting up stage2_4/branch1a/scale
I1025 13:37:11.047943 13552 net.cpp:157] Top shape: 24 32 38 38 (1108992)
I1025 13:37:11.047945 13552 net.cpp:165] Memory required for data: 2801824160
I1025 13:37:11.047950 13552 layer_factory.hpp:77] Creating layer stage2_4/branch1a/relu
I1025 13:37:11.047955 13552 net.cpp:100] Creating Layer stage2_4/branch1a/relu
I1025 13:37:11.047960 13552 net.cpp:434] stage2_4/branch1a/relu <- stage2_4/branch1a
I1025 13:37:11.047966 13552 net.cpp:395] stage2_4/branch1a/relu -> stage2_4/branch1a (in-place)
I1025 13:37:11.048269 13552 net.cpp:150] Setting up stage2_4/branch1a/relu
I1025 13:37:11.048276 13552 net.cpp:157] Top shape: 24 32 38 38 (1108992)
I1025 13:37:11.048281 13552 net.cpp:165] Memory required for data: 2806260128
I1025 13:37:11.048285 13552 layer_factory.hpp:77] Creating layer stage2_4/branch1b
I1025 13:37:11.048293 13552 net.cpp:100] Creating Layer stage2_4/branch1b
I1025 13:37:11.048297 13552 net.cpp:434] stage2_4/branch1b <- stage2_4/branch1a
I1025 13:37:11.048305 13552 net.cpp:408] stage2_4/branch1b -> stage2_4/branch1b
I1025 13:37:11.049953 13552 net.cpp:150] Setting up stage2_4/branch1b
I1025 13:37:11.049963 13552 net.cpp:157] Top shape: 24 16 38 38 (554496)
I1025 13:37:11.049966 13552 net.cpp:165] Memory required for data: 2808478112
I1025 13:37:11.049971 13552 layer_factory.hpp:77] Creating layer stage2_4/branch1b/bn
I1025 13:37:11.049978 13552 net.cpp:100] Creating Layer stage2_4/branch1b/bn
I1025 13:37:11.049983 13552 net.cpp:434] stage2_4/branch1b/bn <- stage2_4/branch1b
I1025 13:37:11.049988 13552 net.cpp:395] stage2_4/branch1b/bn -> stage2_4/branch1b (in-place)
I1025 13:37:11.050113 13552 net.cpp:150] Setting up stage2_4/branch1b/bn
I1025 13:37:11.050118 13552 net.cpp:157] Top shape: 24 16 38 38 (554496)
I1025 13:37:11.050120 13552 net.cpp:165] Memory required for data: 2810696096
I1025 13:37:11.050124 13552 layer_factory.hpp:77] Creating layer stage2_4/branch1b/scale
I1025 13:37:11.050129 13552 net.cpp:100] Creating Layer stage2_4/branch1b/scale
I1025 13:37:11.050132 13552 net.cpp:434] stage2_4/branch1b/scale <- stage2_4/branch1b
I1025 13:37:11.050137 13552 net.cpp:395] stage2_4/branch1b/scale -> stage2_4/branch1b (in-place)
I1025 13:37:11.050163 13552 layer_factory.hpp:77] Creating layer stage2_4/branch1b/scale
I1025 13:37:11.050233 13552 net.cpp:150] Setting up stage2_4/branch1b/scale
I1025 13:37:11.050237 13552 net.cpp:157] Top shape: 24 16 38 38 (554496)
I1025 13:37:11.050240 13552 net.cpp:165] Memory required for data: 2812914080
I1025 13:37:11.050243 13552 layer_factory.hpp:77] Creating layer stage2_4/branch1b/relu
I1025 13:37:11.050247 13552 net.cpp:100] Creating Layer stage2_4/branch1b/relu
I1025 13:37:11.050249 13552 net.cpp:434] stage2_4/branch1b/relu <- stage2_4/branch1b
I1025 13:37:11.050253 13552 net.cpp:395] stage2_4/branch1b/relu -> stage2_4/branch1b (in-place)
I1025 13:37:11.051213 13552 net.cpp:150] Setting up stage2_4/branch1b/relu
I1025 13:37:11.051223 13552 net.cpp:157] Top shape: 24 16 38 38 (554496)
I1025 13:37:11.051226 13552 net.cpp:165] Memory required for data: 2815132064
I1025 13:37:11.051229 13552 layer_factory.hpp:77] Creating layer stage2_4/branch2a
I1025 13:37:11.051235 13552 net.cpp:100] Creating Layer stage2_4/branch2a
I1025 13:37:11.051239 13552 net.cpp:434] stage2_4/branch2a <- stage2_3/concat_stage2_3/concat_0_split_1
I1025 13:37:11.051244 13552 net.cpp:408] stage2_4/branch2a -> stage2_4/branch2a
I1025 13:37:11.053628 13552 net.cpp:150] Setting up stage2_4/branch2a
I1025 13:37:11.053643 13552 net.cpp:157] Top shape: 24 32 38 38 (1108992)
I1025 13:37:11.053647 13552 net.cpp:165] Memory required for data: 2819568032
I1025 13:37:11.053653 13552 layer_factory.hpp:77] Creating layer stage2_4/branch2a/bn
I1025 13:37:11.053658 13552 net.cpp:100] Creating Layer stage2_4/branch2a/bn
I1025 13:37:11.053661 13552 net.cpp:434] stage2_4/branch2a/bn <- stage2_4/branch2a
I1025 13:37:11.053668 13552 net.cpp:395] stage2_4/branch2a/bn -> stage2_4/branch2a (in-place)
I1025 13:37:11.053802 13552 net.cpp:150] Setting up stage2_4/branch2a/bn
I1025 13:37:11.053807 13552 net.cpp:157] Top shape: 24 32 38 38 (1108992)
I1025 13:37:11.053808 13552 net.cpp:165] Memory required for data: 2824004000
I1025 13:37:11.053813 13552 layer_factory.hpp:77] Creating layer stage2_4/branch2a/scale
I1025 13:37:11.053819 13552 net.cpp:100] Creating Layer stage2_4/branch2a/scale
I1025 13:37:11.053822 13552 net.cpp:434] stage2_4/branch2a/scale <- stage2_4/branch2a
I1025 13:37:11.053825 13552 net.cpp:395] stage2_4/branch2a/scale -> stage2_4/branch2a (in-place)
I1025 13:37:11.053853 13552 layer_factory.hpp:77] Creating layer stage2_4/branch2a/scale
I1025 13:37:11.053922 13552 net.cpp:150] Setting up stage2_4/branch2a/scale
I1025 13:37:11.053927 13552 net.cpp:157] Top shape: 24 32 38 38 (1108992)
I1025 13:37:11.053930 13552 net.cpp:165] Memory required for data: 2828439968
I1025 13:37:11.053933 13552 layer_factory.hpp:77] Creating layer stage2_4/branch2a/relu
I1025 13:37:11.053937 13552 net.cpp:100] Creating Layer stage2_4/branch2a/relu
I1025 13:37:11.053941 13552 net.cpp:434] stage2_4/branch2a/relu <- stage2_4/branch2a
I1025 13:37:11.053956 13552 net.cpp:395] stage2_4/branch2a/relu -> stage2_4/branch2a (in-place)
I1025 13:37:11.054342 13552 net.cpp:150] Setting up stage2_4/branch2a/relu
I1025 13:37:11.054350 13552 net.cpp:157] Top shape: 24 32 38 38 (1108992)
I1025 13:37:11.054352 13552 net.cpp:165] Memory required for data: 2832875936
I1025 13:37:11.054355 13552 layer_factory.hpp:77] Creating layer stage2_4/branch2b
I1025 13:37:11.054363 13552 net.cpp:100] Creating Layer stage2_4/branch2b
I1025 13:37:11.054366 13552 net.cpp:434] stage2_4/branch2b <- stage2_4/branch2a
I1025 13:37:11.054371 13552 net.cpp:408] stage2_4/branch2b -> stage2_4/branch2b
I1025 13:37:11.056013 13552 net.cpp:150] Setting up stage2_4/branch2b
I1025 13:37:11.056022 13552 net.cpp:157] Top shape: 24 16 38 38 (554496)
I1025 13:37:11.056025 13552 net.cpp:165] Memory required for data: 2835093920
I1025 13:37:11.056030 13552 layer_factory.hpp:77] Creating layer stage2_4/branch2b/bn
I1025 13:37:11.056035 13552 net.cpp:100] Creating Layer stage2_4/branch2b/bn
I1025 13:37:11.056037 13552 net.cpp:434] stage2_4/branch2b/bn <- stage2_4/branch2b
I1025 13:37:11.056042 13552 net.cpp:395] stage2_4/branch2b/bn -> stage2_4/branch2b (in-place)
I1025 13:37:11.056169 13552 net.cpp:150] Setting up stage2_4/branch2b/bn
I1025 13:37:11.056174 13552 net.cpp:157] Top shape: 24 16 38 38 (554496)
I1025 13:37:11.056176 13552 net.cpp:165] Memory required for data: 2837311904
I1025 13:37:11.056181 13552 layer_factory.hpp:77] Creating layer stage2_4/branch2b/scale
I1025 13:37:11.056186 13552 net.cpp:100] Creating Layer stage2_4/branch2b/scale
I1025 13:37:11.056190 13552 net.cpp:434] stage2_4/branch2b/scale <- stage2_4/branch2b
I1025 13:37:11.056192 13552 net.cpp:395] stage2_4/branch2b/scale -> stage2_4/branch2b (in-place)
I1025 13:37:11.056218 13552 layer_factory.hpp:77] Creating layer stage2_4/branch2b/scale
I1025 13:37:11.056286 13552 net.cpp:150] Setting up stage2_4/branch2b/scale
I1025 13:37:11.056291 13552 net.cpp:157] Top shape: 24 16 38 38 (554496)
I1025 13:37:11.056293 13552 net.cpp:165] Memory required for data: 2839529888
I1025 13:37:11.056298 13552 layer_factory.hpp:77] Creating layer stage2_4/branch2b/relu
I1025 13:37:11.056303 13552 net.cpp:100] Creating Layer stage2_4/branch2b/relu
I1025 13:37:11.056304 13552 net.cpp:434] stage2_4/branch2b/relu <- stage2_4/branch2b
I1025 13:37:11.056308 13552 net.cpp:395] stage2_4/branch2b/relu -> stage2_4/branch2b (in-place)
I1025 13:37:11.056691 13552 net.cpp:150] Setting up stage2_4/branch2b/relu
I1025 13:37:11.056699 13552 net.cpp:157] Top shape: 24 16 38 38 (554496)
I1025 13:37:11.056701 13552 net.cpp:165] Memory required for data: 2841747872
I1025 13:37:11.056704 13552 layer_factory.hpp:77] Creating layer stage2_4/branch2c
I1025 13:37:11.056710 13552 net.cpp:100] Creating Layer stage2_4/branch2c
I1025 13:37:11.056713 13552 net.cpp:434] stage2_4/branch2c <- stage2_4/branch2b
I1025 13:37:11.056720 13552 net.cpp:408] stage2_4/branch2c -> stage2_4/branch2c
I1025 13:37:11.058192 13552 net.cpp:150] Setting up stage2_4/branch2c
I1025 13:37:11.058202 13552 net.cpp:157] Top shape: 24 16 38 38 (554496)
I1025 13:37:11.058204 13552 net.cpp:165] Memory required for data: 2843965856
I1025 13:37:11.058207 13552 layer_factory.hpp:77] Creating layer stage2_4/branch2c/bn
I1025 13:37:11.058212 13552 net.cpp:100] Creating Layer stage2_4/branch2c/bn
I1025 13:37:11.058215 13552 net.cpp:434] stage2_4/branch2c/bn <- stage2_4/branch2c
I1025 13:37:11.058220 13552 net.cpp:395] stage2_4/branch2c/bn -> stage2_4/branch2c (in-place)
I1025 13:37:11.058342 13552 net.cpp:150] Setting up stage2_4/branch2c/bn
I1025 13:37:11.058347 13552 net.cpp:157] Top shape: 24 16 38 38 (554496)
I1025 13:37:11.058349 13552 net.cpp:165] Memory required for data: 2846183840
I1025 13:37:11.058354 13552 layer_factory.hpp:77] Creating layer stage2_4/branch2c/scale
I1025 13:37:11.058357 13552 net.cpp:100] Creating Layer stage2_4/branch2c/scale
I1025 13:37:11.058359 13552 net.cpp:434] stage2_4/branch2c/scale <- stage2_4/branch2c
I1025 13:37:11.058363 13552 net.cpp:395] stage2_4/branch2c/scale -> stage2_4/branch2c (in-place)
I1025 13:37:11.058396 13552 layer_factory.hpp:77] Creating layer stage2_4/branch2c/scale
I1025 13:37:11.058465 13552 net.cpp:150] Setting up stage2_4/branch2c/scale
I1025 13:37:11.058468 13552 net.cpp:157] Top shape: 24 16 38 38 (554496)
I1025 13:37:11.058470 13552 net.cpp:165] Memory required for data: 2848401824
I1025 13:37:11.058475 13552 layer_factory.hpp:77] Creating layer stage2_4/branch2c/relu
I1025 13:37:11.058478 13552 net.cpp:100] Creating Layer stage2_4/branch2c/relu
I1025 13:37:11.058480 13552 net.cpp:434] stage2_4/branch2c/relu <- stage2_4/branch2c
I1025 13:37:11.058482 13552 net.cpp:395] stage2_4/branch2c/relu -> stage2_4/branch2c (in-place)
I1025 13:37:11.059983 13552 net.cpp:150] Setting up stage2_4/branch2c/relu
I1025 13:37:11.059991 13552 net.cpp:157] Top shape: 24 16 38 38 (554496)
I1025 13:37:11.059994 13552 net.cpp:165] Memory required for data: 2850619808
I1025 13:37:11.059996 13552 layer_factory.hpp:77] Creating layer stage2_4/concat
I1025 13:37:11.060003 13552 net.cpp:100] Creating Layer stage2_4/concat
I1025 13:37:11.060005 13552 net.cpp:434] stage2_4/concat <- stage2_3/concat_stage2_3/concat_0_split_2
I1025 13:37:11.060009 13552 net.cpp:434] stage2_4/concat <- stage2_4/branch1b
I1025 13:37:11.060011 13552 net.cpp:434] stage2_4/concat <- stage2_4/branch2c
I1025 13:37:11.060015 13552 net.cpp:408] stage2_4/concat -> stage2_4/concat
I1025 13:37:11.060039 13552 net.cpp:150] Setting up stage2_4/concat
I1025 13:37:11.060045 13552 net.cpp:157] Top shape: 24 256 38 38 (8871936)
I1025 13:37:11.060047 13552 net.cpp:165] Memory required for data: 2886107552
I1025 13:37:11.060050 13552 layer_factory.hpp:77] Creating layer stage2_tb
I1025 13:37:11.060055 13552 net.cpp:100] Creating Layer stage2_tb
I1025 13:37:11.060058 13552 net.cpp:434] stage2_tb <- stage2_4/concat
I1025 13:37:11.060062 13552 net.cpp:408] stage2_tb -> stage2_tb
I1025 13:37:11.061784 13552 net.cpp:150] Setting up stage2_tb
I1025 13:37:11.061794 13552 net.cpp:157] Top shape: 24 256 38 38 (8871936)
I1025 13:37:11.061795 13552 net.cpp:165] Memory required for data: 2921595296
I1025 13:37:11.061800 13552 layer_factory.hpp:77] Creating layer stage2_tb/bn
I1025 13:37:11.061803 13552 net.cpp:100] Creating Layer stage2_tb/bn
I1025 13:37:11.061806 13552 net.cpp:434] stage2_tb/bn <- stage2_tb
I1025 13:37:11.061810 13552 net.cpp:395] stage2_tb/bn -> stage2_tb (in-place)
I1025 13:37:11.061930 13552 net.cpp:150] Setting up stage2_tb/bn
I1025 13:37:11.061935 13552 net.cpp:157] Top shape: 24 256 38 38 (8871936)
I1025 13:37:11.061938 13552 net.cpp:165] Memory required for data: 2957083040
I1025 13:37:11.061942 13552 layer_factory.hpp:77] Creating layer stage2_tb/scale
I1025 13:37:11.061945 13552 net.cpp:100] Creating Layer stage2_tb/scale
I1025 13:37:11.061947 13552 net.cpp:434] stage2_tb/scale <- stage2_tb
I1025 13:37:11.061951 13552 net.cpp:395] stage2_tb/scale -> stage2_tb (in-place)
I1025 13:37:11.061975 13552 layer_factory.hpp:77] Creating layer stage2_tb/scale
I1025 13:37:11.062038 13552 net.cpp:150] Setting up stage2_tb/scale
I1025 13:37:11.062043 13552 net.cpp:157] Top shape: 24 256 38 38 (8871936)
I1025 13:37:11.062045 13552 net.cpp:165] Memory required for data: 2992570784
I1025 13:37:11.062049 13552 layer_factory.hpp:77] Creating layer stage2_tb/relu
I1025 13:37:11.062053 13552 net.cpp:100] Creating Layer stage2_tb/relu
I1025 13:37:11.062055 13552 net.cpp:434] stage2_tb/relu <- stage2_tb
I1025 13:37:11.062058 13552 net.cpp:395] stage2_tb/relu -> stage2_tb (in-place)
I1025 13:37:11.062347 13552 net.cpp:150] Setting up stage2_tb/relu
I1025 13:37:11.062355 13552 net.cpp:157] Top shape: 24 256 38 38 (8871936)
I1025 13:37:11.062357 13552 net.cpp:165] Memory required for data: 3028058528
I1025 13:37:11.062361 13552 layer_factory.hpp:77] Creating layer stage2_tb_stage2_tb/relu_0_split
I1025 13:37:11.062363 13552 net.cpp:100] Creating Layer stage2_tb_stage2_tb/relu_0_split
I1025 13:37:11.062366 13552 net.cpp:434] stage2_tb_stage2_tb/relu_0_split <- stage2_tb
I1025 13:37:11.062371 13552 net.cpp:408] stage2_tb_stage2_tb/relu_0_split -> stage2_tb_stage2_tb/relu_0_split_0
I1025 13:37:11.062386 13552 net.cpp:408] stage2_tb_stage2_tb/relu_0_split -> stage2_tb_stage2_tb/relu_0_split_1
I1025 13:37:11.062392 13552 net.cpp:408] stage2_tb_stage2_tb/relu_0_split -> stage2_tb_stage2_tb/relu_0_split_2
I1025 13:37:11.062431 13552 net.cpp:150] Setting up stage2_tb_stage2_tb/relu_0_split
I1025 13:37:11.062436 13552 net.cpp:157] Top shape: 24 256 38 38 (8871936)
I1025 13:37:11.062439 13552 net.cpp:157] Top shape: 24 256 38 38 (8871936)
I1025 13:37:11.062443 13552 net.cpp:157] Top shape: 24 256 38 38 (8871936)
I1025 13:37:11.062443 13552 net.cpp:165] Memory required for data: 3134521760
I1025 13:37:11.062445 13552 layer_factory.hpp:77] Creating layer stage4_tb/ext/pm1
I1025 13:37:11.062451 13552 net.cpp:100] Creating Layer stage4_tb/ext/pm1
I1025 13:37:11.062454 13552 net.cpp:434] stage4_tb/ext/pm1 <- stage2_tb_stage2_tb/relu_0_split_0
I1025 13:37:11.062458 13552 net.cpp:408] stage4_tb/ext/pm1 -> stage4_tb/ext/pm1
I1025 13:37:11.064159 13552 net.cpp:150] Setting up stage4_tb/ext/pm1
I1025 13:37:11.064167 13552 net.cpp:157] Top shape: 24 256 38 38 (8871936)
I1025 13:37:11.064170 13552 net.cpp:165] Memory required for data: 3170009504
I1025 13:37:11.064173 13552 layer_factory.hpp:77] Creating layer stage4_tb/ext/pm1/bn
I1025 13:37:11.064178 13552 net.cpp:100] Creating Layer stage4_tb/ext/pm1/bn
I1025 13:37:11.064182 13552 net.cpp:434] stage4_tb/ext/pm1/bn <- stage4_tb/ext/pm1
I1025 13:37:11.064185 13552 net.cpp:395] stage4_tb/ext/pm1/bn -> stage4_tb/ext/pm1 (in-place)
I1025 13:37:11.064306 13552 net.cpp:150] Setting up stage4_tb/ext/pm1/bn
I1025 13:37:11.064311 13552 net.cpp:157] Top shape: 24 256 38 38 (8871936)
I1025 13:37:11.064313 13552 net.cpp:165] Memory required for data: 3205497248
I1025 13:37:11.064318 13552 layer_factory.hpp:77] Creating layer stage4_tb/ext/pm1/scale
I1025 13:37:11.064323 13552 net.cpp:100] Creating Layer stage4_tb/ext/pm1/scale
I1025 13:37:11.064326 13552 net.cpp:434] stage4_tb/ext/pm1/scale <- stage4_tb/ext/pm1
I1025 13:37:11.064328 13552 net.cpp:395] stage4_tb/ext/pm1/scale -> stage4_tb/ext/pm1 (in-place)
I1025 13:37:11.064357 13552 layer_factory.hpp:77] Creating layer stage4_tb/ext/pm1/scale
I1025 13:37:11.064424 13552 net.cpp:150] Setting up stage4_tb/ext/pm1/scale
I1025 13:37:11.064429 13552 net.cpp:157] Top shape: 24 256 38 38 (8871936)
I1025 13:37:11.064431 13552 net.cpp:165] Memory required for data: 3240984992
I1025 13:37:11.064435 13552 layer_factory.hpp:77] Creating layer stage4_tb/ext/pm1/b2a
I1025 13:37:11.064441 13552 net.cpp:100] Creating Layer stage4_tb/ext/pm1/b2a
I1025 13:37:11.064443 13552 net.cpp:434] stage4_tb/ext/pm1/b2a <- stage2_tb_stage2_tb/relu_0_split_1
I1025 13:37:11.064450 13552 net.cpp:408] stage4_tb/ext/pm1/b2a -> stage4_tb/ext/pm1/b2a
I1025 13:37:11.067344 13552 net.cpp:150] Setting up stage4_tb/ext/pm1/b2a
I1025 13:37:11.067356 13552 net.cpp:157] Top shape: 24 128 38 38 (4435968)
I1025 13:37:11.067359 13552 net.cpp:165] Memory required for data: 3258728864
I1025 13:37:11.067364 13552 layer_factory.hpp:77] Creating layer stage4_tb/ext/pm1/b2a/bn
I1025 13:37:11.067374 13552 net.cpp:100] Creating Layer stage4_tb/ext/pm1/b2a/bn
I1025 13:37:11.067379 13552 net.cpp:434] stage4_tb/ext/pm1/b2a/bn <- stage4_tb/ext/pm1/b2a
I1025 13:37:11.067384 13552 net.cpp:395] stage4_tb/ext/pm1/b2a/bn -> stage4_tb/ext/pm1/b2a (in-place)
I1025 13:37:11.067508 13552 net.cpp:150] Setting up stage4_tb/ext/pm1/b2a/bn
I1025 13:37:11.067514 13552 net.cpp:157] Top shape: 24 128 38 38 (4435968)
I1025 13:37:11.067517 13552 net.cpp:165] Memory required for data: 3276472736
I1025 13:37:11.067524 13552 layer_factory.hpp:77] Creating layer stage4_tb/ext/pm1/b2a/scale
I1025 13:37:11.067530 13552 net.cpp:100] Creating Layer stage4_tb/ext/pm1/b2a/scale
I1025 13:37:11.067533 13552 net.cpp:434] stage4_tb/ext/pm1/b2a/scale <- stage4_tb/ext/pm1/b2a
I1025 13:37:11.067538 13552 net.cpp:395] stage4_tb/ext/pm1/b2a/scale -> stage4_tb/ext/pm1/b2a (in-place)
I1025 13:37:11.067565 13552 layer_factory.hpp:77] Creating layer stage4_tb/ext/pm1/b2a/scale
I1025 13:37:11.067633 13552 net.cpp:150] Setting up stage4_tb/ext/pm1/b2a/scale
I1025 13:37:11.067648 13552 net.cpp:157] Top shape: 24 128 38 38 (4435968)
I1025 13:37:11.067652 13552 net.cpp:165] Memory required for data: 3294216608
I1025 13:37:11.067673 13552 layer_factory.hpp:77] Creating layer stage4_tb/ext/pm1/b2a/relu
I1025 13:37:11.067678 13552 net.cpp:100] Creating Layer stage4_tb/ext/pm1/b2a/relu
I1025 13:37:11.067682 13552 net.cpp:434] stage4_tb/ext/pm1/b2a/relu <- stage4_tb/ext/pm1/b2a
I1025 13:37:11.067685 13552 net.cpp:395] stage4_tb/ext/pm1/b2a/relu -> stage4_tb/ext/pm1/b2a (in-place)
I1025 13:37:11.068076 13552 net.cpp:150] Setting up stage4_tb/ext/pm1/b2a/relu
I1025 13:37:11.068084 13552 net.cpp:157] Top shape: 24 128 38 38 (4435968)
I1025 13:37:11.068087 13552 net.cpp:165] Memory required for data: 3311960480
I1025 13:37:11.068089 13552 layer_factory.hpp:77] Creating layer stage4_tb/ext/pm1/b2b
I1025 13:37:11.068097 13552 net.cpp:100] Creating Layer stage4_tb/ext/pm1/b2b
I1025 13:37:11.068100 13552 net.cpp:434] stage4_tb/ext/pm1/b2b <- stage4_tb/ext/pm1/b2a
I1025 13:37:11.068105 13552 net.cpp:408] stage4_tb/ext/pm1/b2b -> stage4_tb/ext/pm1/b2b
I1025 13:37:11.070493 13552 net.cpp:150] Setting up stage4_tb/ext/pm1/b2b
I1025 13:37:11.070508 13552 net.cpp:157] Top shape: 24 128 38 38 (4435968)
I1025 13:37:11.070510 13552 net.cpp:165] Memory required for data: 3329704352
I1025 13:37:11.070515 13552 layer_factory.hpp:77] Creating layer stage4_tb/ext/pm1/b2b/bn
I1025 13:37:11.070521 13552 net.cpp:100] Creating Layer stage4_tb/ext/pm1/b2b/bn
I1025 13:37:11.070524 13552 net.cpp:434] stage4_tb/ext/pm1/b2b/bn <- stage4_tb/ext/pm1/b2b
I1025 13:37:11.070528 13552 net.cpp:395] stage4_tb/ext/pm1/b2b/bn -> stage4_tb/ext/pm1/b2b (in-place)
I1025 13:37:11.070672 13552 net.cpp:150] Setting up stage4_tb/ext/pm1/b2b/bn
I1025 13:37:11.070678 13552 net.cpp:157] Top shape: 24 128 38 38 (4435968)
I1025 13:37:11.070680 13552 net.cpp:165] Memory required for data: 3347448224
I1025 13:37:11.070685 13552 layer_factory.hpp:77] Creating layer stage4_tb/ext/pm1/b2b/scale
I1025 13:37:11.070690 13552 net.cpp:100] Creating Layer stage4_tb/ext/pm1/b2b/scale
I1025 13:37:11.070693 13552 net.cpp:434] stage4_tb/ext/pm1/b2b/scale <- stage4_tb/ext/pm1/b2b
I1025 13:37:11.070698 13552 net.cpp:395] stage4_tb/ext/pm1/b2b/scale -> stage4_tb/ext/pm1/b2b (in-place)
I1025 13:37:11.070726 13552 layer_factory.hpp:77] Creating layer stage4_tb/ext/pm1/b2b/scale
I1025 13:37:11.070794 13552 net.cpp:150] Setting up stage4_tb/ext/pm1/b2b/scale
I1025 13:37:11.070799 13552 net.cpp:157] Top shape: 24 128 38 38 (4435968)
I1025 13:37:11.070801 13552 net.cpp:165] Memory required for data: 3365192096
I1025 13:37:11.070806 13552 layer_factory.hpp:77] Creating layer stage4_tb/ext/pm1/b2b/relu
I1025 13:37:11.070809 13552 net.cpp:100] Creating Layer stage4_tb/ext/pm1/b2b/relu
I1025 13:37:11.070811 13552 net.cpp:434] stage4_tb/ext/pm1/b2b/relu <- stage4_tb/ext/pm1/b2b
I1025 13:37:11.070816 13552 net.cpp:395] stage4_tb/ext/pm1/b2b/relu -> stage4_tb/ext/pm1/b2b (in-place)
I1025 13:37:11.071220 13552 net.cpp:150] Setting up stage4_tb/ext/pm1/b2b/relu
I1025 13:37:11.071229 13552 net.cpp:157] Top shape: 24 128 38 38 (4435968)
I1025 13:37:11.071231 13552 net.cpp:165] Memory required for data: 3382935968
I1025 13:37:11.071233 13552 layer_factory.hpp:77] Creating layer stage4_tb/ext/pm1/b2c
I1025 13:37:11.071240 13552 net.cpp:100] Creating Layer stage4_tb/ext/pm1/b2c
I1025 13:37:11.071244 13552 net.cpp:434] stage4_tb/ext/pm1/b2c <- stage4_tb/ext/pm1/b2b
I1025 13:37:11.071247 13552 net.cpp:408] stage4_tb/ext/pm1/b2c -> stage4_tb/ext/pm1/b2c
I1025 13:37:11.073035 13552 net.cpp:150] Setting up stage4_tb/ext/pm1/b2c
I1025 13:37:11.073045 13552 net.cpp:157] Top shape: 24 256 38 38 (8871936)
I1025 13:37:11.073048 13552 net.cpp:165] Memory required for data: 3418423712
I1025 13:37:11.073053 13552 layer_factory.hpp:77] Creating layer stage4_tb/ext/pm1/b2c/bn
I1025 13:37:11.073060 13552 net.cpp:100] Creating Layer stage4_tb/ext/pm1/b2c/bn
I1025 13:37:11.073062 13552 net.cpp:434] stage4_tb/ext/pm1/b2c/bn <- stage4_tb/ext/pm1/b2c
I1025 13:37:11.073079 13552 net.cpp:395] stage4_tb/ext/pm1/b2c/bn -> stage4_tb/ext/pm1/b2c (in-place)
I1025 13:37:11.073199 13552 net.cpp:150] Setting up stage4_tb/ext/pm1/b2c/bn
I1025 13:37:11.073204 13552 net.cpp:157] Top shape: 24 256 38 38 (8871936)
I1025 13:37:11.073206 13552 net.cpp:165] Memory required for data: 3453911456
I1025 13:37:11.073211 13552 layer_factory.hpp:77] Creating layer stage4_tb/ext/pm1/b2c/scale
I1025 13:37:11.073216 13552 net.cpp:100] Creating Layer stage4_tb/ext/pm1/b2c/scale
I1025 13:37:11.073218 13552 net.cpp:434] stage4_tb/ext/pm1/b2c/scale <- stage4_tb/ext/pm1/b2c
I1025 13:37:11.073222 13552 net.cpp:395] stage4_tb/ext/pm1/b2c/scale -> stage4_tb/ext/pm1/b2c (in-place)
I1025 13:37:11.073249 13552 layer_factory.hpp:77] Creating layer stage4_tb/ext/pm1/b2c/scale
I1025 13:37:11.073314 13552 net.cpp:150] Setting up stage4_tb/ext/pm1/b2c/scale
I1025 13:37:11.073319 13552 net.cpp:157] Top shape: 24 256 38 38 (8871936)
I1025 13:37:11.073323 13552 net.cpp:165] Memory required for data: 3489399200
I1025 13:37:11.073326 13552 layer_factory.hpp:77] Creating layer stage4_tb/ext/pm1/res
I1025 13:37:11.073331 13552 net.cpp:100] Creating Layer stage4_tb/ext/pm1/res
I1025 13:37:11.073333 13552 net.cpp:434] stage4_tb/ext/pm1/res <- stage4_tb/ext/pm1
I1025 13:37:11.073336 13552 net.cpp:434] stage4_tb/ext/pm1/res <- stage4_tb/ext/pm1/b2c
I1025 13:37:11.073339 13552 net.cpp:408] stage4_tb/ext/pm1/res -> stage4_tb/ext/pm1/res
I1025 13:37:11.073362 13552 net.cpp:150] Setting up stage4_tb/ext/pm1/res
I1025 13:37:11.073367 13552 net.cpp:157] Top shape: 24 256 38 38 (8871936)
I1025 13:37:11.073369 13552 net.cpp:165] Memory required for data: 3524886944
…
I1025 13:37:11.954402 13552 net.cpp:150] Setting up stage4_tb/ext/pm5/b2a
I1025 13:37:11.954411 13552 net.cpp:157] Top shape: 1 128 3 3 (1152)
I1025 13:37:11.954414 13552 net.cpp:165] Memory required for data: 201377472
I1025 13:37:11.954417 13552 layer_factory.hpp:77] Creating layer stage4_tb/ext/pm5/b2a/bn
I1025 13:37:11.954422 13552 net.cpp:100] Creating Layer stage4_tb/ext/pm5/b2a/bn
I1025 13:37:11.954425 13552 net.cpp:434] stage4_tb/ext/pm5/b2a/bn <- stage4_tb/ext/pm5/b2a
I1025 13:37:11.954430 13552 net.cpp:395] stage4_tb/ext/pm5/b2a/bn -> stage4_tb/ext/pm5/b2a (in-place)
I1025 13:37:11.954557 13552 net.cpp:150] Setting up stage4_tb/ext/pm5/b2a/bn
I1025 13:37:11.954561 13552 net.cpp:157] Top shape: 1 128 3 3 (1152)
I1025 13:37:11.954563 13552 net.cpp:165] Memory required for data: 201382080
I1025 13:37:11.954568 13552 layer_factory.hpp:77] Creating layer stage4_tb/ext/pm5/b2a/scale
I1025 13:37:11.954573 13552 net.cpp:100] Creating Layer stage4_tb/ext/pm5/b2a/scale
I1025 13:37:11.954576 13552 net.cpp:434] stage4_tb/ext/pm5/b2a/scale <- stage4_tb/ext/pm5/b2a
I1025 13:37:11.954578 13552 net.cpp:395] stage4_tb/ext/pm5/b2a/scale -> stage4_tb/ext/pm5/b2a (in-place)
I1025 13:37:11.954610 13552 layer_factory.hpp:77] Creating layer stage4_tb/ext/pm5/b2a/scale
I1025 13:37:11.954684 13552 net.cpp:150] Setting up stage4_tb/ext/pm5/b2a/scale
I1025 13:37:11.954687 13552 net.cpp:157] Top shape: 1 128 3 3 (1152)
I1025 13:37:11.954689 13552 net.cpp:165] Memory required for data: 201386688
I1025 13:37:11.954694 13552 layer_factory.hpp:77] Creating layer stage4_tb/ext/pm5/b2a/relu
I1025 13:37:11.954696 13552 net.cpp:100] Creating Layer stage4_tb/ext/pm5/b2a/relu
I1025 13:37:11.954699 13552 net.cpp:434] stage4_tb/ext/pm5/b2a/relu <- stage4_tb/ext/pm5/b2a
I1025 13:37:11.954704 13552 net.cpp:395] stage4_tb/ext/pm5/b2a/relu -> stage4_tb/ext/pm5/b2a (in-place)
I1025 13:37:11.955111 13552 net.cpp:150] Setting up stage4_tb/ext/pm5/b2a/relu
I1025 13:37:11.955119 13552 net.cpp:157] Top shape: 1 128 3 3 (1152)
I1025 13:37:11.955122 13552 net.cpp:165] Memory required for data: 201391296
I1025 13:37:11.955124 13552 layer_factory.hpp:77] Creating layer stage4_tb/ext/pm5/b2b
I1025 13:37:11.955142 13552 net.cpp:100] Creating Layer stage4_tb/ext/pm5/b2b
I1025 13:37:11.955145 13552 net.cpp:434] stage4_tb/ext/pm5/b2b <- stage4_tb/ext/pm5/b2a
I1025 13:37:11.955149 13552 net.cpp:408] stage4_tb/ext/pm5/b2b -> stage4_tb/ext/pm5/b2b
I1025 13:37:11.959650 13552 net.cpp:150] Setting up stage4_tb/ext/pm5/b2b
I1025 13:37:11.959664 13552 net.cpp:157] Top shape: 1 128 3 3 (1152)
I1025 13:37:11.959667 13552 net.cpp:165] Memory required for data: 201395904
I1025 13:37:11.959671 13552 layer_factory.hpp:77] Creating layer stage4_tb/ext/pm5/b2b/bn
I1025 13:37:11.959676 13552 net.cpp:100] Creating Layer stage4_tb/ext/pm5/b2b/bn
I1025 13:37:11.959681 13552 net.cpp:434] stage4_tb/ext/pm5/b2b/bn <- stage4_tb/ext/pm5/b2b
I1025 13:37:11.959686 13552 net.cpp:395] stage4_tb/ext/pm5/b2b/bn -> stage4_tb/ext/pm5/b2b (in-place)
I1025 13:37:11.959821 13552 net.cpp:150] Setting up stage4_tb/ext/pm5/b2b/bn
I1025 13:37:11.959825 13552 net.cpp:157] Top shape: 1 128 3 3 (1152)
I1025 13:37:11.959828 13552 net.cpp:165] Memory required for data: 201400512
I1025 13:37:11.959832 13552 layer_factory.hpp:77] Creating layer stage4_tb/ext/pm5/b2b/scale
I1025 13:37:11.959837 13552 net.cpp:100] Creating Layer stage4_tb/ext/pm5/b2b/scale
I1025 13:37:11.959839 13552 net.cpp:434] stage4_tb/ext/pm5/b2b/scale <- stage4_tb/ext/pm5/b2b
I1025 13:37:11.959843 13552 net.cpp:395] stage4_tb/ext/pm5/b2b/scale -> stage4_tb/ext/pm5/b2b (in-place)
I1025 13:37:11.959868 13552 layer_factory.hpp:77] Creating layer stage4_tb/ext/pm5/b2b/scale
I1025 13:37:11.959942 13552 net.cpp:150] Setting up stage4_tb/ext/pm5/b2b/scale
I1025 13:37:11.959947 13552 net.cpp:157] Top shape: 1 128 3 3 (1152)
I1025 13:37:11.959949 13552 net.cpp:165] Memory required for data: 201405120
I1025 13:37:11.959952 13552 layer_factory.hpp:77] Creating layer stage4_tb/ext/pm5/b2b/relu
I1025 13:37:11.959956 13552 net.cpp:100] Creating Layer stage4_tb/ext/pm5/b2b/relu
I1025 13:37:11.959959 13552 net.cpp:434] stage4_tb/ext/pm5/b2b/relu <- stage4_tb/ext/pm5/b2b
I1025 13:37:11.959964 13552 net.cpp:395] stage4_tb/ext/pm5/b2b/relu -> stage4_tb/ext/pm5/b2b (in-place)
I1025 13:37:11.960378 13552 net.cpp:150] Setting up stage4_tb/ext/pm5/b2b/relu
I1025 13:37:11.960386 13552 net.cpp:157] Top shape: 1 128 3 3 (1152)
I1025 13:37:11.960388 13552 net.cpp:165] Memory required for data: 201409728
I1025 13:37:11.960391 13552 layer_factory.hpp:77] Creating layer stage4_tb/ext/pm5/b2c
I1025 13:37:11.960398 13552 net.cpp:100] Creating Layer stage4_tb/ext/pm5/b2c
I1025 13:37:11.960400 13552 net.cpp:434] stage4_tb/ext/pm5/b2c <- stage4_tb/ext/pm5/b2b
I1025 13:37:11.960407 13552 net.cpp:408] stage4_tb/ext/pm5/b2c -> stage4_tb/ext/pm5/b2c
I1025 13:37:11.962391 13552 net.cpp:150] Setting up stage4_tb/ext/pm5/b2c
I1025 13:37:11.962400 13552 net.cpp:157] Top shape: 1 256 3 3 (2304)
I1025 13:37:11.962402 13552 net.cpp:165] Memory required for data: 201418944
I1025 13:37:11.962406 13552 layer_factory.hpp:77] Creating layer stage4_tb/ext/pm5/b2c/bn
I1025 13:37:11.962411 13552 net.cpp:100] Creating Layer stage4_tb/ext/pm5/b2c/bn
I1025 13:37:11.962414 13552 net.cpp:434] stage4_tb/ext/pm5/b2c/bn <- stage4_tb/ext/pm5/b2c
I1025 13:37:11.962419 13552 net.cpp:395] stage4_tb/ext/pm5/b2c/bn -> stage4_tb/ext/pm5/b2c (in-place)
I1025 13:37:11.962548 13552 net.cpp:150] Setting up stage4_tb/ext/pm5/b2c/bn
I1025 13:37:11.962554 13552 net.cpp:157] Top shape: 1 256 3 3 (2304)
I1025 13:37:11.962556 13552 net.cpp:165] Memory required for data: 201428160
I1025 13:37:11.962560 13552 layer_factory.hpp:77] Creating layer stage4_tb/ext/pm5/b2c/scale
I1025 13:37:11.962564 13552 net.cpp:100] Creating Layer stage4_tb/ext/pm5/b2c/scale
I1025 13:37:11.962566 13552 net.cpp:434] stage4_tb/ext/pm5/b2c/scale <- stage4_tb/ext/pm5/b2c
I1025 13:37:11.962570 13552 net.cpp:395] stage4_tb/ext/pm5/b2c/scale -> stage4_tb/ext/pm5/b2c (in-place)
I1025 13:37:11.962600 13552 layer_factory.hpp:77] Creating layer stage4_tb/ext/pm5/b2c/scale
I1025 13:37:11.962673 13552 net.cpp:150] Setting up stage4_tb/ext/pm5/b2c/scale
I1025 13:37:11.962688 13552 net.cpp:157] Top shape: 1 256 3 3 (2304)
I1025 13:37:11.962690 13552 net.cpp:165] Memory required for data: 201437376
I1025 13:37:11.962693 13552 layer_factory.hpp:77] Creating layer stage4_tb/ext/pm5/res
I1025 13:37:11.962697 13552 net.cpp:100] Creating Layer stage4_tb/ext/pm5/res
I1025 13:37:11.962700 13552 net.cpp:434] stage4_tb/ext/pm5/res <- stage4_tb/ext/pm5
I1025 13:37:11.962703 13552 net.cpp:434] stage4_tb/ext/pm5/res <- stage4_tb/ext/pm5/b2c
I1025 13:37:11.962707 13552 net.cpp:408] stage4_tb/ext/pm5/res -> stage4_tb/ext/pm5/res
I1025 13:37:11.962723 13552 net.cpp:150] Setting up stage4_tb/ext/pm5/res
I1025 13:37:11.962728 13552 net.cpp:157] Top shape: 1 256 3 3 (2304)
I1025 13:37:11.962730 13552 net.cpp:165] Memory required for data: 201446592
I1025 13:37:11.962733 13552 layer_factory.hpp:77] Creating layer stage4_tb/ext/pm5/res/relu
I1025 13:37:11.962738 13552 net.cpp:100] Creating Layer stage4_tb/ext/pm5/res/relu
I1025 13:37:11.962741 13552 net.cpp:434] stage4_tb/ext/pm5/res/relu <- stage4_tb/ext/pm5/res
I1025 13:37:11.962744 13552 net.cpp:395] stage4_tb/ext/pm5/res/relu -> stage4_tb/ext/pm5/res (in-place)
I1025 13:37:11.963158 13552 net.cpp:150] Setting up stage4_tb/ext/pm5/res/relu
I1025 13:37:11.963166 13552 net.cpp:157] Top shape: 1 256 3 3 (2304)
I1025 13:37:11.963168 13552 net.cpp:165] Memory required for data: 201455808
I1025 13:37:11.963171 13552 layer_factory.hpp:77] Creating layer stage4_tb/ext/pm5/res_stage4_tb/ext/pm5/res/relu_0_split
I1025 13:37:11.963176 13552 net.cpp:100] Creating Layer stage4_tb/ext/pm5/res_stage4_tb/ext/pm5/res/relu_0_split
I1025 13:37:11.963177 13552 net.cpp:434] stage4_tb/ext/pm5/res_stage4_tb/ext/pm5/res/relu_0_split <- stage4_tb/ext/pm5/res
I1025 13:37:11.963182 13552 net.cpp:408] stage4_tb/ext/pm5/res_stage4_tb/ext/pm5/res/relu_0_split -> stage4_tb/ext/pm5/res_stage4_tb/ext/pm5/res/relu_0_split_0
I1025 13:37:11.963187 13552 net.cpp:408] stage4_tb/ext/pm5/res_stage4_tb/ext/pm5/res/relu_0_split -> stage4_tb/ext/pm5/res_stage4_tb/ext/pm5/res/relu_0_split_1
I1025 13:37:11.963192 13552 net.cpp:408] stage4_tb/ext/pm5/res_stage4_tb/ext/pm5/res/relu_0_split -> stage4_tb/ext/pm5/res_stage4_tb/ext/pm5/res/relu_0_split_2
I1025 13:37:11.963230 13552 net.cpp:150] Setting up stage4_tb/ext/pm5/res_stage4_tb/ext/pm5/res/relu_0_split
I1025 13:37:11.963235 13552 net.cpp:157] Top shape: 1 256 3 3 (2304)
I1025 13:37:11.963238 13552 net.cpp:157] Top shape: 1 256 3 3 (2304)
I1025 13:37:11.963240 13552 net.cpp:157] Top shape: 1 256 3 3 (2304)
I1025 13:37:11.963243 13552 net.cpp:165] Memory required for data: 201483456
I1025 13:37:11.963244 13552 layer_factory.hpp:77] Creating layer stage4_tb/ext/pm6
I1025 13:37:11.963250 13552 net.cpp:100] Creating Layer stage4_tb/ext/pm6
I1025 13:37:11.963253 13552 net.cpp:434] stage4_tb/ext/pm6 <- ext1/fe3_2_ext1/fe3_2/relu_0_split_0
I1025 13:37:11.963258 13552 net.cpp:408] stage4_tb/ext/pm6 -> stage4_tb/ext/pm6
I1025 13:37:11.967211 13552 net.cpp:150] Setting up stage4_tb/ext/pm6
I1025 13:37:11.967222 13552 net.cpp:157] Top shape: 1 256 1 1 (256)
I1025 13:37:11.967224 13552 net.cpp:165] Memory required for data: 201484480
I1025 13:37:11.967228 13552 layer_factory.hpp:77] Creating layer stage4_tb/ext/pm6/bn
I1025 13:37:11.967234 13552 net.cpp:100] Creating Layer stage4_tb/ext/pm6/bn
I1025 13:37:11.967237 13552 net.cpp:434] stage4_tb/ext/pm6/bn <- stage4_tb/ext/pm6
I1025 13:37:11.967242 13552 net.cpp:395] stage4_tb/ext/pm6/bn -> stage4_tb/ext/pm6 (in-place)
I1025 13:37:11.967367 13552 net.cpp:150] Setting up stage4_tb/ext/pm6/bn
I1025 13:37:11.967372 13552 net.cpp:157] Top shape: 1 256 1 1 (256)
I1025 13:37:11.967375 13552 net.cpp:165] Memory required for data: 201485504
I1025 13:37:11.967378 13552 layer_factory.hpp:77] Creating layer stage4_tb/ext/pm6/scale
I1025 13:37:11.967382 13552 net.cpp:100] Creating Layer stage4_tb/ext/pm6/scale
I1025 13:37:11.967386 13552 net.cpp:434] stage4_tb/ext/pm6/scale <- stage4_tb/ext/pm6
I1025 13:37:11.967389 13552 net.cpp:395] stage4_tb/ext/pm6/scale -> stage4_tb/ext/pm6 (in-place)
I1025 13:37:11.967425 13552 layer_factory.hpp:77] Creating layer stage4_tb/ext/pm6/scale
I1025 13:37:11.967495 13552 net.cpp:150] Setting up stage4_tb/ext/pm6/scale
I1025 13:37:11.967500 13552 net.cpp:157] Top shape: 1 256 1 1 (256)
I1025 13:37:11.967502 13552 net.cpp:165] Memory required for data: 201486528
I1025 13:37:11.967505 13552 layer_factory.hpp:77] Creating layer stage4_tb/ext/pm6/b2a
I1025 13:37:11.967511 13552 net.cpp:100] Creating Layer stage4_tb/ext/pm6/b2a
I1025 13:37:11.967515 13552 net.cpp:434] stage4_tb/ext/pm6/b2a <- ext1/fe3_2_ext1/fe3_2/relu_0_split_1
I1025 13:37:11.967519 13552 net.cpp:408] stage4_tb/ext/pm6/b2a -> stage4_tb/ext/pm6/b2a
I1025 13:37:11.969274 13552 net.cpp:150] Setting up stage4_tb/ext/pm6/b2a
I1025 13:37:11.969282 13552 net.cpp:157] Top shape: 1 128 1 1 (128)
I1025 13:37:11.969285 13552 net.cpp:165] Memory required for data: 201487040
I1025 13:37:11.969288 13552 layer_factory.hpp:77] Creating layer stage4_tb/ext/pm6/b2a/bn
I1025 13:37:11.969295 13552 net.cpp:100] Creating Layer stage4_tb/ext/pm6/b2a/bn
I1025 13:37:11.969297 13552 net.cpp:434] stage4_tb/ext/pm6/b2a/bn <- stage4_tb/ext/pm6/b2a
I1025 13:37:11.969301 13552 net.cpp:395] stage4_tb/ext/pm6/b2a/bn -> stage4_tb/ext/pm6/b2a (in-place)
I1025 13:37:11.969427 13552 net.cpp:150] Setting up stage4_tb/ext/pm6/b2a/bn
I1025 13:37:11.969431 13552 net.cpp:157] Top shape: 1 128 1 1 (128)
I1025 13:37:11.969434 13552 net.cpp:165] Memory required for data: 201487552
I1025 13:37:11.969439 13552 layer_factory.hpp:77] Creating layer stage4_tb/ext/pm6/b2a/scale
I1025 13:37:11.969442 13552 net.cpp:100] Creating Layer stage4_tb/ext/pm6/b2a/scale
I1025 13:37:11.969444 13552 net.cpp:434] stage4_tb/ext/pm6/b2a/scale <- stage4_tb/ext/pm6/b2a
I1025 13:37:11.969449 13552 net.cpp:395] stage4_tb/ext/pm6/b2a/scale -> stage4_tb/ext/pm6/b2a (in-place)
I1025 13:37:11.969475 13552 layer_factory.hpp:77] Creating layer stage4_tb/ext/pm6/b2a/scale
I1025 13:37:11.969540 13552 net.cpp:150] Setting up stage4_tb/ext/pm6/b2a/scale
I1025 13:37:11.969544 13552 net.cpp:157] Top shape: 1 128 1 1 (128)
I1025 13:37:11.969547 13552 net.cpp:165] Memory required for data: 201488064
I1025 13:37:11.969550 13552 layer_factory.hpp:77] Creating layer stage4_tb/ext/pm6/b2a/relu
I1025 13:37:11.969553 13552 net.cpp:100] Creating Layer stage4_tb/ext/pm6/b2a/relu
I1025 13:37:11.969555 13552 net.cpp:434] stage4_tb/ext/pm6/b2a/relu <- stage4_tb/ext/pm6/b2a
I1025 13:37:11.969558 13552 net.cpp:395] stage4_tb/ext/pm6/b2a/relu -> stage4_tb/ext/pm6/b2a (in-place)
I1025 13:37:11.969961 13552 net.cpp:150] Setting up stage4_tb/ext/pm6/b2a/relu
I1025 13:37:11.969969 13552 net.cpp:157] Top shape: 1 128 1 1 (128)
I1025 13:37:11.969971 13552 net.cpp:165] Memory required for data: 201488576
I1025 13:37:11.969974 13552 layer_factory.hpp:77] Creating layer stage4_tb/ext/pm6/b2b
I1025 13:37:11.969982 13552 net.cpp:100] Creating Layer stage4_tb/ext/pm6/b2b
I1025 13:37:11.969986 13552 net.cpp:434] stage4_tb/ext/pm6/b2b <- stage4_tb/ext/pm6/b2a
I1025 13:37:11.969990 13552 net.cpp:408] stage4_tb/ext/pm6/b2b -> stage4_tb/ext/pm6/b2b
I1025 13:37:11.973274 13552 net.cpp:150] Setting up stage4_tb/ext/pm6/b2b
I1025 13:37:11.973292 13552 net.cpp:157] Top shape: 1 128 1 1 (128)
I1025 13:37:11.973295 13552 net.cpp:165] Memory required for data: 201489088
I1025 13:37:11.973299 13552 layer_factory.hpp:77] Creating layer stage4_tb/ext/pm6/b2b/bn
I1025 13:37:11.973305 13552 net.cpp:100] Creating Layer stage4_tb/ext/pm6/b2b/bn
I1025 13:37:11.973309 13552 net.cpp:434] stage4_tb/ext/pm6/b2b/bn <- stage4_tb/ext/pm6/b2b
I1025 13:37:11.973316 13552 net.cpp:395] stage4_tb/ext/pm6/b2b/bn -> stage4_tb/ext/pm6/b2b (in-place)
I1025 13:37:11.973487 13552 net.cpp:150] Setting up stage4_tb/ext/pm6/b2b/bn
I1025 13:37:11.973495 13552 net.cpp:157] Top shape: 1 128 1 1 (128)
I1025 13:37:11.973497 13552 net.cpp:165] Memory required for data: 201489600
I1025 13:37:11.973502 13552 layer_factory.hpp:77] Creating layer stage4_tb/ext/pm6/b2b/scale
I1025 13:37:11.973508 13552 net.cpp:100] Creating Layer stage4_tb/ext/pm6/b2b/scale
I1025 13:37:11.973511 13552 net.cpp:434] stage4_tb/ext/pm6/b2b/scale <- stage4_tb/ext/pm6/b2b
I1025 13:37:11.973527 13552 net.cpp:395] stage4_tb/ext/pm6/b2b/scale -> stage4_tb/ext/pm6/b2b (in-place)
I1025 13:37:11.973567 13552 layer_factory.hpp:77] Creating layer stage4_tb/ext/pm6/b2b/scale
I1025 13:37:11.973675 13552 net.cpp:150] Setting up stage4_tb/ext/pm6/b2b/scale
I1025 13:37:11.973685 13552 net.cpp:157] Top shape: 1 128 1 1 (128)
I1025 13:37:11.973687 13552 net.cpp:165] Memory required for data: 201490112
I1025 13:37:11.973693 13552 layer_factory.hpp:77] Creating layer stage4_tb/ext/pm6/b2b/relu
I1025 13:37:11.973698 13552 net.cpp:100] Creating Layer stage4_tb/ext/pm6/b2b/relu
I1025 13:37:11.973702 13552 net.cpp:434] stage4_tb/ext/pm6/b2b/relu <- stage4_tb/ext/pm6/b2b
I1025 13:37:11.973706 13552 net.cpp:395] stage4_tb/ext/pm6/b2b/relu -> stage4_tb/ext/pm6/b2b (in-place)
I1025 13:37:11.974248 13552 net.cpp:150] Setting up stage4_tb/ext/pm6/b2b/relu
I1025 13:37:11.974256 13552 net.cpp:157] Top shape: 1 128 1 1 (128)
I1025 13:37:11.974258 13552 net.cpp:165] Memory required for data: 201490624
I1025 13:37:11.974261 13552 layer_factory.hpp:77] Creating layer stage4_tb/ext/pm6/b2c
I1025 13:37:11.974269 13552 net.cpp:100] Creating Layer stage4_tb/ext/pm6/b2c
I1025 13:37:11.974272 13552 net.cpp:434] stage4_tb/ext/pm6/b2c <- stage4_tb/ext/pm6/b2b
I1025 13:37:11.974277 13552 net.cpp:408] stage4_tb/ext/pm6/b2c -> stage4_tb/ext/pm6/b2c
I1025 13:37:11.977888 13552 net.cpp:150] Setting up stage4_tb/ext/pm6/b2c
I1025 13:37:11.977901 13552 net.cpp:157] Top shape: 1 256 1 1 (256)
I1025 13:37:11.977905 13552 net.cpp:165] Memory required for data: 201491648
I1025 13:37:11.977908 13552 layer_factory.hpp:77] Creating layer stage4_tb/ext/pm6/b2c/bn
I1025 13:37:11.977913 13552 net.cpp:100] Creating Layer stage4_tb/ext/pm6/b2c/bn
I1025 13:37:11.977917 13552 net.cpp:434] stage4_tb/ext/pm6/b2c/bn <- stage4_tb/ext/pm6/b2c
I1025 13:37:11.977922 13552 net.cpp:395] stage4_tb/ext/pm6/b2c/bn -> stage4_tb/ext/pm6/b2c (in-place)
I1025 13:37:11.978056 13552 net.cpp:150] Setting up stage4_tb/ext/pm6/b2c/bn
I1025 13:37:11.978063 13552 net.cpp:157] Top shape: 1 256 1 1 (256)
I1025 13:37:11.978068 13552 net.cpp:165] Memory required for data: 201492672
I1025 13:37:11.978075 13552 layer_factory.hpp:77] Creating layer stage4_tb/ext/pm6/b2c/scale
I1025 13:37:11.978085 13552 net.cpp:100] Creating Layer stage4_tb/ext/pm6/b2c/scale
I1025 13:37:11.978090 13552 net.cpp:434] stage4_tb/ext/pm6/b2c/scale <- stage4_tb/ext/pm6/b2c
I1025 13:37:11.978096 13552 net.cpp:395] stage4_tb/ext/pm6/b2c/scale -> stage4_tb/ext/pm6/b2c (in-place)
I1025 13:37:11.978128 13552 layer_factory.hpp:77] Creating layer stage4_tb/ext/pm6/b2c/scale
I1025 13:37:11.978196 13552 net.cpp:150] Setting up stage4_tb/ext/pm6/b2c/scale
I1025 13:37:11.978201 13552 net.cpp:157] Top shape: 1 256 1 1 (256)
I1025 13:37:11.978204 13552 net.cpp:165] Memory required for data: 201493696
I1025 13:37:11.978207 13552 layer_factory.hpp:77] Creating layer stage4_tb/ext/pm6/res
I1025 13:37:11.978214 13552 net.cpp:100] Creating Layer stage4_tb/ext/pm6/res
I1025 13:37:11.978216 13552 net.cpp:434] stage4_tb/ext/pm6/res <- stage4_tb/ext/pm6
I1025 13:37:11.978220 13552 net.cpp:434] stage4_tb/ext/pm6/res <- stage4_tb/ext/pm6/b2c
I1025 13:37:11.978225 13552 net.cpp:408] stage4_tb/ext/pm6/res -> stage4_tb/ext/pm6/res
I1025 13:37:11.978240 13552 net.cpp:150] Setting up stage4_tb/ext/pm6/res
I1025 13:37:11.978243 13552 net.cpp:157] Top shape: 1 256 1 1 (256)
I1025 13:37:11.978246 13552 net.cpp:165] Memory required for data: 201494720
I1025 13:37:11.978247 13552 layer_factory.hpp:77] Creating layer stage4_tb/ext/pm6/res/relu
I1025 13:37:11.978252 13552 net.cpp:100] Creating Layer stage4_tb/ext/pm6/res/relu
I1025 13:37:11.978255 13552 net.cpp:434] stage4_tb/ext/pm6/res/relu <- stage4_tb/ext/pm6/res
I1025 13:37:11.978258 13552 net.cpp:395] stage4_tb/ext/pm6/res/relu -> stage4_tb/ext/pm6/res (in-place)
I1025 13:37:11.978665 13552 net.cpp:150] Setting up stage4_tb/ext/pm6/res/relu
I1025 13:37:11.978673 13552 net.cpp:157] Top shape: 1 256 1 1 (256)
I1025 13:37:11.978685 13552 net.cpp:165] Memory required for data: 201495744
I1025 13:37:11.978689 13552 layer_factory.hpp:77] Creating layer stage4_tb/ext/pm6/res_stage4_tb/ext/pm6/res/relu_0_split
I1025 13:37:11.978695 13552 net.cpp:100] Creating Layer stage4_tb/ext/pm6/res_stage4_tb/ext/pm6/res/relu_0_split
I1025 13:37:11.978698 13552 net.cpp:434] stage4_tb/ext/pm6/res_stage4_tb/ext/pm6/res/relu_0_split <- stage4_tb/ext/pm6/res
I1025 13:37:11.978703 13552 net.cpp:408] stage4_tb/ext/pm6/res_stage4_tb/ext/pm6/res/relu_0_split -> stage4_tb/ext/pm6/res_stage4_tb/ext/pm6/res/relu_0_split_0
I1025 13:37:11.978709 13552 net.cpp:408] stage4_tb/ext/pm6/res_stage4_tb/ext/pm6/res/relu_0_split -> stage4_tb/ext/pm6/res_stage4_tb/ext/pm6/res/relu_0_split_1
I1025 13:37:11.978714 13552 net.cpp:408] stage4_tb/ext/pm6/res_stage4_tb/ext/pm6/res/relu_0_split -> stage4_tb/ext/pm6/res_stage4_tb/ext/pm6/res/relu_0_split_2
I1025 13:37:11.978751 13552 net.cpp:150] Setting up stage4_tb/ext/pm6/res_stage4_tb/ext/pm6/res/relu_0_split
I1025 13:37:11.978756 13552 net.cpp:157] Top shape: 1 256 1 1 (256)
I1025 13:37:11.978760 13552 net.cpp:157] Top shape: 1 256 1 1 (256)
I1025 13:37:11.978762 13552 net.cpp:157] Top shape: 1 256 1 1 (256)
I1025 13:37:11.978765 13552 net.cpp:165] Memory required for data: 201498816
I1025 13:37:11.978766 13552 layer_factory.hpp:77] Creating layer ext/pm1_mbox_loc
I1025 13:37:11.978772 13552 net.cpp:100] Creating Layer ext/pm1_mbox_loc
I1025 13:37:11.978776 13552 net.cpp:434] ext/pm1_mbox_loc <- stage4_tb/ext/pm1/res_stage4_tb/ext/pm1/res/relu_0_split_0
I1025 13:37:11.978782 13552 net.cpp:408] ext/pm1_mbox_loc -> ext/pm1_mbox_loc
I1025 13:37:11.980402 13552 net.cpp:150] Setting up ext/pm1_mbox_loc
I1025 13:37:11.980410 13552 net.cpp:157] Top shape: 1 16 38 38 (23104)
I1025 13:37:11.980414 13552 net.cpp:165] Memory required for data: 201591232
I1025 13:37:11.980418 13552 layer_factory.hpp:77] Creating layer ext/pm1_mbox_loc_perm
I1025 13:37:11.980423 13552 net.cpp:100] Creating Layer ext/pm1_mbox_loc_perm
I1025 13:37:11.980427 13552 net.cpp:434] ext/pm1_mbox_loc_perm <- ext/pm1_mbox_loc
I1025 13:37:11.980432 13552 net.cpp:408] ext/pm1_mbox_loc_perm -> ext/pm1_mbox_loc_perm
I1025 13:37:11.980504 13552 net.cpp:150] Setting up ext/pm1_mbox_loc_perm
I1025 13:37:11.980509 13552 net.cpp:157] Top shape: 1 38 38 16 (23104)
I1025 13:37:11.980511 13552 net.cpp:165] Memory required for data: 201683648
I1025 13:37:11.980515 13552 layer_factory.hpp:77] Creating layer ext/pm1_mbox_loc_flat
I1025 13:37:11.980518 13552 net.cpp:100] Creating Layer ext/pm1_mbox_loc_flat
I1025 13:37:11.980521 13552 net.cpp:434] ext/pm1_mbox_loc_flat <- ext/pm1_mbox_loc_perm
I1025 13:37:11.980526 13552 net.cpp:408] ext/pm1_mbox_loc_flat -> ext/pm1_mbox_loc_flat
I1025 13:37:11.980541 13552 net.cpp:150] Setting up ext/pm1_mbox_loc_flat
I1025 13:37:11.980545 13552 net.cpp:157] Top shape: 1 23104 (23104)
I1025 13:37:11.980546 13552 net.cpp:165] Memory required for data: 201776064
I1025 13:37:11.980548 13552 layer_factory.hpp:77] Creating layer ext/pm1_mbox_conf
I1025 13:37:11.980556 13552 net.cpp:100] Creating Layer ext/pm1_mbox_conf
I1025 13:37:11.980559 13552 net.cpp:434] ext/pm1_mbox_conf <- stage4_tb/ext/pm1/res_stage4_tb/ext/pm1/res/relu_0_split_1
I1025 13:37:11.980563 13552 net.cpp:408] ext/pm1_mbox_conf -> ext/pm1_mbox_conf
I1025 13:37:11.982113 13552 net.cpp:150] Setting up ext/pm1_mbox_conf
I1025 13:37:11.982122 13552 net.cpp:157] Top shape: 1 48 38 38 (69312)
I1025 13:37:11.982125 13552 net.cpp:165] Memory required for data: 202053312
I1025 13:37:11.982128 13552 layer_factory.hpp:77] Creating layer ext/pm1_mbox_conf_perm
I1025 13:37:11.982133 13552 net.cpp:100] Creating Layer ext/pm1_mbox_conf_perm
I1025 13:37:11.982137 13552 net.cpp:434] ext/pm1_mbox_conf_perm <- ext/pm1_mbox_conf
I1025 13:37:11.982142 13552 net.cpp:408] ext/pm1_mbox_conf_perm -> ext/pm1_mbox_conf_perm
I1025 13:37:11.982213 13552 net.cpp:150] Setting up ext/pm1_mbox_conf_perm
I1025 13:37:11.982218 13552 net.cpp:157] Top shape: 1 38 38 48 (69312)
I1025 13:37:11.982220 13552 net.cpp:165] Memory required for data: 202330560
I1025 13:37:11.982230 13552 layer_factory.hpp:77] Creating layer ext/pm1_mbox_conf_flat
I1025 13:37:11.982235 13552 net.cpp:100] Creating Layer ext/pm1_mbox_conf_flat
I1025 13:37:11.982239 13552 net.cpp:434] ext/pm1_mbox_conf_flat <- ext/pm1_mbox_conf_perm
I1025 13:37:11.982244 13552 net.cpp:408] ext/pm1_mbox_conf_flat -> ext/pm1_mbox_conf_flat
I1025 13:37:11.982259 13552 net.cpp:150] Setting up ext/pm1_mbox_conf_flat
I1025 13:37:11.982264 13552 net.cpp:157] Top shape: 1 69312 (69312)
I1025 13:37:11.982264 13552 net.cpp:165] Memory required for data: 202607808
I1025 13:37:11.982267 13552 layer_factory.hpp:77] Creating layer ext/pm1_mbox_priorbox
I1025 13:37:11.982272 13552 net.cpp:100] Creating Layer ext/pm1_mbox_priorbox
I1025 13:37:11.982275 13552 net.cpp:434] ext/pm1_mbox_priorbox <- stage4_tb/ext/pm1/res_stage4_tb/ext/pm1/res/relu_0_split_2
I1025 13:37:11.982278 13552 net.cpp:434] ext/pm1_mbox_priorbox <- data_data_0_split_1
I1025 13:37:11.982283 13552 net.cpp:408] ext/pm1_mbox_priorbox -> ext/pm1_mbox_priorbox
I1025 13:37:11.982300 13552 net.cpp:150] Setting up ext/pm1_mbox_priorbox
I1025 13:37:11.982304 13552 net.cpp:157] Top shape: 1 2 23104 (46208)
I1025 13:37:11.982306 13552 net.cpp:165] Memory required for data: 202792640
I1025 13:37:11.982308 13552 layer_factory.hpp:77] Creating layer ext/pm2_mbox_loc
I1025 13:37:11.982316 13552 net.cpp:100] Creating Layer ext/pm2_mbox_loc
I1025 13:37:11.982319 13552 net.cpp:434] ext/pm2_mbox_loc <- stage4_tb/ext/pm2/res_stage4_tb/ext/pm2/res/relu_0_split_0
I1025 13:37:11.982323 13552 net.cpp:408] ext/pm2_mbox_loc -> ext/pm2_mbox_loc
I1025 13:37:11.986017 13552 net.cpp:150] Setting up ext/pm2_mbox_loc
I1025 13:37:11.986033 13552 net.cpp:157] Top shape: 1 24 19 19 (8664)
I1025 13:37:11.986038 13552 net.cpp:165] Memory required for data: 202827296
I1025 13:37:11.986047 13552 layer_factory.hpp:77] Creating layer ext/pm2_mbox_loc_perm
I1025 13:37:11.986060 13552 net.cpp:100] Creating Layer ext/pm2_mbox_loc_perm
I1025 13:37:11.986069 13552 net.cpp:434] ext/pm2_mbox_loc_perm <- ext/pm2_mbox_loc
I1025 13:37:11.986079 13552 net.cpp:408] ext/pm2_mbox_loc_perm -> ext/pm2_mbox_loc_perm
I1025 13:37:11.986155 13552 net.cpp:150] Setting up ext/pm2_mbox_loc_perm
I1025 13:37:11.986161 13552 net.cpp:157] Top shape: 1 19 19 24 (8664)
I1025 13:37:11.986163 13552 net.cpp:165] Memory required for data: 202861952
I1025 13:37:11.986166 13552 layer_factory.hpp:77] Creating layer ext/pm2_mbox_loc_flat
I1025 13:37:11.986169 13552 net.cpp:100] Creating Layer ext/pm2_mbox_loc_flat
I1025 13:37:11.986172 13552 net.cpp:434] ext/pm2_mbox_loc_flat <- ext/pm2_mbox_loc_perm
I1025 13:37:11.986176 13552 net.cpp:408] ext/pm2_mbox_loc_flat -> ext/pm2_mbox_loc_flat
I1025 13:37:11.986191 13552 net.cpp:150] Setting up ext/pm2_mbox_loc_flat
I1025 13:37:11.986196 13552 net.cpp:157] Top shape: 1 8664 (8664)
I1025 13:37:11.986198 13552 net.cpp:165] Memory required for data: 202896608
I1025 13:37:11.986201 13552 layer_factory.hpp:77] Creating layer ext/pm2_mbox_conf
I1025 13:37:11.986207 13552 net.cpp:100] Creating Layer ext/pm2_mbox_conf
I1025 13:37:11.986212 13552 net.cpp:434] ext/pm2_mbox_conf <- stage4_tb/ext/pm2/res_stage4_tb/ext/pm2/res/relu_0_split_1
I1025 13:37:11.986215 13552 net.cpp:408] ext/pm2_mbox_conf -> ext/pm2_mbox_conf
I1025 13:37:11.987922 13552 net.cpp:150] Setting up ext/pm2_mbox_conf
I1025 13:37:11.987931 13552 net.cpp:157] Top shape: 1 72 19 19 (25992)
I1025 13:37:11.987933 13552 net.cpp:165] Memory required for data: 203000576
I1025 13:37:11.987938 13552 layer_factory.hpp:77] Creating layer ext/pm2_mbox_conf_perm
I1025 13:37:11.987944 13552 net.cpp:100] Creating Layer ext/pm2_mbox_conf_perm
I1025 13:37:11.987948 13552 net.cpp:434] ext/pm2_mbox_conf_perm <- ext/pm2_mbox_conf
I1025 13:37:11.987953 13552 net.cpp:408] ext/pm2_mbox_conf_perm -> ext/pm2_mbox_conf_perm
I1025 13:37:11.988024 13552 net.cpp:150] Setting up ext/pm2_mbox_conf_perm
I1025 13:37:11.988032 13552 net.cpp:157] Top shape: 1 19 19 72 (25992)
I1025 13:37:11.988036 13552 net.cpp:165] Memory required for data: 203104544
I1025 13:37:11.988054 13552 layer_factory.hpp:77] Creating layer ext/pm2_mbox_conf_flat
I1025 13:37:11.988059 13552 net.cpp:100] Creating Layer ext/pm2_mbox_conf_flat
I1025 13:37:11.988061 13552 net.cpp:434] ext/pm2_mbox_conf_flat <- ext/pm2_mbox_conf_perm
I1025 13:37:11.988065 13552 net.cpp:408] ext/pm2_mbox_conf_flat -> ext/pm2_mbox_conf_flat
I1025 13:37:11.988083 13552 net.cpp:150] Setting up ext/pm2_mbox_conf_flat
I1025 13:37:11.988087 13552 net.cpp:157] Top shape: 1 25992 (25992)
I1025 13:37:11.988090 13552 net.cpp:165] Memory required for data: 203208512
I1025 13:37:11.988091 13552 layer_factory.hpp:77] Creating layer ext/pm2_mbox_priorbox
I1025 13:37:11.988096 13552 net.cpp:100] Creating Layer ext/pm2_mbox_priorbox
I1025 13:37:11.988101 13552 net.cpp:434] ext/pm2_mbox_priorbox <- stage4_tb/ext/pm2/res_stage4_tb/ext/pm2/res/relu_0_split_2
I1025 13:37:11.988103 13552 net.cpp:434] ext/pm2_mbox_priorbox <- data_data_0_split_2
I1025 13:37:11.988109 13552 net.cpp:408] ext/pm2_mbox_priorbox -> ext/pm2_mbox_priorbox
I1025 13:37:11.988135 13552 net.cpp:150] Setting up ext/pm2_mbox_priorbox
I1025 13:37:11.988140 13552 net.cpp:157] Top shape: 1 2 8664 (17328)
I1025 13:37:11.988144 13552 net.cpp:165] Memory required for data: 203277824
I1025 13:37:11.988148 13552 layer_factory.hpp:77] Creating layer ext/pm3_mbox_loc
I1025 13:37:11.988157 13552 net.cpp:100] Creating Layer ext/pm3_mbox_loc
I1025 13:37:11.988162 13552 net.cpp:434] ext/pm3_mbox_loc <- stage4_tb/ext/pm3/res_stage4_tb/ext/pm3/res/relu_0_split_0
I1025 13:37:11.988168 13552 net.cpp:408] ext/pm3_mbox_loc -> ext/pm3_mbox_loc
I1025 13:37:11.989751 13552 net.cpp:150] Setting up ext/pm3_mbox_loc
I1025 13:37:11.989760 13552 net.cpp:157] Top shape: 1 24 10 10 (2400)
I1025 13:37:11.989763 13552 net.cpp:165] Memory required for data: 203287424
I1025 13:37:11.989766 13552 layer_factory.hpp:77] Creating layer ext/pm3_mbox_loc_perm
I1025 13:37:11.989773 13552 net.cpp:100] Creating Layer ext/pm3_mbox_loc_perm
I1025 13:37:11.989776 13552 net.cpp:434] ext/pm3_mbox_loc_perm <- ext/pm3_mbox_loc
I1025 13:37:11.989780 13552 net.cpp:408] ext/pm3_mbox_loc_perm -> ext/pm3_mbox_loc_perm
I1025 13:37:11.989848 13552 net.cpp:150] Setting up ext/pm3_mbox_loc_perm
I1025 13:37:11.989853 13552 net.cpp:157] Top shape: 1 10 10 24 (2400)
I1025 13:37:11.989856 13552 net.cpp:165] Memory required for data: 203297024
I1025 13:37:11.989857 13552 layer_factory.hpp:77] Creating layer ext/pm3_mbox_loc_flat
I1025 13:37:11.989861 13552 net.cpp:100] Creating Layer ext/pm3_mbox_loc_flat
I1025 13:37:11.989864 13552 net.cpp:434] ext/pm3_mbox_loc_flat <- ext/pm3_mbox_loc_perm
I1025 13:37:11.989868 13552 net.cpp:408] ext/pm3_mbox_loc_flat -> ext/pm3_mbox_loc_flat
I1025 13:37:11.989882 13552 net.cpp:150] Setting up ext/pm3_mbox_loc_flat
I1025 13:37:11.989886 13552 net.cpp:157] Top shape: 1 2400 (2400)
I1025 13:37:11.989888 13552 net.cpp:165] Memory required for data: 203306624
I1025 13:37:11.989890 13552 layer_factory.hpp:77] Creating layer ext/pm3_mbox_conf
I1025 13:37:11.989897 13552 net.cpp:100] Creating Layer ext/pm3_mbox_conf
I1025 13:37:11.989900 13552 net.cpp:434] ext/pm3_mbox_conf <- stage4_tb/ext/pm3/res_stage4_tb/ext/pm3/res/relu_0_split_1
I1025 13:37:11.989905 13552 net.cpp:408] ext/pm3_mbox_conf -> ext/pm3_mbox_conf
I1025 13:37:11.993767 13552 net.cpp:150] Setting up ext/pm3_mbox_conf
I1025 13:37:11.993778 13552 net.cpp:157] Top shape: 1 72 10 10 (7200)
I1025 13:37:11.993780 13552 net.cpp:165] Memory required for data: 203335424
I1025 13:37:11.993786 13552 layer_factory.hpp:77] Creating layer ext/pm3_mbox_conf_perm
I1025 13:37:11.993791 13552 net.cpp:100] Creating Layer ext/pm3_mbox_conf_perm
I1025 13:37:11.993795 13552 net.cpp:434] ext/pm3_mbox_conf_perm <- ext/pm3_mbox_conf
I1025 13:37:11.993800 13552 net.cpp:408] ext/pm3_mbox_conf_perm -> ext/pm3_mbox_conf_perm
I1025 13:37:11.993871 13552 net.cpp:150] Setting up ext/pm3_mbox_conf_perm
I1025 13:37:11.993877 13552 net.cpp:157] Top shape: 1 10 10 72 (7200)
I1025 13:37:11.993880 13552 net.cpp:165] Memory required for data: 203364224
I1025 13:37:11.993894 13552 layer_factory.hpp:77] Creating layer ext/pm3_mbox_conf_flat
I1025 13:37:11.993898 13552 net.cpp:100] Creating Layer ext/pm3_mbox_conf_flat
I1025 13:37:11.993901 13552 net.cpp:434] ext/pm3_mbox_conf_flat <- ext/pm3_mbox_conf_perm
I1025 13:37:11.993906 13552 net.cpp:408] ext/pm3_mbox_conf_flat -> ext/pm3_mbox_conf_flat
I1025 13:37:11.993921 13552 net.cpp:150] Setting up ext/pm3_mbox_conf_flat
I1025 13:37:11.993927 13552 net.cpp:157] Top shape: 1 7200 (7200)
I1025 13:37:11.993929 13552 net.cpp:165] Memory required for data: 203393024
I1025 13:37:11.993932 13552 layer_factory.hpp:77] Creating layer ext/pm3_mbox_priorbox
I1025 13:37:11.993935 13552 net.cpp:100] Creating Layer ext/pm3_mbox_priorbox
I1025 13:37:11.993939 13552 net.cpp:434] ext/pm3_mbox_priorbox <- stage4_tb/ext/pm3/res_stage4_tb/ext/pm3/res/relu_0_split_2
I1025 13:37:11.993943 13552 net.cpp:434] ext/pm3_mbox_priorbox <- data_data_0_split_3
I1025 13:37:11.993947 13552 net.cpp:408] ext/pm3_mbox_priorbox -> ext/pm3_mbox_priorbox
I1025 13:37:11.993968 13552 net.cpp:150] Setting up ext/pm3_mbox_priorbox
I1025 13:37:11.993973 13552 net.cpp:157] Top shape: 1 2 2400 (4800)
I1025 13:37:11.993975 13552 net.cpp:165] Memory required for data: 203412224
I1025 13:37:11.993978 13552 layer_factory.hpp:77] Creating layer ext/pm4_mbox_loc
I1025 13:37:11.993984 13552 net.cpp:100] Creating Layer ext/pm4_mbox_loc
I1025 13:37:11.993988 13552 net.cpp:434] ext/pm4_mbox_loc <- stage4_tb/ext/pm4/res_stage4_tb/ext/pm4/res/relu_0_split_0
I1025 13:37:11.993993 13552 net.cpp:408] ext/pm4_mbox_loc -> ext/pm4_mbox_loc
I1025 13:37:11.995694 13552 net.cpp:150] Setting up ext/pm4_mbox_loc
I1025 13:37:11.995703 13552 net.cpp:157] Top shape: 1 24 5 5 (600)
I1025 13:37:11.995705 13552 net.cpp:165] Memory required for data: 203414624
I1025 13:37:11.995710 13552 layer_factory.hpp:77] Creating layer ext/pm4_mbox_loc_perm
I1025 13:37:11.995715 13552 net.cpp:100] Creating Layer ext/pm4_mbox_loc_perm
I1025 13:37:11.995718 13552 net.cpp:434] ext/pm4_mbox_loc_perm <- ext/pm4_mbox_loc
I1025 13:37:11.995723 13552 net.cpp:408] ext/pm4_mbox_loc_perm -> ext/pm4_mbox_loc_perm
I1025 13:37:11.995793 13552 net.cpp:150] Setting up ext/pm4_mbox_loc_perm
I1025 13:37:11.995797 13552 net.cpp:157] Top shape: 1 5 5 24 (600)
I1025 13:37:11.995800 13552 net.cpp:165] Memory required for data: 203417024
I1025 13:37:11.995801 13552 layer_factory.hpp:77] Creating layer ext/pm4_mbox_loc_flat
I1025 13:37:11.995806 13552 net.cpp:100] Creating Layer ext/pm4_mbox_loc_flat
I1025 13:37:11.995810 13552 net.cpp:434] ext/pm4_mbox_loc_flat <- ext/pm4_mbox_loc_perm
I1025 13:37:11.995812 13552 net.cpp:408] ext/pm4_mbox_loc_flat -> ext/pm4_mbox_loc_flat
I1025 13:37:11.995827 13552 net.cpp:150] Setting up ext/pm4_mbox_loc_flat
I1025 13:37:11.995831 13552 net.cpp:157] Top shape: 1 600 (600)
I1025 13:37:11.995833 13552 net.cpp:165] Memory required for data: 203419424
I1025 13:37:11.995836 13552 layer_factory.hpp:77] Creating layer ext/pm4_mbox_conf
I1025 13:37:11.995841 13552 net.cpp:100] Creating Layer ext/pm4_mbox_conf
I1025 13:37:11.995844 13552 net.cpp:434] ext/pm4_mbox_conf <- stage4_tb/ext/pm4/res_stage4_tb/ext/pm4/res/relu_0_split_1
I1025 13:37:11.995848 13552 net.cpp:408] ext/pm4_mbox_conf -> ext/pm4_mbox_conf
I1025 13:37:11.997567 13552 net.cpp:150] Setting up ext/pm4_mbox_conf
I1025 13:37:11.997575 13552 net.cpp:157] Top shape: 1 72 5 5 (1800)
I1025 13:37:11.997578 13552 net.cpp:165] Memory required for data: 203426624
I1025 13:37:11.997582 13552 layer_factory.hpp:77] Creating layer ext/pm4_mbox_conf_perm
I1025 13:37:11.997586 13552 net.cpp:100] Creating Layer ext/pm4_mbox_conf_perm
I1025 13:37:11.997589 13552 net.cpp:434] ext/pm4_mbox_conf_perm <- ext/pm4_mbox_conf
I1025 13:37:11.997594 13552 net.cpp:408] ext/pm4_mbox_conf_perm -> ext/pm4_mbox_conf_perm
I1025 13:37:11.997661 13552 net.cpp:150] Setting up ext/pm4_mbox_conf_perm
I1025 13:37:11.997668 13552 net.cpp:157] Top shape: 1 5 5 72 (1800)
I1025 13:37:11.997668 13552 net.cpp:165] Memory required for data: 203433824
I1025 13:37:11.997671 13552 layer_factory.hpp:77] Creating layer ext/pm4_mbox_conf_flat
I1025 13:37:11.997684 13552 net.cpp:100] Creating Layer ext/pm4_mbox_conf_flat
I1025 13:37:11.997685 13552 net.cpp:434] ext/pm4_mbox_conf_flat <- ext/pm4_mbox_conf_perm
I1025 13:37:11.997689 13552 net.cpp:408] ext/pm4_mbox_conf_flat -> ext/pm4_mbox_conf_flat
I1025 13:37:11.997706 13552 net.cpp:150] Setting up ext/pm4_mbox_conf_flat
I1025 13:37:11.997711 13552 net.cpp:157] Top shape: 1 1800 (1800)
I1025 13:37:11.997714 13552 net.cpp:165] Memory required for data: 203441024
I1025 13:37:11.997715 13552 layer_factory.hpp:77] Creating layer ext/pm4_mbox_priorbox
I1025 13:37:11.997720 13552 net.cpp:100] Creating Layer ext/pm4_mbox_priorbox
I1025 13:37:11.997721 13552 net.cpp:434] ext/pm4_mbox_priorbox <- stage4_tb/ext/pm4/res_stage4_tb/ext/pm4/res/relu_0_split_2
I1025 13:37:11.997725 13552 net.cpp:434] ext/pm4_mbox_priorbox <- data_data_0_split_4
I1025 13:37:11.997730 13552 net.cpp:408] ext/pm4_mbox_priorbox -> ext/pm4_mbox_priorbox
I1025 13:37:11.997746 13552 net.cpp:150] Setting up ext/pm4_mbox_priorbox
I1025 13:37:11.997751 13552 net.cpp:157] Top shape: 1 2 600 (1200)
I1025 13:37:11.997753 13552 net.cpp:165] Memory required for data: 203445824
I1025 13:37:11.997756 13552 layer_factory.hpp:77] Creating layer ext/pm5_mbox_loc
I1025 13:37:11.997761 13552 net.cpp:100] Creating Layer ext/pm5_mbox_loc
I1025 13:37:11.997764 13552 net.cpp:434] ext/pm5_mbox_loc <- stage4_tb/ext/pm5/res_stage4_tb/ext/pm5/res/relu_0_split_0
I1025 13:37:11.997768 13552 net.cpp:408] ext/pm5_mbox_loc -> ext/pm5_mbox_loc
I1025 13:37:11.999325 13552 net.cpp:150] Setting up ext/pm5_mbox_loc
I1025 13:37:11.999336 13552 net.cpp:157] Top shape: 1 16 3 3 (144)
I1025 13:37:11.999337 13552 net.cpp:165] Memory required for data: 203446400
I1025 13:37:11.999341 13552 layer_factory.hpp:77] Creating layer ext/pm5_mbox_loc_perm
I1025 13:37:11.999346 13552 net.cpp:100] Creating Layer ext/pm5_mbox_loc_perm
I1025 13:37:11.999348 13552 net.cpp:434] ext/pm5_mbox_loc_perm <- ext/pm5_mbox_loc
I1025 13:37:11.999353 13552 net.cpp:408] ext/pm5_mbox_loc_perm -> ext/pm5_mbox_loc_perm
I1025 13:37:11.999421 13552 net.cpp:150] Setting up ext/pm5_mbox_loc_perm
I1025 13:37:11.999425 13552 net.cpp:157] Top shape: 1 3 3 16 (144)
I1025 13:37:11.999428 13552 net.cpp:165] Memory required for data: 203446976
I1025 13:37:11.999430 13552 layer_factory.hpp:77] Creating layer ext/pm5_mbox_loc_flat
I1025 13:37:11.999434 13552 net.cpp:100] Creating Layer ext/pm5_mbox_loc_flat
I1025 13:37:11.999436 13552 net.cpp:434] ext/pm5_mbox_loc_flat <- ext/pm5_mbox_loc_perm
I1025 13:37:11.999440 13552 net.cpp:408] ext/pm5_mbox_loc_flat -> ext/pm5_mbox_loc_flat
I1025 13:37:11.999455 13552 net.cpp:150] Setting up ext/pm5_mbox_loc_flat
I1025 13:37:11.999459 13552 net.cpp:157] Top shape: 1 144 (144)
I1025 13:37:11.999459 13552 net.cpp:165] Memory required for data: 203447552
I1025 13:37:11.999462 13552 layer_factory.hpp:77] Creating layer ext/pm5_mbox_conf
I1025 13:37:11.999469 13552 net.cpp:100] Creating Layer ext/pm5_mbox_conf
I1025 13:37:11.999471 13552 net.cpp:434] ext/pm5_mbox_conf <- stage4_tb/ext/pm5/res_stage4_tb/ext/pm5/res/relu_0_split_1
I1025 13:37:11.999476 13552 net.cpp:408] ext/pm5_mbox_conf -> ext/pm5_mbox_conf
I1025 13:37:12.003793 13552 net.cpp:150] Setting up ext/pm5_mbox_conf
I1025 13:37:12.003811 13552 net.cpp:157] Top shape: 1 48 3 3 (432)
I1025 13:37:12.003813 13552 net.cpp:165] Memory required for data: 203449280
I1025 13:37:12.003820 13552 layer_factory.hpp:77] Creating layer ext/pm5_mbox_conf_perm
I1025 13:37:12.003826 13552 net.cpp:100] Creating Layer ext/pm5_mbox_conf_perm
I1025 13:37:12.003831 13552 net.cpp:434] ext/pm5_mbox_conf_perm <- ext/pm5_mbox_conf
I1025 13:37:12.003837 13552 net.cpp:408] ext/pm5_mbox_conf_perm -> ext/pm5_mbox_conf_perm
I1025 13:37:12.003909 13552 net.cpp:150] Setting up ext/pm5_mbox_conf_perm
I1025 13:37:12.003914 13552 net.cpp:157] Top shape: 1 3 3 48 (432)
I1025 13:37:12.003916 13552 net.cpp:165] Memory required for data: 203451008
I1025 13:37:12.003918 13552 layer_factory.hpp:77] Creating layer ext/pm5_mbox_conf_flat
I1025 13:37:12.003932 13552 net.cpp:100] Creating Layer ext/pm5_mbox_conf_flat
I1025 13:37:12.003935 13552 net.cpp:434] ext/pm5_mbox_conf_flat <- ext/pm5_mbox_conf_perm
I1025 13:37:12.003940 13552 net.cpp:408] ext/pm5_mbox_conf_flat -> ext/pm5_mbox_conf_flat
I1025 13:37:12.003957 13552 net.cpp:150] Setting up ext/pm5_mbox_conf_flat
I1025 13:37:12.003962 13552 net.cpp:157] Top shape: 1 432 (432)
I1025 13:37:12.003963 13552 net.cpp:165] Memory required for data: 203452736
I1025 13:37:12.003967 13552 layer_factory.hpp:77] Creating layer ext/pm5_mbox_priorbox
I1025 13:37:12.003970 13552 net.cpp:100] Creating Layer ext/pm5_mbox_priorbox
I1025 13:37:12.003974 13552 net.cpp:434] ext/pm5_mbox_priorbox <- stage4_tb/ext/pm5/res_stage4_tb/ext/pm5/res/relu_0_split_2
I1025 13:37:12.003978 13552 net.cpp:434] ext/pm5_mbox_priorbox <- data_data_0_split_5
I1025 13:37:12.003984 13552 net.cpp:408] ext/pm5_mbox_priorbox -> ext/pm5_mbox_priorbox
I1025 13:37:12.004005 13552 net.cpp:150] Setting up ext/pm5_mbox_priorbox
I1025 13:37:12.004009 13552 net.cpp:157] Top shape: 1 2 144 (288)
I1025 13:37:12.004011 13552 net.cpp:165] Memory required for data: 203453888
I1025 13:37:12.004014 13552 layer_factory.hpp:77] Creating layer ext/pm6_mbox_loc
I1025 13:37:12.004022 13552 net.cpp:100] Creating Layer ext/pm6_mbox_loc
I1025 13:37:12.004027 13552 net.cpp:434] ext/pm6_mbox_loc <- stage4_tb/ext/pm6/res_stage4_tb/ext/pm6/res/relu_0_split_0
I1025 13:37:12.004036 13552 net.cpp:408] ext/pm6_mbox_loc -> ext/pm6_mbox_loc
I1025 13:37:12.005595 13552 net.cpp:150] Setting up ext/pm6_mbox_loc
I1025 13:37:12.005605 13552 net.cpp:157] Top shape: 1 16 1 1 (16)
I1025 13:37:12.005607 13552 net.cpp:165] Memory required for data: 203453952
I1025 13:37:12.005611 13552 layer_factory.hpp:77] Creating layer ext/pm6_mbox_loc_perm
I1025 13:37:12.005616 13552 net.cpp:100] Creating Layer ext/pm6_mbox_loc_perm
I1025 13:37:12.005620 13552 net.cpp:434] ext/pm6_mbox_loc_perm <- ext/pm6_mbox_loc
I1025 13:37:12.005623 13552 net.cpp:408] ext/pm6_mbox_loc_perm -> ext/pm6_mbox_loc_perm
I1025 13:37:12.005692 13552 net.cpp:150] Setting up ext/pm6_mbox_loc_perm
I1025 13:37:12.005697 13552 net.cpp:157] Top shape: 1 1 1 16 (16)
I1025 13:37:12.005699 13552 net.cpp:165] Memory required for data: 203454016
I1025 13:37:12.005702 13552 layer_factory.hpp:77] Creating layer ext/pm6_mbox_loc_flat
I1025 13:37:12.005704 13552 net.cpp:100] Creating Layer ext/pm6_mbox_loc_flat
I1025 13:37:12.005707 13552 net.cpp:434] ext/pm6_mbox_loc_flat <- ext/pm6_mbox_loc_perm
I1025 13:37:12.005712 13552 net.cpp:408] ext/pm6_mbox_loc_flat -> ext/pm6_mbox_loc_flat
I1025 13:37:12.005728 13552 net.cpp:150] Setting up ext/pm6_mbox_loc_flat
I1025 13:37:12.005731 13552 net.cpp:157] Top shape: 1 16 (16)
I1025 13:37:12.005733 13552 net.cpp:165] Memory required for data: 203454080
I1025 13:37:12.005735 13552 layer_factory.hpp:77] Creating layer ext/pm6_mbox_conf
I1025 13:37:12.005741 13552 net.cpp:100] Creating Layer ext/pm6_mbox_conf
I1025 13:37:12.005744 13552 net.cpp:434] ext/pm6_mbox_conf <- stage4_tb/ext/pm6/res_stage4_tb/ext/pm6/res/relu_0_split_1
I1025 13:37:12.005749 13552 net.cpp:408] ext/pm6_mbox_conf -> ext/pm6_mbox_conf
I1025 13:37:12.007329 13552 net.cpp:150] Setting up ext/pm6_mbox_conf
I1025 13:37:12.007339 13552 net.cpp:157] Top shape: 1 48 1 1 (48)
I1025 13:37:12.007340 13552 net.cpp:165] Memory required for data: 203454272
I1025 13:37:12.007345 13552 layer_factory.hpp:77] Creating layer ext/pm6_mbox_conf_perm
I1025 13:37:12.007350 13552 net.cpp:100] Creating Layer ext/pm6_mbox_conf_perm
I1025 13:37:12.007354 13552 net.cpp:434] ext/pm6_mbox_conf_perm <- ext/pm6_mbox_conf
I1025 13:37:12.007356 13552 net.cpp:408] ext/pm6_mbox_conf_perm -> ext/pm6_mbox_conf_perm
I1025 13:37:12.007426 13552 net.cpp:150] Setting up ext/pm6_mbox_conf_perm
I1025 13:37:12.007429 13552 net.cpp:157] Top shape: 1 1 1 48 (48)
I1025 13:37:12.007431 13552 net.cpp:165] Memory required for data: 203454464
I1025 13:37:12.007433 13552 layer_factory.hpp:77] Creating layer ext/pm6_mbox_conf_flat
I1025 13:37:12.007437 13552 net.cpp:100] Creating Layer ext/pm6_mbox_conf_flat
I1025 13:37:12.007447 13552 net.cpp:434] ext/pm6_mbox_conf_flat <- ext/pm6_mbox_conf_perm
I1025 13:37:12.007452 13552 net.cpp:408] ext/pm6_mbox_conf_flat -> ext/pm6_mbox_conf_flat
I1025 13:37:12.007468 13552 net.cpp:150] Setting up ext/pm6_mbox_conf_flat
I1025 13:37:12.007472 13552 net.cpp:157] Top shape: 1 48 (48)
I1025 13:37:12.007474 13552 net.cpp:165] Memory required for data: 203454656
I1025 13:37:12.007477 13552 layer_factory.hpp:77] Creating layer ext/pm6_mbox_priorbox
I1025 13:37:12.007480 13552 net.cpp:100] Creating Layer ext/pm6_mbox_priorbox
I1025 13:37:12.007484 13552 net.cpp:434] ext/pm6_mbox_priorbox <- stage4_tb/ext/pm6/res_stage4_tb/ext/pm6/res/relu_0_split_2
I1025 13:37:12.007488 13552 net.cpp:434] ext/pm6_mbox_priorbox <- data_data_0_split_6
I1025 13:37:12.007493 13552 net.cpp:408] ext/pm6_mbox_priorbox -> ext/pm6_mbox_priorbox
I1025 13:37:12.007510 13552 net.cpp:150] Setting up ext/pm6_mbox_priorbox
I1025 13:37:12.007515 13552 net.cpp:157] Top shape: 1 2 16 (32)
I1025 13:37:12.007517 13552 net.cpp:165] Memory required for data: 203454784
I1025 13:37:12.007519 13552 layer_factory.hpp:77] Creating layer mbox_loc
I1025 13:37:12.007522 13552 net.cpp:100] Creating Layer mbox_loc
I1025 13:37:12.007525 13552 net.cpp:434] mbox_loc <- ext/pm1_mbox_loc_flat
I1025 13:37:12.007529 13552 net.cpp:434] mbox_loc <- ext/pm2_mbox_loc_flat
I1025 13:37:12.007531 13552 net.cpp:434] mbox_loc <- ext/pm3_mbox_loc_flat
I1025 13:37:12.007534 13552 net.cpp:434] mbox_loc <- ext/pm4_mbox_loc_flat
I1025 13:37:12.007537 13552 net.cpp:434] mbox_loc <- ext/pm5_mbox_loc_flat
I1025 13:37:12.007539 13552 net.cpp:434] mbox_loc <- ext/pm6_mbox_loc_flat
I1025 13:37:12.007544 13552 net.cpp:408] mbox_loc -> mbox_loc
I1025 13:37:12.007560 13552 net.cpp:150] Setting up mbox_loc
I1025 13:37:12.007563 13552 net.cpp:157] Top shape: 1 34928 (34928)
I1025 13:37:12.007565 13552 net.cpp:165] Memory required for data: 203594496
I1025 13:37:12.007567 13552 layer_factory.hpp:77] Creating layer mbox_conf
I1025 13:37:12.007570 13552 net.cpp:100] Creating Layer mbox_conf
I1025 13:37:12.007575 13552 net.cpp:434] mbox_conf <- ext/pm1_mbox_conf_flat
I1025 13:37:12.007578 13552 net.cpp:434] mbox_conf <- ext/pm2_mbox_conf_flat
I1025 13:37:12.007582 13552 net.cpp:434] mbox_conf <- ext/pm3_mbox_conf_flat
I1025 13:37:12.007584 13552 net.cpp:434] mbox_conf <- ext/pm4_mbox_conf_flat
I1025 13:37:12.007589 13552 net.cpp:434] mbox_conf <- ext/pm5_mbox_conf_flat
I1025 13:37:12.007591 13552 net.cpp:434] mbox_conf <- ext/pm6_mbox_conf_flat
I1025 13:37:12.007594 13552 net.cpp:408] mbox_conf -> mbox_conf
I1025 13:37:12.007609 13552 net.cpp:150] Setting up mbox_conf
I1025 13:37:12.007614 13552 net.cpp:157] Top shape: 1 104784 (104784)
I1025 13:37:12.007616 13552 net.cpp:165] Memory required for data: 204013632
I1025 13:37:12.007618 13552 layer_factory.hpp:77] Creating layer mbox_priorbox
I1025 13:37:12.007622 13552 net.cpp:100] Creating Layer mbox_priorbox
I1025 13:37:12.007623 13552 net.cpp:434] mbox_priorbox <- ext/pm1_mbox_priorbox
I1025 13:37:12.007627 13552 net.cpp:434] mbox_priorbox <- ext/pm2_mbox_priorbox
I1025 13:37:12.007629 13552 net.cpp:434] mbox_priorbox <- ext/pm3_mbox_priorbox
I1025 13:37:12.007632 13552 net.cpp:434] mbox_priorbox <- ext/pm4_mbox_priorbox
I1025 13:37:12.007633 13552 net.cpp:434] mbox_priorbox <- ext/pm5_mbox_priorbox
I1025 13:37:12.007637 13552 net.cpp:434] mbox_priorbox <- ext/pm6_mbox_priorbox
I1025 13:37:12.007639 13552 net.cpp:408] mbox_priorbox -> mbox_priorbox
I1025 13:37:12.007654 13552 net.cpp:150] Setting up mbox_priorbox
I1025 13:37:12.007658 13552 net.cpp:157] Top shape: 1 2 34928 (69856)
I1025 13:37:12.007660 13552 net.cpp:165] Memory required for data: 204293056
I1025 13:37:12.007663 13552 layer_factory.hpp:77] Creating layer mbox_conf_reshape
I1025 13:37:12.007666 13552 net.cpp:100] Creating Layer mbox_conf_reshape
I1025 13:37:12.007670 13552 net.cpp:434] mbox_conf_reshape <- mbox_conf
I1025 13:37:12.007674 13552 net.cpp:408] mbox_conf_reshape -> mbox_conf_reshape
I1025 13:37:12.007697 13552 net.cpp:150] Setting up mbox_conf_reshape
I1025 13:37:12.007707 13552 net.cpp:157] Top shape: 1 8732 12 (104784)
I1025 13:37:12.007709 13552 net.cpp:165] Memory required for data: 204712192
I1025 13:37:12.007711 13552 layer_factory.hpp:77] Creating layer mbox_conf_softmax
I1025 13:37:12.007717 13552 net.cpp:100] Creating Layer mbox_conf_softmax
I1025 13:37:12.007720 13552 net.cpp:434] mbox_conf_softmax <- mbox_conf_reshape
I1025 13:37:12.007725 13552 net.cpp:408] mbox_conf_softmax -> mbox_conf_softmax
I1025 13:37:12.008193 13552 net.cpp:150] Setting up mbox_conf_softmax
I1025 13:37:12.008200 13552 net.cpp:157] Top shape: 1 8732 12 (104784)
I1025 13:37:12.008203 13552 net.cpp:165] Memory required for data: 205131328
I1025 13:37:12.008205 13552 layer_factory.hpp:77] Creating layer mbox_conf_flatten
I1025 13:37:12.008209 13552 net.cpp:100] Creating Layer mbox_conf_flatten
I1025 13:37:12.008213 13552 net.cpp:434] mbox_conf_flatten <- mbox_conf_softmax
I1025 13:37:12.008219 13552 net.cpp:408] mbox_conf_flatten -> mbox_conf_flatten
I1025 13:37:12.008234 13552 net.cpp:150] Setting up mbox_conf_flatten
I1025 13:37:12.008239 13552 net.cpp:157] Top shape: 1 104784 (104784)
I1025 13:37:12.008240 13552 net.cpp:165] Memory required for data: 205550464
I1025 13:37:12.008242 13552 layer_factory.hpp:77] Creating layer detection_out
I1025 13:37:12.008256 13552 net.cpp:100] Creating Layer detection_out
I1025 13:37:12.008260 13552 net.cpp:434] detection_out <- mbox_loc
I1025 13:37:12.008262 13552 net.cpp:434] detection_out <- mbox_conf_flatten
I1025 13:37:12.008265 13552 net.cpp:434] detection_out <- mbox_priorbox
I1025 13:37:12.008270 13552 net.cpp:408] detection_out -> detection_out
I1025 13:37:12.008306 13552 net.cpp:150] Setting up detection_out
I1025 13:37:12.008309 13552 net.cpp:157] Top shape: 1 1 1 7 (7)
I1025 13:37:12.008311 13552 net.cpp:165] Memory required for data: 205550492
I1025 13:37:12.008313 13552 layer_factory.hpp:77] Creating layer detection_eval
I1025 13:37:12.008318 13552 net.cpp:100] Creating Layer detection_eval
I1025 13:37:12.008322 13552 net.cpp:434] detection_eval <- detection_out
I1025 13:37:12.008324 13552 net.cpp:434] detection_eval <- label
I1025 13:37:12.008329 13552 net.cpp:408] detection_eval -> detection_eval
I1025 13:37:12.008358 13552 net.cpp:150] Setting up detection_eval
I1025 13:37:12.008361 13552 net.cpp:157] Top shape: 1 1 12 5 (60)
I1025 13:37:12.008363 13552 net.cpp:165] Memory required for data: 205550732
I1025 13:37:12.008366 13552 net.cpp:228] detection_eval does not need backward computation.
I1025 13:37:12.008369 13552 net.cpp:228] detection_out does not need backward computation.
I1025 13:37:12.008371 13552 net.cpp:228] mbox_conf_flatten does not need backward computation.
I1025 13:37:12.008373 13552 net.cpp:228] mbox_conf_softmax does not need backward computation.
…
