…
        max_scale: 1
        min_aspect_ratio: 0.5
        max_aspect_ratio: 2
      }
      sample_constraint {
        min_jaccard_overlap: 0.9
      }
      max_sample: 1
      max_trials: 50
    }
    batch_sampler {
      sampler {
        min_scale: 0.3
        max_scale: 1
        min_aspect_ratio: 0.5
        max_aspect_ratio: 2
      }
      sample_constraint {
        max_jaccard_overlap: 1
      }
      max_sample: 1
      max_trials: 50
    }
    label_map_file: "/home/qiao/caffe-ssd/data/create_lmdb/labelmap_double_camera.prototxt"
  }
}
layer {
  name: "stem1"
  type: "Convolution"
  bottom: "data"
  top: "stem1"
  convolution_param {
    num_output: 32
    bias_term: false
    pad: 1
    kernel_size: 3
    stride: 2
    weight_filler {
      type: "xavier"
    }
    bias_filler {
      type: "constant"
    }
  }
}
layer {
  name: "stem1/bn"
  type: "BatchNorm"
  bottom: "stem1"
  top: "stem1"
  batch_norm_param {
    moving_average_fraction: 0.999
    eps: 0.001
  }
}
layer {
  name: "stem1/scale"
  type: "Scale"
  bottom: "stem1"
  top: "stem1"
  scale_param {
    filler {
      value: 1
    }
    bias_term: true
    bias_filler {
      value: 0
    }
  }
}
layer {
  name: "stem1/relu"
  type: "ReLU"
  bottom: "stem1"
  top: "stem1"
}
layer {
  name: "stem2a"
  type: "Convolution"
  bottom: "stem1"
  top: "stem2a"
  convolution_param {
    num_output: 16
    bias_term: false
    pad: 0
    kernel_size: 1
    stride: 1
    weight_filler {
      type: "xavier"
    }
    bias_filler {
      type: "constant"
    }
  }
}
layer {
  name: "stem2a/bn"
  type: "BatchNorm"
  bottom: "stem2a"
  top: "stem2a"
  batch_norm_param {
    moving_average_fraction: 0.999
    eps: 0.001
  }
}
layer {
  name: "stem2a/scale"
  type: "Scale"
  bottom: "stem2a"
  top: "stem2a"
  scale_param {
    filler {
      value: 1
    }
    bias_term: true
    bias_filler {
      value: 0
    }
  }
}
layer {
  name: "stem2a/relu"
  type: "ReLU"
  bottom: "stem2a"
  top: "stem2a"
}
layer {
  name: "stem2b"
  type: "Convolution"
  bottom: "stem2a"
  top: "stem2b"
  convolution_param {
    num_output: 32
    bias_term: false
    pad: 1
    kernel_size: 3
    stride: 2
    weight_filler {
      type: "xavier"
    }
    bias_filler {
      type: "constant"
    }
  }
}
layer {
  name: "stem2b/bn"
  type: "BatchNorm"
  bottom: "stem2b"
  top: "stem2b"
  batch_norm_param {
    moving_average_fraction: 0.999
    eps: 0.001
  }
}
layer {
  name: "stem2b/scale"
  type: "Scale"
  bottom: "stem2b"
  top: "stem2b"
  scale_param {
    filler {
      value: 1
    }
    bias_term: true
    bias_filler {
      value: 0
    }
  }
}
layer {
  name: "stem2b/relu"
  type: "ReLU"
  bottom: "stem2b"
  top: "stem2b"
}
layer {
  name: "stem/pool"
  type: "Pooling"
  bottom: "stem1"
  top: "stem/pool"
  pooling_param {
    pool: MAX
    kernel_size: 2
    stride: 2
  }
}
layer {
  name: "stem/concat"
  type: "Concat"
  bottom: "stem/pool"
  bottom: "stem2b"
  top: "stem/concat"
  concat_param {
    axis: 1
  }
}
layer {
  name: "stem3"
  type: "Convolution"
  bottom: "stem/concat"
  top: "stem3"
  convolution_param {
    num_output: 32
    bias_term: false
    pad: 0
    kernel_size: 1
    stride: 1
    weight_filler {
      type: "xavier"
    }
    bias_filler {
      type: "constant"
    }
  }
}
layer {
  name: "stem3/bn"
  type: "BatchNorm"
  bottom: "stem3"
  top: "stem3"
  batch_norm_param {
    moving_average_fraction: 0.999
    eps: 0.001
  }
}
layer {
  name: "stem3/scale"
  type: "Scale"
  bottom: "stem3"
  top: "stem3"
  scale_param {
    filler {
      value: 1
    }
    bias_term: true
    bias_filler {
      value: 0
    }
  }
}
layer {
  name: "stem3/relu"
  type: "ReLU"
  bottom: "stem3"
  top: "stem3"
}
layer {
  name: "stage1_1/branch1a"
  type: "Convolution"
  bottom: "stem3"
  top: "stage1_1/branch1a"
  convolution_param {
    num_output: 16
    bias_term: false
    pad: 0
    kernel_size: 1
    stride: 1
    weight_filler {
      type: "xavier"
    }
    bias_filler {
      type: "constant"
    }
  }
}
layer {
  name: "stage1_1/branch1a/bn"
  type: "BatchNorm"
  bottom: "stage1_1/branch1a"
  top: "stage1_1/branch1a"
  batch_norm_param {
    moving_average_fraction: 0.999
    eps: 0.001
  }
}
layer {
  name: "stage1_1/branch1a/scale"
  type: "Scale"
  bottom: "stage1_1/branch1a"
  top: "stage1_1/branch1a"
  scale_param {
    filler {
      value: 1
    }
    bias_term: true
    bias_filler {
      value: 0
    }
  }
}
layer {
  name: "stage1_1/branch1a/relu"
  type: "ReLU"
  bottom: "stage1_1/branch1a"
  top: "stage1_1/branch1a"
}
layer {
  name: "stage1_1/branch1b"
  type: "Convolution"
  bottom: "stage1_1/branch1a"
  top: "stage1_1/branch1b"
  convolution_param {
    num_output: 16
    bias_term: false
    pad: 1
    kernel_size: 3
    stride: 1
    weight_filler {
      type: "xavier"
    }
    bias_filler {
      type: "constant"
    }
  }
}
layer {
  name: "stage1_1/branch1b/bn"
  type: "BatchNorm"
  bottom: "stage1_1/branch1b"
  top: "stage1_1/branch1b"
  batch_norm_param {
    moving_average_fraction: 0.999
    eps: 0.001
  }
}
layer {
  name: "stage1_1/branch1b/scale"
  type: "Scale"
  bottom: "stage1_1/branch1b"
  top: "stage1_1/branch1b"
  scale_param {
    filler {
      value: 1
    }
    bias_term: true
    bias_filler {
      value: 0
    }
  }
}
layer {
  name: "stage1_1/branch1b/relu"
  type: "ReLU"
  bottom: "stage1_1/branch1b"
  top: "stage1_1/branch1b"
}
layer {
  name: "stage1_1/branch2a"
  type: "Convolution"
  bottom: "stem3"
  top: "stage1_1/branch2a"
  convolution_param {
    num_output: 16
    bias_term: false
    pad: 0
    kernel_size: 1
    stride: 1
    weight_filler {
      type: "xavier"
    }
    bias_filler {
      type: "constant"
    }
  }
}
layer {
  name: "stage1_1/branch2a/bn"
  type: "BatchNorm"
  bottom: "stage1_1/branch2a"
  top: "stage1_1/branch2a"
  batch_norm_param {
    moving_average_fraction: 0.999
    eps: 0.001
  }
}
layer {
  name: "stage1_1/branch2a/scale"
  type: "Scale"
  bottom: "stage1_1/branch2a"
  top: "stage1_1/branch2a"
  scale_param {
    filler {
      value: 1
    }
    bias_term: true
    bias_filler {
      value: 0
    }
  }
}
layer {
  name: "stage1_1/branch2a/relu"
  type: "ReLU"
  bottom: "stage1_1/branch2a"
  top: "stage1_1/branch2a"
}
layer {
  name: "stage1_1/branch2b"
  type: "Convolution"
  bottom: "stage1_1/branch2a"
  top: "stage1_1/branch2b"
  convolution_param {
    num_output: 16
    bias_term: false
    pad: 1
    kernel_size: 3
    stride: 1
    weight_filler {
      type: "xavier"
    }
    bias_filler {
      type: "constant"
    }
  }
}
layer {
  name: "stage1_1/branch2b/bn"
  type: "BatchNorm"
  bottom: "stage1_1/branch2b"
  top: "stage1_1/branch2b"
  batch_norm_param {
    moving_average_fraction: 0.999
    eps: 0.001
  }
}
layer {
  name: "stage1_1/branch2b/scale"
  type: "Scale"
  bottom: "stage1_1/branch2b"
  top: "stage1_1/branch2b"
  scale_param {
    filler {
      value: 1
    }
    bias_term: true
    bias_filler {
      value: 0
    }
  }
}
layer {
  name: "stage1_1/branch2b/relu"
  type: "ReLU"
  bottom: "stage1_1/branch2b"
  top: "stage1_1/branch2b"
}
layer {
  name: "stage1_1/branch2c"
  type: "Convolution"
  bottom: "stage1_1/branch2b"
  top: "stage1_1/branch2c"
  convolution_param {
    num_output: 16
    bias_term: false
    pad: 1
    kernel_size: 3
    stride: 1
    weight_filler {
      type: "xavier"
    }
    bias_filler {
      type: "constant"
    }
  }
}
layer {
  name: "stage1_1/branch2c/bn"
  type: "BatchNorm"
  bottom: "stage1_1/branch2c"
  top: "stage1_1/branch2c"
  batch_norm_param {
    moving_average_fraction: 0.999
    eps: 0.001
  }
}
layer {
  name: "stage1_1/branch2c/scale"
  type: "Scale"
  bottom: "stage1_1/branch2c"
  top: "stage1_1/branch2c"
  scale_param {
    filler {
      value: 1
    }
    bias_term: true
    bias_filler {
      value: 0
    }
  }
}
layer {
  name: "stage1_1/branch2c/relu"
  type: "ReLU"
  bottom: "stage1_1/branch2c"
  top: "stage1_1/branch2c"
}
layer {
  name: "stage1_1/concat"
  type: "Concat"
  bottom: "stem3"
  bottom: "stage1_1/branch1b"
  bottom: "stage1_1/branch2c"
  top: "stage1_1/concat"
  concat_param {
    axis: 1
  }
}
layer {
  name: "stage1_2/branch1a"
  type: "Convolution"
  bottom: "stage1_1/concat"
  top: "stage1_2/branch1a"
  convolution_param {
    num_output: 16
    bias_term: false
    pad: 0
    kernel_size: 1
    stride: 1
    weight_filler {
      type: "xavier"
    }
    bias_filler {
      type: "constant"
    }
  }
}
layer {
  name: "stage1_2/branch1a/bn"
  type: "BatchNorm"
  bottom: "stage1_2/branch1a"
  top: "stage1_2/branch1a"
  batch_norm_param {
    moving_average_fraction: 0.999
    eps: 0.001
  }
}
layer {
  name: "stage1_2/branch1a/scale"
  type: "Scale"
  bottom: "stage1_2/branch1a"
  top: "stage1_2/branch1a"
  scale_param {
    filler {
      value: 1
    }
    bias_term: true
    bias_filler {
      value: 0
    }
  }
}
layer {
  name: "stage1_2/branch1a/relu"
  type: "ReLU"
  bottom: "stage1_2/branch1a"
  top: "stage1_2/branch1a"
}
layer {
  name: "stage1_2/branch1b"
  type: "Convolution"
  bottom: "stage1_2/branch1a"
  top: "stage1_2/branch1b"
  convolution_param {
    num_output: 16
    bias_term: false
    pad: 1
    kernel_size: 3
    stride: 1
    weight_filler {
      type: "xavier"
    }
    bias_filler {
      type: "constant"
    }
  }
}
layer {
  name: "stage1_2/branch1b/bn"
  type: "BatchNorm"
  bottom: "stage1_2/branch1b"
  top: "stage1_2/branch1b"
  batch_norm_param {
    moving_average_fraction: 0.999
    eps: 0.001
  }
}
layer {
  name: "stage1_2/branch1b/scale"
  type: "Scale"
  bottom: "stage1_2/branch1b"
  top: "stage1_2/branch1b"
  scale_param {
    filler {
      value: 1
    }
    bias_term: true
    bias_filler {
      value: 0
    }
  }
}
layer {
  name: "stage1_2/branch1b/relu"
  type: "ReLU"
  bottom: "stage1_2/branch1b"
  top: "stage1_2/branch1b"
}
layer {
  name: "stage1_2/branch2a"
  type: "Convolution"
  bottom: "stage1_1/concat"
  top: "stage1_2/branch2a"
  convolution_param {
    num_output: 16
    bias_term: false
    pad: 0
    kernel_size: 1
    stride: 1
    weight_filler {
      type: "xavier"
    }
    bias_filler {
      type: "constant"
    }
  }
}
layer {
  name: "stage1_2/branch2a/bn"
  type: "BatchNorm"
  bottom: "stage1_2/branch2a"
  top: "stage1_2/branch2a"
  batch_norm_param {
    moving_average_fraction: 0.999
    eps: 0.001
  }
}
layer {
  name: "stage1_2/branch2a/scale"
  type: "Scale"
  bottom: "stage1_2/branch2a"
  top: "stage1_2/branch2a"
  scale_param {
    filler {
      value: 1
    }
    bias_term: true
    bias_filler {
      value: 0
    }
  }
}
layer {
  name: "stage1_2/branch2a/relu"
  type: "ReLU"
  bottom: "stage1_2/branch2a"
  top: "stage1_2/branch2a"
}
layer {
  name: "stage1_2/branch2b"
  type: "Convolution"
  bottom: "stage1_2/branch2a"
  top: "stage1_2/branch2b"
  convolution_param {
    num_output: 16
    bias_term: false
    pad: 1
    kernel_size: 3
    stride: 1
    weight_filler {
      type: "xavier"
    }
    bias_filler {
      type: "constant"
    }
  }
}
layer {
  name: "stage1_2/branch2b/bn"
  type: "BatchNorm"
  bottom: "stage1_2/branch2b"
  top: "stage1_2/branch2b"
  batch_norm_param {
    moving_average_fraction: 0.999
    eps: 0.001
  }
}
layer {
  name: "stage1_2/branch2b/scale"
  type: "Scale"
  bottom: "stage1_2/branch2b"
  top: "stage1_2/branch2b"
  scale_param {
    filler {
      value: 1
    }
    bias_term: true
    bias_filler {
      value: 0
    }
  }
}
layer {
  name: "stage1_2/branch2b/relu"
  type: "ReLU"
  bottom: "stage1_2/branch2b"
  top: "stage1_2/branch2b"
}
layer {
  name: "stage1_2/branch2c"
  type: "Convolution"
  bottom: "stage1_2/branch2b"
  top: "stage1_2/branch2c"
  convolution_param {
    num_output: 16
    bias_term: false
    pad: 1
    kernel_size: 3
    stride: 1
    weight_filler {
      type: "xavier"
    }
    bias_filler {
      type: "constant"
    }
  }
}
layer {
  name: "stage1_2/branch2c/bn"
  type: "BatchNorm"
  bottom: "stage1_2/branch2c"
  top: "stage1_2/branch2c"
  batch_norm_param {
    moving_average_fraction: 0.999
    eps: 0.001
  }
}
layer {
  name: "stage1_2/branch2c/scale"
  type: "Scale"
  bottom: "stage1_2/branch2c"
  top: "stage1_2/branch2c"
  scale_param {
    filler {
      value: 1
    }
    bias_term: true
    bias_filler {
      value: 0
    }
  }
}
layer {
  name: "stage1_2/branch2c/relu"
  type: "ReLU"
  bottom: "stage1_2/branch2c"
  top: "stage1_2/branch2c"
}
layer {
  name: "stage1_2/concat"
  type: "Concat"
  bottom: "stage1_1/concat"
  bottom: "stage1_2/branch1b"
  bottom: "stage1_2/branch2c"
  top: "stage1_2/concat"
  concat_param {
    axis: 1
  }
}
layer {
  name: "stage1_3/branch1a"
  type: "Convolution"
  bottom: "stage1_2/concat"
  top: "stage1_3/branch1a"
  convolution_param {
    num_output: 16
    bias_term: false
    pad: 0
    kernel_size: 1
    stride: 1
    weight_filler {
      type: "xavier"
    }
    bias_filler {
      type: "constant"
    }
  }
}
layer {
  name: "stage1_3/branch1a/bn"
  type: "BatchNorm"
  bottom: "stage1_3/branch1a"
  top: "stage1_3/branch1a"
  batch_norm_param {
    moving_average_fraction: 0.999
    eps: 0.001
  }
}
layer {
  name: "stage1_3/branch1a/scale"
  type: "Scale"
  bottom: "stage1_3/branch1a"
  top: "stage1_3/branch1a"
  scale_param {
    filler {
      value: 1
    }
    bias_term: true
    bias_filler {
      value: 0
    }
  }
}
layer {
  name: "stage1_3/branch1a/relu"
  type: "ReLU"
  bottom: "stage1_3/branch1a"
  top: "stage1_3/branch1a"
}
layer {
  name: "stage1_3/branch1b"
  type: "Convolution"
  bottom: "stage1_3/branch1a"
  top: "stage1_3/branch1b"
  convolution_param {
    num_output: 16
    bias_term: false
    pad: 1
    kernel_size: 3
    stride: 1
    weight_filler {
      type: "xavier"
    }
    bias_filler {
      type: "constant"
    }
  }
}
layer {
  name: "stage1_3/branch1b/bn"
  type: "BatchNorm"
  bottom: "stage1_3/branch1b"
  top: "stage1_3/branch1b"
  batch_norm_param {
    moving_average_fraction: 0.999
    eps: 0.001
  }
}
layer {
  name: "stage1_3/branch1b/scale"
  type: "Scale"
  bottom: "stage1_3/branch1b"
  top: "stage1_3/branch1b"
  scale_param {
    filler {
      value: 1
    }
    bias_term: true
    bias_filler {
      value: 0
    }
  }
}
layer {
  name: "stage1_3/branch1b/relu"
  type: "ReLU"
  bottom: "stage1_3/branch1b"
  top: "stage1_3/branch1b"
}
layer {
  name: "stage1_3/branch2a"
  type: "Convolution"
  bottom: "stage1_2/concat"
  top: "stage1_3/branch2a"
  convolution_param {
    num_output: 16
    bias_term: false
    pad: 0
    kernel_size: 1
    stride: 1
    weight_filler {
      type: "xavier"
    }
    bias_filler {
      type: "constant"
    }
  }
}
layer {
  name: "stage1_3/branch2a/bn"
  type: "BatchNorm"
  bottom: "stage1_3/branch2a"
  top: "stage1_3/branch2a"
  batch_norm_param {
    moving_average_fraction: 0.999
    eps: 0.001
  }
}
layer {
  name: "stage1_3/branch2a/scale"
  type: "Scale"
  bottom: "stage1_3/branch2a"
  top: "stage1_3/branch2a"
  scale_param {
    filler {
      value: 1
    }
    bias_term: true
    bias_filler {
      value: 0
    }
  }
}
layer {
  name: "stage1_3/branch2a/relu"
  type: "ReLU"
  bottom: "stage1_3/branch2a"
  top: "stage1_3/branch2a"
}
layer {
  name: "stage1_3/branch2b"
  type: "Convolution"
  bottom: "stage1_3/branch2a"
  top: "stage1_3/branch2b"
  convolution_param {
    num_output: 16
    bias_term: false
    pad: 1
    kernel_size: 3
    stride: 1
    weight_filler {
      type: "xavier"
    }
    bias_filler {
      type: "constant"
    }
  }
}
layer {
  name: "stage1_3/branch2b/bn"
  type: "BatchNorm"
  bottom: "stage1_3/branch2b"
  top: "stage1_3/branch2b"
  batch_norm_param {
    moving_average_fraction: 0.999
    eps: 0.001
  }
}
layer {
  name: "stage1_3/branch2b/scale"
  type: "Scale"
  bottom: "stage1_3/branch2b"
  top: "stage1_3/branch2b"
  scale_param {
    filler {
      value: 1
    }
    bias_term: true
    bias_filler {
      value: 0
    }
  }
}
layer {
  name: "stage1_3/branch2b/relu"
  type: "ReLU"
  bottom: "stage1_3/branch2b"
  top: "stage1_3/branch2b"
}
layer {
  name: "stage1_3/branch2c"
  type: "Convolution"
  bottom: "stage1_3/branch2b"
  top: "stage1_3/branch2c"
  convolution_param {
    num_output: 16
    bias_term: false
    pad: 1
    kernel_size: 3
    stride: 1
    weight_filler {
      type: "xavier"
    }
    bias_filler {
      type: "constant"
    }
  }
}
layer {
  name: "stage1_3/branch2c/bn"
  type: "BatchNorm"
  bottom: "stage1_3/branch2c"
  top: "stage1_3/branch2c"
  batch_norm_param {
    moving_average_fraction: 0.999
    eps: 0.001
  }
}
layer {
  name: "stage1_3/branch2c/scale"
  type: "Scale"
  bottom: "stage1_3/branch2c"
  top: "stage1_3/branch2c"
  scale_param {
    filler {
      value: 1
    }
    bias_term: true
    bias_filler {
      value: 0
    }
  }
}
layer {
  name: "stage1_3/branch2c/relu"
  type: "ReLU"
  bottom: "stage1_3/branch2c"
  top: "stage1_3/branch2c"
}
layer {
  name: "stage1_3/concat"
  type: "Concat"
  bottom: "stage1_2/concat"
  bottom: "stage1_3/branch1b"
  bottom: "stage1_3/branch2c"
  top: "stage1_3/concat"
  concat_param {
    axis: 1
  }
}
layer {
  name: "stage1_tb"
  type: "Convolution"
  bottom: "stage1_3/concat"
  top: "stage1_tb"
  convolution_param {
    num_output: 128
    bias_term: false
    pad: 0
    kernel_size: 1
    stride: 1
    weight_filler {
      type: "xavier"
    }
    bias_filler {
      type: "constant"
    }
  }
}
layer {
  name: "stage1_tb/bn"
  type: "BatchNorm"
  bottom: "stage1_tb"
  top: "stage1_tb"
  batch_norm_param {
    moving_average_fraction: 0.999
    eps: 0.001
  }
}
layer {
  name: "stage1_tb/scale"
  type: "Scale"
  bottom: "stage1_tb"
  top: "stage1_tb"
  scale_param {
    filler {
      value: 1
    }
    bias_term: true
    bias_filler {
      value: 0
    }
  }
}
layer {
  name: "stage1_tb/relu"
  type: "ReLU"
  bottom: "stage1_tb"
  top: "stage1_tb"
}
layer {
  name: "stage1_tb/pool"
  type: "Pooling"
  bottom: "stage1_tb"
  top: "stage1_tb/pool"
  pooling_param {
    pool: AVE
    kernel_size: 2
    stride: 2
  }
}
layer {
  name: "stage2_1/branch1a"
  type: "Convolution"
  bottom: "stage1_tb/pool"
  top: "stage2_1/branch1a"
  convolution_param {
    num_output: 32
    bias_term: false
    pad: 0
    kernel_size: 1
    stride: 1
    weight_filler {
      type: "xavier"
    }
    bias_filler {
      type: "constant"
    }
  }
}
layer {
  name: "stage2_1/branch1a/bn"
  type: "BatchNorm"
  bottom: "stage2_1/branch1a"
  top: "stage2_1/branch1a"
  batch_norm_param {
    moving_average_fraction: 0.999
    eps: 0.001
  }
}
layer {
  name: "stage2_1/branch1a/scale"
  type: "Scale"
  bottom: "stage2_1/branch1a"
  top: "stage2_1/branch1a"
  scale_param {
    filler {
      value: 1
    }
    bias_term: true
    bias_filler {
      value: 0
    }
  }
}
layer {
  name: "stage2_1/branch1a/relu"
  type: "ReLU"
  bottom: "stage2_1/branch1a"
  top: "stage2_1/branch1a"
}
layer {
  name: "stage2_1/branch1b"
  type: "Convolution"
  bottom: "stage2_1/branch1a"
  top: "stage2_1/branch1b"
  convolution_param {
    num_output: 16
    bias_term: false
    pad: 1
    kernel_size: 3
    stride: 1
    weight_filler {
      type: "xavier"
    }
    bias_filler {
      type: "constant"
    }
  }
}
layer {
  name: "stage2_1/branch1b/bn"
  type: "BatchNorm"
  bottom: "stage2_1/branch1b"
  top: "stage2_1/branch1b"
  batch_norm_param {
    moving_average_fraction: 0.999
    eps: 0.001
  }
}
layer {
  name: "stage2_1/branch1b/scale"
  type: "Scale"
  bottom: "stage2_1/branch1b"
  top: "stage2_1/branch1b"
  scale_param {
    filler {
      value: 1
    }
    bias_term: true
    bias_filler {
      value: 0
    }
  }
}
layer {
  name: "stage2_1/branch1b/relu"
  type: "ReLU"
  bottom: "stage2_1/branch1b"
  top: "stage2_1/branch1b"
}
layer {
  name: "stage2_1/branch2a"
  type: "Convolution"
  bottom: "stage1_tb/pool"
  top: "stage2_1/branch2a"
  convolution_param {
    num_output: 32
    bias_term: false
    pad: 0
    kernel_size: 1
    stride: 1
    weight_filler {
      type: "xavier"
    }
    bias_filler {
      type: "constant"
    }
  }
}
layer {
  name: "stage2_1/branch2a/bn"
  type: "BatchNorm"
  bottom: "stage2_1/branch2a"
  top: "stage2_1/branch2a"
  batch_norm_param {
    moving_average_fraction: 0.999
    eps: 0.001
  }
}
layer {
  name: "stage2_1/branch2a/scale"
  type: "Scale"
  bottom: "stage2_1/branch2a"
  top: "stage2_1/branch2a"
  scale_param {
    filler {
      value: 1
    }
    bias_term: true
    bias_filler {
      value: 0
    }
  }
}
layer {
  name: "stage2_1/branch2a/relu"
  type: "ReLU"
  bottom: "stage2_1/branch2a"
  top: "stage2_1/branch2a"
}
layer {
  name: "stage2_1/branch2b"
  type: "Convolution"
  bottom: "stage2_1/branch2a"
  top: "stage2_1/branch2b"
  convolution_param {
    num_output: 16
    bias_term: false
    pad: 1
    kernel_size: 3
    stride: 1
    weight_filler {
      type: "xavier"
    }
    bias_filler {
      type: "constant"
    }
  }
}
layer {
  name: "stage2_1/branch2b/bn"
  type: "BatchNorm"
  bottom: "stage2_1/branch2b"
  top: "stage2_1/branch2b"
  batch_norm_param {
    moving_average_fraction: 0.999
    eps: 0.001
  }
}
layer {
  name: "stage2_1/branch2b/scale"
  type: "Scale"
  bottom: "stage2_1/branch2b"
  top: "stage2_1/branch2b"
  scale_param {
    filler {
      value: 1
    }
    bias_term: true
    bias_filler {
      value: 0
    }
  }
}
layer {
  name: "stage2_1/branch2b/relu"
  type: "ReLU"
  bottom: "stage2_1/branch2b"
  top: "stage2_1/branch2b"
}
layer {
  name: "stage2_1/branch2c"
  type: "Convolution"
  bottom: "stage2_1/branch2b"
  top: "stage2_1/branch2c"
  convolution_param {
    num_output: 16
    bias_term: false
    pad: 1
    kernel_size: 3
    stride: 1
    weight_filler {
      type: "xavier"
    }
    bias_filler {
      type: "constant"
    }
  }
}
layer {
  name: "stage2_1/branch2c/bn"
  type: "BatchNorm"
  bottom: "stage2_1/branch2c"
  top: "stage2_1/branch2c"
  batch_norm_param {
    moving_average_fraction: 0.999
    eps: 0.001
  }
}
layer {
  name: "stage2_1/branch2c/scale"
  type: "Scale"
  bottom: "stage2_1/branch2c"
  top: "stage2_1/branch2c"
  scale_param {
    filler {
      value: 1
    }
    bias_term: true
    bias_filler {
      value: 0
    }
  }
}
layer {
  name: "stage2_1/branch2c/relu"
  type: "ReLU"
  bottom: "stage2_1/branch2c"
  top: "stage2_1/branch2c"
}
layer {
  name: "stage2_1/concat"
  type: "Concat"
  bottom: "stage1_tb/pool"
  bottom: "stage2_1/branch1b"
  bottom: "stage2_1/branch2c"
  top: "stage2_1/concat"
  concat_param {
    axis: 1
  }
}
layer {
  name: "stage2_2/branch1a"
  type: "Convolution"
  bottom: "stage2_1/concat"
  top: "stage2_2/branch1a"
  convolution_param {
    num_output: 32
    bias_term: false
    pad: 0
    kernel_size: 1
    stride: 1
    weight_filler {
      type: "xavier"
    }
    bias_filler {
      type: "constant"
    }
  }
}
layer {
  name: "stage2_2/branch1a/bn"
  type: "BatchNorm"
  bottom: "stage2_2/branch1a"
  top: "stage2_2/branch1a"
  batch_norm_param {
    moving_average_fraction: 0.999
    eps: 0.001
  }
}
layer {
  name: "stage2_2/branch1a/scale"
  type: "Scale"
  bottom: "stage2_2/branch1a"
  top: "stage2_2/branch1a"
  scale_param {
    filler {
      value: 1
    }
    bias_term: true
    bias_filler {
      value: 0
    }
  }
}
layer {
  name: "stage2_2/branch1a/relu"
  type: "ReLU"
  bottom: "stage2_2/branch1a"
  top: "stage2_2/branch1a"
}
layer {
  name: "stage2_2/branch1b"
  type: "Convolution"
  bottom: "stage2_2/branch1a"
  top: "stage2_2/branch1b"
  convolution_param {
    num_output: 16
    bias_term: false
    pad: 1
    kernel_size: 3
    stride: 1
    weight_filler {
      type: "xavier"
    }
    bias_filler {
      type: "constant"
    }
  }
}
layer {
  name: "stage2_2/branch1b/bn"
  type: "BatchNorm"
  bottom: "stage2_2/branch1b"
  top: "stage2_2/branch1b"
  batch_norm_param {
    moving_average_fraction: 0.999
    eps: 0.001
  }
}
layer {
  name: "stage2_2/branch1b/scale"
  type: "Scale"
  bottom: "stage2_2/branch1b"
  top: "stage2_2/branch1b"
  scale_param {
    filler {
      value: 1
    }
    bias_term: true
    bias_filler {
      value: 0
    }
  }
}
layer {
  name: "stage2_2/branch1b/relu"
  type: "ReLU"
  bottom: "stage2_2/branch1b"
  top: "stage2_2/branch1b"
}
layer {
  name: "stage2_2/branch2a"
  type: "Convolution"
  bottom: "stage2_1/concat"
  top: "stage2_2/branch2a"
  convolution_param {
    num_output: 32
    bias_term: false
    pad: 0
    kernel_size: 1
    stride: 1
    weight_filler {
      type: "xavier"
    }
    bias_filler {
      type: "constant"
    }
  }
}
layer {
  name: "stage2_2/branch2a/bn"
  type: "BatchNorm"
  bottom: "stage2_2/branch2a"
  top: "stage2_2/branch2a"
  batch_norm_param {
    moving_average_fraction: 0.999
    eps: 0.001
  }
}
layer {
  name: "stage2_2/branch2a/scale"
  type: "Scale"
  bottom: "stage2_2/branch2a"
  top: "stage2_2/branch2a"
  scale_param {
    filler {
      value: 1
    }
    bias_term: true
    bias_filler {
      value: 0
    }
  }
}
layer {
  name: "stage2_2/branch2a/relu"
  type: "ReLU"
  bottom: "stage2_2/branch2a"
  top: "stage2_2/branch2a"
}
layer {
  name: "stage2_2/branch2b"
  type: "Convolution"
  bottom: "stage2_2/branch2a"
  top: "stage2_2/branch2b"
  convolution_param {
    num_output: 16
    bias_term: false
    pad: 1
    kernel_size: 3
    stride: 1
    weight_filler {
      type: "xavier"
    }
    bias_filler {
      type: "constant"
    }
  }
}
layer {
  name: "stage2_2/branch2b/bn"
  type: "BatchNorm"
  bottom: "stage2_2/branch2b"
  top: "stage2_2/branch2b"
  batch_norm_param {
    moving_average_fraction: 0.999
    eps: 0.001
  }
}
layer {
  name: "stage2_2/branch2b/scale"
  type: "Scale"
  bottom: "stage2_2/branch2b"
  top: "stage2_2/branch2b"
  scale_param {
    filler {
      value: 1
    }
    bias_term: true
    bias_filler {
      value: 0
    }
  }
}
layer {
  name: "stage2_2/branch2b/relu"
  type: "ReLU"
  bottom: "stage2_2/branch2b"
  top: "stage2_2/branch2b"
}
layer {
  name: "stage2_2/branch2c"
  type: "Convolution"
  bottom: "stage2_2/branch2b"
  top: "stage2_2/branch2c"
  convolution_param {
    num_output: 16
    bias_term: false
    pad: 1
    kernel_size: 3
    stride: 1
    weight_filler {
      type: "xavier"
    }
    bias_filler {
      type: "constant"
    }
  }
}
layer {
  name: "stage2_2/branch2c/bn"
  type: "BatchNorm"
  bottom: "stage2_2/branch2c"
  top: "stage2_2/branch2c"
  batch_norm_param {
    moving_average_fraction: 0.999
    eps: 0.001
  }
}
layer {
  name: "stage2_2/branch2c/scale"
  type: "Scale"
  bottom: "stage2_2/branch2c"
  top: "stage2_2/branch2c"
  scale_param {
    filler {
      value: 1
    }
    bias_term: true
    bias_filler {
      value: 0
    }
  }
}
layer {
  name: "stage2_2/branch2c/relu"
  type: "ReLU"
  bottom: "stage2_2/branch2c"
  top: "stage2_2/branch2c"
}
layer {
  name: "stage2_2/concat"
  type: "Concat"
  bottom: "stage2_1/concat"
  bottom: "stage2_2/branch1b"
  bottom: "stage2_2/branch2c"
  top: "stage2_2/concat"
  concat_param {
    axis: 1
  }
}
layer {
  name: "stage2_3/branch1a"
  type: "Convolution"
  bottom: "stage2_2/concat"
  top: "stage2_3/branch1a"
  convolution_param {
    num_output: 32
    bias_term: false
    pad: 0
    kernel_size: 1
    stride: 1
    weight_filler {
      type: "xavier"
    }
    bias_filler {
      type: "constant"
    }
  }
}
layer {
  name: "stage2_3/branch1a/bn"
  type: "BatchNorm"
  bottom: "stage2_3/branch1a"
  top: "stage2_3/branch1a"
  batch_norm_param {
    moving_average_fraction: 0.999
    eps: 0.001
  }
}
layer {
  name: "stage2_3/branch1a/scale"
  type: "Scale"
  bottom: "stage2_3/branch1a"
  top: "stage2_3/branch1a"
  scale_param {
    filler {
      value: 1
    }
    bias_term: true
    bias_filler {
      value: 0
    }
  }
}
layer {
  name: "stage2_3/branch1a/relu"
  type: "ReLU"
  bottom: "stage2_3/branch1a"
  top: "stage2_3/branch1a"
}
layer {
  name: "stage2_3/branch1b"
  type: "Convolution"
  bottom: "stage2_3/branch1a"
  top: "stage2_3/branch1b"
  convolution_param {
    num_output: 16
    bias_term: false
    pa
I1025 13:38:27.060506 13643 layer_factory.hpp:77] Creating layer data
I1025 13:38:27.060890 13643 net.cpp:100] Creating Layer data
I1025 13:38:27.060900 13643 net.cpp:408] data -> data
I1025 13:38:27.060923 13643 net.cpp:408] data -> label
I1025 13:38:27.061653 13650 db_lmdb.cpp:35] Opened lmdb /home/qiao/caffe-ssd/data/create_lmdb/lmdb/double_camera_trainval_lmdb
I1025 13:38:27.069761 13643 annotated_data_layer.cpp:62] output data size: 16,3,300,300
I1025 13:38:27.089103 13643 net.cpp:150] Setting up data
I1025 13:38:27.089129 13643 net.cpp:157] Top shape: 16 3 300 300 (4320000)
I1025 13:38:27.089133 13643 net.cpp:157] Top shape: 1 1 13 8 (104)
I1025 13:38:27.089134 13643 net.cpp:165] Memory required for data: 17280416
I1025 13:38:27.089154 13643 layer_factory.hpp:77] Creating layer data_data_0_split
I1025 13:38:27.089166 13643 net.cpp:100] Creating Layer data_data_0_split
I1025 13:38:27.089172 13643 net.cpp:434] data_data_0_split <- data
I1025 13:38:27.089186 13643 net.cpp:408] data_data_0_split -> data_data_0_split_0
I1025 13:38:27.089196 13643 net.cpp:408] data_data_0_split -> data_data_0_split_1
I1025 13:38:27.089202 13643 net.cpp:408] data_data_0_split -> data_data_0_split_2
I1025 13:38:27.089210 13643 net.cpp:408] data_data_0_split -> data_data_0_split_3
I1025 13:38:27.089215 13643 net.cpp:408] data_data_0_split -> data_data_0_split_4
I1025 13:38:27.089239 13643 net.cpp:408] data_data_0_split -> data_data_0_split_5
I1025 13:38:27.089246 13643 net.cpp:408] data_data_0_split -> data_data_0_split_6
I1025 13:38:27.089314 13643 net.cpp:150] Setting up data_data_0_split
I1025 13:38:27.089319 13643 net.cpp:157] Top shape: 16 3 300 300 (4320000)
I1025 13:38:27.089323 13643 net.cpp:157] Top shape: 16 3 300 300 (4320000)
I1025 13:38:27.089327 13643 net.cpp:157] Top shape: 16 3 300 300 (4320000)
I1025 13:38:27.089332 13643 net.cpp:157] Top shape: 16 3 300 300 (4320000)
I1025 13:38:27.089335 13643 net.cpp:157] Top shape: 16 3 300 300 (4320000)
I1025 13:38:27.089340 13643 net.cpp:157] Top shape: 16 3 300 300 (4320000)
I1025 13:38:27.089344 13643 net.cpp:157] Top shape: 16 3 300 300 (4320000)
I1025 13:38:27.089347 13643 net.cpp:165] Memory required for data: 138240416
I1025 13:38:27.089350 13643 layer_factory.hpp:77] Creating layer stem1
I1025 13:38:27.089367 13643 net.cpp:100] Creating Layer stem1
I1025 13:38:27.089370 13643 net.cpp:434] stem1 <- data_data_0_split_0
I1025 13:38:27.089377 13643 net.cpp:408] stem1 -> stem1
I1025 13:38:27.949988 13643 net.cpp:150] Setting up stem1
I1025 13:38:27.950006 13643 net.cpp:157] Top shape: 16 32 150 150 (11520000)
I1025 13:38:27.950007 13643 net.cpp:165] Memory required for data: 184320416
I1025 13:38:27.950018 13643 layer_factory.hpp:77] Creating layer stem1/bn
I1025 13:38:27.950026 13643 net.cpp:100] Creating Layer stem1/bn
I1025 13:38:27.950031 13643 net.cpp:434] stem1/bn <- stem1
I1025 13:38:27.950035 13643 net.cpp:395] stem1/bn -> stem1 (in-place)
I1025 13:38:27.950155 13643 net.cpp:150] Setting up stem1/bn
I1025 13:38:27.950160 13643 net.cpp:157] Top shape: 16 32 150 150 (11520000)
I1025 13:38:27.950162 13643 net.cpp:165] Memory required for data: 230400416
I1025 13:38:27.950168 13643 layer_factory.hpp:77] Creating layer stem1/scale
I1025 13:38:27.950176 13643 net.cpp:100] Creating Layer stem1/scale
I1025 13:38:27.950177 13643 net.cpp:434] stem1/scale <- stem1
I1025 13:38:27.950181 13643 net.cpp:395] stem1/scale -> stem1 (in-place)
I1025 13:38:27.950206 13643 layer_factory.hpp:77] Creating layer stem1/scale
I1025 13:38:27.950287 13643 net.cpp:150] Setting up stem1/scale
I1025 13:38:27.950292 13643 net.cpp:157] Top shape: 16 32 150 150 (11520000)
I1025 13:38:27.950295 13643 net.cpp:165] Memory required for data: 276480416
I1025 13:38:27.950299 13643 layer_factory.hpp:77] Creating layer stem1/relu
I1025 13:38:27.950304 13643 net.cpp:100] Creating Layer stem1/relu
I1025 13:38:27.950305 13643 net.cpp:434] stem1/relu <- stem1
I1025 13:38:27.950309 13643 net.cpp:395] stem1/relu -> stem1 (in-place)
I1025 13:38:27.950692 13643 net.cpp:150] Setting up stem1/relu
I1025 13:38:27.950701 13643 net.cpp:157] Top shape: 16 32 150 150 (11520000)
I1025 13:38:27.950704 13643 net.cpp:165] Memory required for data: 322560416
I1025 13:38:27.950706 13643 layer_factory.hpp:77] Creating layer stem1_stem1/relu_0_split
I1025 13:38:27.950711 13643 net.cpp:100] Creating Layer stem1_stem1/relu_0_split
I1025 13:38:27.950713 13643 net.cpp:434] stem1_stem1/relu_0_split <- stem1
I1025 13:38:27.950717 13643 net.cpp:408] stem1_stem1/relu_0_split -> stem1_stem1/relu_0_split_0
I1025 13:38:27.950722 13643 net.cpp:408] stem1_stem1/relu_0_split -> stem1_stem1/relu_0_split_1
I1025 13:38:27.950747 13643 net.cpp:150] Setting up stem1_stem1/relu_0_split
I1025 13:38:27.950750 13643 net.cpp:157] Top shape: 16 32 150 150 (11520000)
I1025 13:38:27.950752 13643 net.cpp:157] Top shape: 16 32 150 150 (11520000)
I1025 13:38:27.950755 13643 net.cpp:165] Memory required for data: 414720416
I1025 13:38:27.950757 13643 layer_factory.hpp:77] Creating layer stem2a
I1025 13:38:27.950764 13643 net.cpp:100] Creating Layer stem2a
I1025 13:38:27.950767 13643 net.cpp:434] stem2a <- stem1_stem1/relu_0_split_0
I1025 13:38:27.950770 13643 net.cpp:408] stem2a -> stem2a
I1025 13:38:27.952215 13643 net.cpp:150] Setting up stem2a
I1025 13:38:27.952224 13643 net.cpp:157] Top shape: 16 16 150 150 (5760000)
I1025 13:38:27.952226 13643 net.cpp:165] Memory required for data: 437760416
I1025 13:38:27.952244 13643 layer_factory.hpp:77] Creating layer stem2a/bn
I1025 13:38:27.952250 13643 net.cpp:100] Creating Layer stem2a/bn
I1025 13:38:27.952253 13643 net.cpp:434] stem2a/bn <- stem2a
I1025 13:38:27.952256 13643 net.cpp:395] stem2a/bn -> stem2a (in-place)
I1025 13:38:27.952370 13643 net.cpp:150] Setting up stem2a/bn
I1025 13:38:27.952375 13643 net.cpp:157] Top shape: 16 16 150 150 (5760000)
I1025 13:38:27.952378 13643 net.cpp:165] Memory required for data: 460800416
I1025 13:38:27.952383 13643 layer_factory.hpp:77] Creating layer stem2a/scale
I1025 13:38:27.952389 13643 net.cpp:100] Creating Layer stem2a/scale
I1025 13:38:27.952390 13643 net.cpp:434] stem2a/scale <- stem2a
I1025 13:38:27.952394 13643 net.cpp:395] stem2a/scale -> stem2a (in-place)
I1025 13:38:27.952427 13643 layer_factory.hpp:77] Creating layer stem2a/scale
I1025 13:38:27.952541 13643 net.cpp:150] Setting up stem2a/scale
I1025 13:38:27.952548 13643 net.cpp:157] Top shape: 16 16 150 150 (5760000)
I1025 13:38:27.952550 13643 net.cpp:165] Memory required for data: 483840416
I1025 13:38:27.952554 13643 layer_factory.hpp:77] Creating layer stem2a/relu
I1025 13:38:27.952558 13643 net.cpp:100] Creating Layer stem2a/relu
I1025 13:38:27.952560 13643 net.cpp:434] stem2a/relu <- stem2a
I1025 13:38:27.952564 13643 net.cpp:395] stem2a/relu -> stem2a (in-place)
I1025 13:38:27.952848 13643 net.cpp:150] Setting up stem2a/relu
I1025 13:38:27.952855 13643 net.cpp:157] Top shape: 16 16 150 150 (5760000)
I1025 13:38:27.952857 13643 net.cpp:165] Memory required for data: 506880416
I1025 13:38:27.952860 13643 layer_factory.hpp:77] Creating layer stem2b
I1025 13:38:27.952865 13643 net.cpp:100] Creating Layer stem2b
I1025 13:38:27.952868 13643 net.cpp:434] stem2b <- stem2a
I1025 13:38:27.952873 13643 net.cpp:408] stem2b -> stem2b
I1025 13:38:27.954995 13643 net.cpp:150] Setting up stem2b
I1025 13:38:27.955005 13643 net.cpp:157] Top shape: 16 32 75 75 (2880000)
I1025 13:38:27.955008 13643 net.cpp:165] Memory required for data: 518400416
I1025 13:38:27.955013 13643 layer_factory.hpp:77] Creating layer stem2b/bn
I1025 13:38:27.955018 13643 net.cpp:100] Creating Layer stem2b/bn
I1025 13:38:27.955020 13643 net.cpp:434] stem2b/bn <- stem2b
I1025 13:38:27.955025 13643 net.cpp:395] stem2b/bn -> stem2b (in-place)
I1025 13:38:27.955142 13643 net.cpp:150] Setting up stem2b/bn
I1025 13:38:27.955147 13643 net.cpp:157] Top shape: 16 32 75 75 (2880000)
I1025 13:38:27.955149 13643 net.cpp:165] Memory required for data: 529920416
I1025 13:38:27.955154 13643 layer_factory.hpp:77] Creating layer stem2b/scale
I1025 13:38:27.955158 13643 net.cpp:100] Creating Layer stem2b/scale
I1025 13:38:27.955161 13643 net.cpp:434] stem2b/scale <- stem2b
I1025 13:38:27.955163 13643 net.cpp:395] stem2b/scale -> stem2b (in-place)
I1025 13:38:27.955186 13643 layer_factory.hpp:77] Creating layer stem2b/scale
I1025 13:38:27.955255 13643 net.cpp:150] Setting up stem2b/scale
I1025 13:38:27.955260 13643 net.cpp:157] Top shape: 16 32 75 75 (2880000)
I1025 13:38:27.955261 13643 net.cpp:165] Memory required for data: 541440416
I1025 13:38:27.955268 13643 layer_factory.hpp:77] Creating layer stem2b/relu
I1025 13:38:27.955271 13643 net.cpp:100] Creating Layer stem2b/relu
I1025 13:38:27.955273 13643 net.cpp:434] stem2b/relu <- stem2b
I1025 13:38:27.955277 13643 net.cpp:395] stem2b/relu -> stem2b (in-place)
I1025 13:38:27.955643 13643 net.cpp:150] Setting up stem2b/relu
I1025 13:38:27.955651 13643 net.cpp:157] Top shape: 16 32 75 75 (2880000)
I1025 13:38:27.955654 13643 net.cpp:165] Memory required for data: 552960416
I1025 13:38:27.955657 13643 layer_factory.hpp:77] Creating layer stem/pool
I1025 13:38:27.955663 13643 net.cpp:100] Creating Layer stem/pool
I1025 13:38:27.955667 13643 net.cpp:434] stem/pool <- stem1_stem1/relu_0_split_1
I1025 13:38:27.955669 13643 net.cpp:408] stem/pool -> stem/pool
I1025 13:38:27.955703 13643 net.cpp:150] Setting up stem/pool
I1025 13:38:27.955708 13643 net.cpp:157] Top shape: 16 32 75 75 (2880000)
I1025 13:38:27.955710 13643 net.cpp:165] Memory required for data: 564480416
I1025 13:38:27.955724 13643 layer_factory.hpp:77] Creating layer stem/concat
I1025 13:38:27.955730 13643 net.cpp:100] Creating Layer stem/concat
I1025 13:38:27.955734 13643 net.cpp:434] stem/concat <- stem/pool
I1025 13:38:27.955736 13643 net.cpp:434] stem/concat <- stem2b
I1025 13:38:27.955739 13643 net.cpp:408] stem/concat -> stem/concat
I1025 13:38:27.955754 13643 net.cpp:150] Setting up stem/concat
I1025 13:38:27.955760 13643 net.cpp:157] Top shape: 16 64 75 75 (5760000)
I1025 13:38:27.955761 13643 net.cpp:165] Memory required for data: 587520416
I1025 13:38:27.955763 13643 layer_factory.hpp:77] Creating layer stem3
I1025 13:38:27.955768 13643 net.cpp:100] Creating Layer stem3
I1025 13:38:27.955772 13643 net.cpp:434] stem3 <- stem/concat
I1025 13:38:27.955776 13643 net.cpp:408] stem3 -> stem3
I1025 13:38:27.957129 13643 net.cpp:150] Setting up stem3
I1025 13:38:27.957137 13643 net.cpp:157] Top shape: 16 32 75 75 (2880000)
I1025 13:38:27.957141 13643 net.cpp:165] Memory required for data: 599040416
I1025 13:38:27.957144 13643 layer_factory.hpp:77] Creating layer stem3/bn
I1025 13:38:27.957150 13643 net.cpp:100] Creating Layer stem3/bn
I1025 13:38:27.957152 13643 net.cpp:434] stem3/bn <- stem3
I1025 13:38:27.957157 13643 net.cpp:395] stem3/bn -> stem3 (in-place)
I1025 13:38:27.957274 13643 net.cpp:150] Setting up stem3/bn
I1025 13:38:27.957279 13643 net.cpp:157] Top shape: 16 32 75 75 (2880000)
I1025 13:38:27.957283 13643 net.cpp:165] Memory required for data: 610560416
I1025 13:38:27.957289 13643 layer_factory.hpp:77] Creating layer stem3/scale
I1025 13:38:27.957294 13643 net.cpp:100] Creating Layer stem3/scale
I1025 13:38:27.957298 13643 net.cpp:434] stem3/scale <- stem3
I1025 13:38:27.957304 13643 net.cpp:395] stem3/scale -> stem3 (in-place)
I1025 13:38:27.957329 13643 layer_factory.hpp:77] Creating layer stem3/scale
I1025 13:38:27.957396 13643 net.cpp:150] Setting up stem3/scale
I1025 13:38:27.957401 13643 net.cpp:157] Top shape: 16 32 75 75 (2880000)
I1025 13:38:27.957402 13643 net.cpp:165] Memory required for data: 622080416
I1025 13:38:27.957406 13643 layer_factory.hpp:77] Creating layer stem3/relu
I1025 13:38:27.957410 13643 net.cpp:100] Creating Layer stem3/relu
I1025 13:38:27.957412 13643 net.cpp:434] stem3/relu <- stem3
I1025 13:38:27.957417 13643 net.cpp:395] stem3/relu -> stem3 (in-place)
I1025 13:38:27.957866 13643 net.cpp:150] Setting up stem3/relu
I1025 13:38:27.957875 13643 net.cpp:157] Top shape: 16 32 75 75 (2880000)
I1025 13:38:27.957876 13643 net.cpp:165] Memory required for data: 633600416
I1025 13:38:27.957880 13643 layer_factory.hpp:77] Creating layer stem3_stem3/relu_0_split
I1025 13:38:27.957885 13643 net.cpp:100] Creating Layer stem3_stem3/relu_0_split
I1025 13:38:27.957888 13643 net.cpp:434] stem3_stem3/relu_0_split <- stem3
I1025 13:38:27.957891 13643 net.cpp:408] stem3_stem3/relu_0_split -> stem3_stem3/relu_0_split_0
I1025 13:38:27.957897 13643 net.cpp:408] stem3_stem3/relu_0_split -> stem3_stem3/relu_0_split_1
I1025 13:38:27.957902 13643 net.cpp:408] stem3_stem3/relu_0_split -> stem3_stem3/relu_0_split_2
I1025 13:38:27.957937 13643 net.cpp:150] Setting up stem3_stem3/relu_0_split
I1025 13:38:27.957940 13643 net.cpp:157] Top shape: 16 32 75 75 (2880000)
I1025 13:38:27.957944 13643 net.cpp:157] Top shape: 16 32 75 75 (2880000)
I1025 13:38:27.957948 13643 net.cpp:157] Top shape: 16 32 75 75 (2880000)
I1025 13:38:27.957952 13643 net.cpp:165] Memory required for data: 668160416
I1025 13:38:27.957954 13643 layer_factory.hpp:77] Creating layer stage1_1/branch1a
I1025 13:38:27.957962 13643 net.cpp:100] Creating Layer stage1_1/branch1a
I1025 13:38:27.957967 13643 net.cpp:434] stage1_1/branch1a <- stem3_stem3/relu_0_split_0
I1025 13:38:27.957973 13643 net.cpp:408] stage1_1/branch1a -> stage1_1/branch1a
I1025 13:38:27.959343 13643 net.cpp:150] Setting up stage1_1/branch1a
I1025 13:38:27.959352 13643 net.cpp:157] Top shape: 16 16 75 75 (1440000)
I1025 13:38:27.959354 13643 net.cpp:165] Memory required for data: 673920416
I1025 13:38:27.959358 13643 layer_factory.hpp:77] Creating layer stage1_1/branch1a/bn
I1025 13:38:27.959372 13643 net.cpp:100] Creating Layer stage1_1/branch1a/bn
I1025 13:38:27.959374 13643 net.cpp:434] stage1_1/branch1a/bn <- stage1_1/branch1a
I1025 13:38:27.959379 13643 net.cpp:395] stage1_1/branch1a/bn -> stage1_1/branch1a (in-place)
I1025 13:38:27.959494 13643 net.cpp:150] Setting up stage1_1/branch1a/bn
I1025 13:38:27.959499 13643 net.cpp:157] Top shape: 16 16 75 75 (1440000)
I1025 13:38:27.959501 13643 net.cpp:165] Memory required for data: 679680416
I1025 13:38:27.959506 13643 layer_factory.hpp:77] Creating layer stage1_1/branch1a/scale
I1025 13:38:27.959511 13643 net.cpp:100] Creating Layer stage1_1/branch1a/scale
I1025 13:38:27.959512 13643 net.cpp:434] stage1_1/branch1a/scale <- stage1_1/branch1a
I1025 13:38:27.959515 13643 net.cpp:395] stage1_1/branch1a/scale -> stage1_1/branch1a (in-place)
I1025 13:38:27.959537 13643 layer_factory.hpp:77] Creating layer stage1_1/branch1a/scale
I1025 13:38:27.959602 13643 net.cpp:150] Setting up stage1_1/branch1a/scale
I1025 13:38:27.959607 13643 net.cpp:157] Top shape: 16 16 75 75 (1440000)
I1025 13:38:27.959609 13643 net.cpp:165] Memory required for data: 685440416
I1025 13:38:27.959614 13643 layer_factory.hpp:77] Creating layer stage1_1/branch1a/relu
I1025 13:38:27.959616 13643 net.cpp:100] Creating Layer stage1_1/branch1a/relu
I1025 13:38:27.959619 13643 net.cpp:434] stage1_1/branch1a/relu <- stage1_1/branch1a
I1025 13:38:27.959621 13643 net.cpp:395] stage1_1/branch1a/relu -> stage1_1/branch1a (in-place)
I1025 13:38:27.960642 13643 net.cpp:150] Setting up stage1_1/branch1a/relu
I1025 13:38:27.960650 13643 net.cpp:157] Top shape: 16 16 75 75 (1440000)
I1025 13:38:27.960654 13643 net.cpp:165] Memory required for data: 691200416
I1025 13:38:27.960655 13643 layer_factory.hpp:77] Creating layer stage1_1/branch1b
I1025 13:38:27.960662 13643 net.cpp:100] Creating Layer stage1_1/branch1b
I1025 13:38:27.960665 13643 net.cpp:434] stage1_1/branch1b <- stage1_1/branch1a
I1025 13:38:27.960669 13643 net.cpp:408] stage1_1/branch1b -> stage1_1/branch1b
I1025 13:38:27.962074 13643 net.cpp:150] Setting up stage1_1/branch1b
I1025 13:38:27.962085 13643 net.cpp:157] Top shape: 16 16 75 75 (1440000)
I1025 13:38:27.962087 13643 net.cpp:165] Memory required for data: 696960416
I1025 13:38:27.962090 13643 layer_factory.hpp:77] Creating layer stage1_1/branch1b/bn
I1025 13:38:27.962095 13643 net.cpp:100] Creating Layer stage1_1/branch1b/bn
I1025 13:38:27.962098 13643 net.cpp:434] stage1_1/branch1b/bn <- stage1_1/branch1b
I1025 13:38:27.962101 13643 net.cpp:395] stage1_1/branch1b/bn -> stage1_1/branch1b (in-place)
I1025 13:38:27.962230 13643 net.cpp:150] Setting up stage1_1/branch1b/bn
I1025 13:38:27.962237 13643 net.cpp:157] Top shape: 16 16 75 75 (1440000)
I1025 13:38:27.962241 13643 net.cpp:165] Memory required for data: 702720416
I1025 13:38:27.962252 13643 layer_factory.hpp:77] Creating layer stage1_1/branch1b/scale
I1025 13:38:27.962260 13643 net.cpp:100] Creating Layer stage1_1/branch1b/scale
I1025 13:38:27.962262 13643 net.cpp:434] stage1_1/branch1b/scale <- stage1_1/branch1b
I1025 13:38:27.962270 13643 net.cpp:395] stage1_1/branch1b/scale -> stage1_1/branch1b (in-place)
I1025 13:38:27.962299 13643 layer_factory.hpp:77] Creating layer stage1_1/branch1b/scale
I1025 13:38:27.962380 13643 net.cpp:150] Setting up stage1_1/branch1b/scale
I1025 13:38:27.962386 13643 net.cpp:157] Top shape: 16 16 75 75 (1440000)
I1025 13:38:27.962388 13643 net.cpp:165] Memory required for data: 708480416
I1025 13:38:27.962393 13643 layer_factory.hpp:77] Creating layer stage1_1/branch1b/relu
I1025 13:38:27.962396 13643 net.cpp:100] Creating Layer stage1_1/branch1b/relu
I1025 13:38:27.962399 13643 net.cpp:434] stage1_1/branch1b/relu <- stage1_1/branch1b
I1025 13:38:27.962402 13643 net.cpp:395] stage1_1/branch1b/relu -> stage1_1/branch1b (in-place)
I1025 13:38:27.962785 13643 net.cpp:150] Setting up stage1_1/branch1b/relu
I1025 13:38:27.962792 13643 net.cpp:157] Top shape: 16 16 75 75 (1440000)
I1025 13:38:27.962795 13643 net.cpp:165] Memory required for data: 714240416
I1025 13:38:27.962797 13643 layer_factory.hpp:77] Creating layer stage1_1/branch2a
I1025 13:38:27.962815 13643 net.cpp:100] Creating Layer stage1_1/branch2a
I1025 13:38:27.962817 13643 net.cpp:434] stage1_1/branch2a <- stem3_stem3/relu_0_split_1
I1025 13:38:27.962822 13643 net.cpp:408] stage1_1/branch2a -> stage1_1/branch2a
I1025 13:38:27.964426 13643 net.cpp:150] Setting up stage1_1/branch2a
I1025 13:38:27.964433 13643 net.cpp:157] Top shape: 16 16 75 75 (1440000)
I1025 13:38:27.964437 13643 net.cpp:165] Memory required for data: 720000416
I1025 13:38:27.964439 13643 layer_factory.hpp:77] Creating layer stage1_1/branch2a/bn
I1025 13:38:27.964444 13643 net.cpp:100] Creating Layer stage1_1/branch2a/bn
I1025 13:38:27.964447 13643 net.cpp:434] stage1_1/branch2a/bn <- stage1_1/branch2a
I1025 13:38:27.964452 13643 net.cpp:395] stage1_1/branch2a/bn -> stage1_1/branch2a (in-place)
I1025 13:38:27.964565 13643 net.cpp:150] Setting up stage1_1/branch2a/bn
I1025 13:38:27.964568 13643 net.cpp:157] Top shape: 16 16 75 75 (1440000)
I1025 13:38:27.964570 13643 net.cpp:165] Memory required for data: 725760416
I1025 13:38:27.964576 13643 layer_factory.hpp:77] Creating layer stage1_1/branch2a/scale
I1025 13:38:27.964582 13643 net.cpp:100] Creating Layer stage1_1/branch2a/scale
I1025 13:38:27.964586 13643 net.cpp:434] stage1_1/branch2a/scale <- stage1_1/branch2a
I1025 13:38:27.964588 13643 net.cpp:395] stage1_1/branch2a/scale -> stage1_1/branch2a (in-place)
I1025 13:38:27.964612 13643 layer_factory.hpp:77] Creating layer stage1_1/branch2a/scale
I1025 13:38:27.964679 13643 net.cpp:150] Setting up stage1_1/branch2a/scale
I1025 13:38:27.964684 13643 net.cpp:157] Top shape: 16 16 75 75 (1440000)
I1025 13:38:27.964685 13643 net.cpp:165] Memory required for data: 731520416
I1025 13:38:27.964689 13643 layer_factory.hpp:77] Creating layer stage1_1/branch2a/relu
I1025 13:38:27.964692 13643 net.cpp:100] Creating Layer stage1_1/branch2a/relu
I1025 13:38:27.964696 13643 net.cpp:434] stage1_1/branch2a/relu <- stage1_1/branch2a
I1025 13:38:27.964699 13643 net.cpp:395] stage1_1/branch2a/relu -> stage1_1/branch2a (in-place)
I1025 13:38:27.964982 13643 net.cpp:150] Setting up stage1_1/branch2a/relu
I1025 13:38:27.964989 13643 net.cpp:157] Top shape: 16 16 75 75 (1440000)
I1025 13:38:27.964993 13643 net.cpp:165] Memory required for data: 737280416
I1025 13:38:27.964994 13643 layer_factory.hpp:77] Creating layer stage1_1/branch2b
I1025 13:38:27.965000 13643 net.cpp:100] Creating Layer stage1_1/branch2b
I1025 13:38:27.965003 13643 net.cpp:434] stage1_1/branch2b <- stage1_1/branch2a
I1025 13:38:27.965008 13643 net.cpp:408] stage1_1/branch2b -> stage1_1/branch2b
I1025 13:38:27.967120 13643 net.cpp:150] Setting up stage1_1/branch2b
I1025 13:38:27.967129 13643 net.cpp:157] Top shape: 16 16 75 75 (1440000)
I1025 13:38:27.967131 13643 net.cpp:165] Memory required for data: 743040416
I1025 13:38:27.967135 13643 layer_factory.hpp:77] Creating layer stage1_1/branch2b/bn
I1025 13:38:27.967140 13643 net.cpp:100] Creating Layer stage1_1/branch2b/bn
I1025 13:38:27.967144 13643 net.cpp:434] stage1_1/branch2b/bn <- stage1_1/branch2b
I1025 13:38:27.967146 13643 net.cpp:395] stage1_1/branch2b/bn -> stage1_1/branch2b (in-place)
I1025 13:38:27.967262 13643 net.cpp:150] Setting up stage1_1/branch2b/bn
I1025 13:38:27.967267 13643 net.cpp:157] Top shape: 16 16 75 75 (1440000)
I1025 13:38:27.967268 13643 net.cpp:165] Memory required for data: 748800416
I1025 13:38:27.967272 13643 layer_factory.hpp:77] Creating layer stage1_1/branch2b/scale
I1025 13:38:27.967278 13643 net.cpp:100] Creating Layer stage1_1/branch2b/scale
I1025 13:38:27.967279 13643 net.cpp:434] stage1_1/branch2b/scale <- stage1_1/branch2b
I1025 13:38:27.967283 13643 net.cpp:395] stage1_1/branch2b/scale -> stage1_1/branch2b (in-place)
I1025 13:38:27.967304 13643 layer_factory.hpp:77] Creating layer stage1_1/branch2b/scale
I1025 13:38:27.967371 13643 net.cpp:150] Setting up stage1_1/branch2b/scale
I1025 13:38:27.967375 13643 net.cpp:157] Top shape: 16 16 75 75 (1440000)
I1025 13:38:27.967377 13643 net.cpp:165] Memory required for data: 754560416
I1025 13:38:27.967391 13643 layer_factory.hpp:77] Creating layer stage1_1/branch2b/relu
I1025 13:38:27.967394 13643 net.cpp:100] Creating Layer stage1_1/branch2b/relu
I1025 13:38:27.967396 13643 net.cpp:434] stage1_1/branch2b/relu <- stage1_1/branch2b
I1025 13:38:27.967401 13643 net.cpp:395] stage1_1/branch2b/relu -> stage1_1/branch2b (in-place)
I1025 13:38:27.967680 13643 net.cpp:150] Setting up stage1_1/branch2b/relu
I1025 13:38:27.967687 13643 net.cpp:157] Top shape: 16 16 75 75 (1440000)
I1025 13:38:27.967689 13643 net.cpp:165] Memory required for data: 760320416
I1025 13:38:27.967691 13643 layer_factory.hpp:77] Creating layer stage1_1/branch2c
I1025 13:38:27.967698 13643 net.cpp:100] Creating Layer stage1_1/branch2c
I1025 13:38:27.967701 13643 net.cpp:434] stage1_1/branch2c <- stage1_1/branch2b
I1025 13:38:27.967705 13643 net.cpp:408] stage1_1/branch2c -> stage1_1/branch2c
I1025 13:38:27.969147 13643 net.cpp:150] Setting up stage1_1/branch2c
I1025 13:38:27.969156 13643 net.cpp:157] Top shape: 16 16 75 75 (1440000)
I1025 13:38:27.969157 13643 net.cpp:165] Memory required for data: 766080416
I1025 13:38:27.969161 13643 layer_factory.hpp:77] Creating layer stage1_1/branch2c/bn
I1025 13:38:27.969166 13643 net.cpp:100] Creating Layer stage1_1/branch2c/bn
I1025 13:38:27.969167 13643 net.cpp:434] stage1_1/branch2c/bn <- stage1_1/branch2c
I1025 13:38:27.969172 13643 net.cpp:395] stage1_1/branch2c/bn -> stage1_1/branch2c (in-place)
I1025 13:38:27.969287 13643 net.cpp:150] Setting up stage1_1/branch2c/bn
I1025 13:38:27.969292 13643 net.cpp:157] Top shape: 16 16 75 75 (1440000)
I1025 13:38:27.969293 13643 net.cpp:165] Memory required for data: 771840416
I1025 13:38:27.969298 13643 layer_factory.hpp:77] Creating layer stage1_1/branch2c/scale
I1025 13:38:27.969302 13643 net.cpp:100] Creating Layer stage1_1/branch2c/scale
I1025 13:38:27.969305 13643 net.cpp:434] stage1_1/branch2c/scale <- stage1_1/branch2c
I1025 13:38:27.969308 13643 net.cpp:395] stage1_1/branch2c/scale -> stage1_1/branch2c (in-place)
I1025 13:38:27.969329 13643 layer_factory.hpp:77] Creating layer stage1_1/branch2c/scale
I1025 13:38:27.969395 13643 net.cpp:150] Setting up stage1_1/branch2c/scale
I1025 13:38:27.969399 13643 net.cpp:157] Top shape: 16 16 75 75 (1440000)
I1025 13:38:27.969401 13643 net.cpp:165] Memory required for data: 777600416
I1025 13:38:27.969405 13643 layer_factory.hpp:77] Creating layer stage1_1/branch2c/relu
I1025 13:38:27.969408 13643 net.cpp:100] Creating Layer stage1_1/branch2c/relu
I1025 13:38:27.969410 13643 net.cpp:434] stage1_1/branch2c/relu <- stage1_1/branch2c
I1025 13:38:27.969414 13643 net.cpp:395] stage1_1/branch2c/relu -> stage1_1/branch2c (in-place)
I1025 13:38:27.969818 13643 net.cpp:150] Setting up stage1_1/branch2c/relu
I1025 13:38:27.969826 13643 net.cpp:157] Top shape: 16 16 75 75 (1440000)
I1025 13:38:27.969828 13643 net.cpp:165] Memory required for data: 783360416
I1025 13:38:27.969830 13643 layer_factory.hpp:77] Creating layer stage1_1/concat
I1025 13:38:27.969836 13643 net.cpp:100] Creating Layer stage1_1/concat
I1025 13:38:27.969839 13643 net.cpp:434] stage1_1/concat <- stem3_stem3/relu_0_split_2
I1025 13:38:27.969842 13643 net.cpp:434] stage1_1/concat <- stage1_1/branch1b
I1025 13:38:27.969844 13643 net.cpp:434] stage1_1/concat <- stage1_1/branch2c
I1025 13:38:27.969848 13643 net.cpp:408] stage1_1/concat -> stage1_1/concat
I1025 13:38:27.969867 13643 net.cpp:150] Setting up stage1_1/concat
I1025 13:38:27.969871 13643 net.cpp:157] Top shape: 16 64 75 75 (5760000)
I1025 13:38:27.969873 13643 net.cpp:165] Memory required for data: 806400416
I1025 13:38:27.969875 13643 layer_factory.hpp:77] Creating layer stage1_1/concat_stage1_1/concat_0_split
I1025 13:38:27.969879 13643 net.cpp:100] Creating Layer stage1_1/concat_stage1_1/concat_0_split
I1025 13:38:27.969882 13643 net.cpp:434] stage1_1/concat_stage1_1/concat_0_split <- stage1_1/concat
I1025 13:38:27.969885 13643 net.cpp:408] stage1_1/concat_stage1_1/concat_0_split -> stage1_1/concat_stage1_1/concat_0_split_0
I1025 13:38:27.969892 13643 net.cpp:408] stage1_1/concat_stage1_1/concat_0_split -> stage1_1/concat_stage1_1/concat_0_split_1
I1025 13:38:27.969903 13643 net.cpp:408] stage1_1/concat_stage1_1/concat_0_split -> stage1_1/concat_stage1_1/concat_0_split_2
I1025 13:38:27.969933 13643 net.cpp:150] Setting up stage1_1/concat_stage1_1/concat_0_split
I1025 13:38:27.969935 13643 net.cpp:157] Top shape: 16 64 75 75 (5760000)
I1025 13:38:27.969938 13643 net.cpp:157] Top shape: 16 64 75 75 (5760000)
I1025 13:38:27.969941 13643 net.cpp:157] Top shape: 16 64 75 75 (5760000)
I1025 13:38:27.969944 13643 net.cpp:165] Memory required for data: 875520416
I1025 13:38:27.969944 13643 layer_factory.hpp:77] Creating layer stage1_2/branch1a
I1025 13:38:27.969951 13643 net.cpp:100] Creating Layer stage1_2/branch1a
I1025 13:38:27.969954 13643 net.cpp:434] stage1_2/branch1a <- stage1_1/concat_stage1_1/concat_0_split_0
I1025 13:38:27.969959 13643 net.cpp:408] stage1_2/branch1a -> stage1_2/branch1a
I1025 13:38:27.971410 13643 net.cpp:150] Setting up stage1_2/branch1a
I1025 13:38:27.971418 13643 net.cpp:157] Top shape: 16 16 75 75 (1440000)
I1025 13:38:27.971421 13643 net.cpp:165] Memory required for data: 881280416
I1025 13:38:27.971424 13643 layer_factory.hpp:77] Creating layer stage1_2/branch1a/bn
I1025 13:38:27.971431 13643 net.cpp:100] Creating Layer stage1_2/branch1a/bn
I1025 13:38:27.971434 13643 net.cpp:434] stage1_2/branch1a/bn <- stage1_2/branch1a
I1025 13:38:27.971437 13643 net.cpp:395] stage1_2/branch1a/bn -> stage1_2/branch1a (in-place)
I1025 13:38:27.971554 13643 net.cpp:150] Setting up stage1_2/branch1a/bn
I1025 13:38:27.971560 13643 net.cpp:157] Top shape: 16 16 75 75 (1440000)
I1025 13:38:27.971562 13643 net.cpp:165] Memory required for data: 887040416
I1025 13:38:27.971566 13643 layer_factory.hpp:77] Creating layer stage1_2/branch1a/scale
I1025 13:38:27.971571 13643 net.cpp:100] Creating Layer stage1_2/branch1a/scale
I1025 13:38:27.971573 13643 net.cpp:434] stage1_2/branch1a/scale <- stage1_2/branch1a
I1025 13:38:27.971578 13643 net.cpp:395] stage1_2/branch1a/scale -> stage1_2/branch1a (in-place)
I1025 13:38:27.971601 13643 layer_factory.hpp:77] Creating layer stage1_2/branch1a/scale
I1025 13:38:27.971669 13643 net.cpp:150] Setting up stage1_2/branch1a/scale
I1025 13:38:27.971673 13643 net.cpp:157] Top shape: 16 16 75 75 (1440000)
I1025 13:38:27.971676 13643 net.cpp:165] Memory required for data: 892800416
I1025 13:38:27.971679 13643 layer_factory.hpp:77] Creating layer stage1_2/branch1a/relu
I1025 13:38:27.971683 13643 net.cpp:100] Creating Layer stage1_2/branch1a/relu
I1025 13:38:27.971684 13643 net.cpp:434] stage1_2/branch1a/relu <- stage1_2/branch1a
I1025 13:38:27.971689 13643 net.cpp:395] stage1_2/branch1a/relu -> stage1_2/branch1a (in-place)
I1025 13:38:27.972721 13643 net.cpp:150] Setting up stage1_2/branch1a/relu
I1025 13:38:27.972729 13643 net.cpp:157] Top shape: 16 16 75 75 (1440000)
I1025 13:38:27.972731 13643 net.cpp:165] Memory required for data: 898560416
I1025 13:38:27.972735 13643 layer_factory.hpp:77] Creating layer stage1_2/branch1b
I1025 13:38:27.972741 13643 net.cpp:100] Creating Layer stage1_2/branch1b
I1025 13:38:27.972744 13643 net.cpp:434] stage1_2/branch1b <- stage1_2/branch1a
I1025 13:38:27.972748 13643 net.cpp:408] stage1_2/branch1b -> stage1_2/branch1b
I1025 13:38:27.974130 13643 net.cpp:150] Setting up stage1_2/branch1b
I1025 13:38:27.974138 13643 net.cpp:157] Top shape: 16 16 75 75 (1440000)
I1025 13:38:27.974140 13643 net.cpp:165] Memory required for data: 904320416
I1025 13:38:27.974143 13643 layer_factory.hpp:77] Creating layer stage1_2/branch1b/bn
I1025 13:38:27.974148 13643 net.cpp:100] Creating Layer stage1_2/branch1b/bn
I1025 13:38:27.974151 13643 net.cpp:434] stage1_2/branch1b/bn <- stage1_2/branch1b
I1025 13:38:27.974155 13643 net.cpp:395] stage1_2/branch1b/bn -> stage1_2/branch1b (in-place)
I1025 13:38:27.974272 13643 net.cpp:150] Setting up stage1_2/branch1b/bn
I1025 13:38:27.974277 13643 net.cpp:157] Top shape: 16 16 75 75 (1440000)
I1025 13:38:27.974279 13643 net.cpp:165] Memory required for data: 910080416
I1025 13:38:27.974283 13643 layer_factory.hpp:77] Creating layer stage1_2/branch1b/scale
I1025 13:38:27.974298 13643 net.cpp:100] Creating Layer stage1_2/branch1b/scale
I1025 13:38:27.974300 13643 net.cpp:434] stage1_2/branch1b/scale <- stage1_2/branch1b
I1025 13:38:27.974304 13643 net.cpp:395] stage1_2/branch1b/scale -> stage1_2/branch1b (in-place)
I1025 13:38:27.974326 13643 layer_factory.hpp:77] Creating layer stage1_2/branch1b/scale
I1025 13:38:27.974397 13643 net.cpp:150] Setting up stage1_2/branch1b/scale
I1025 13:38:27.974402 13643 net.cpp:157] Top shape: 16 16 75 75 (1440000)
I1025 13:38:27.974404 13643 net.cpp:165] Memory required for data: 915840416
I1025 13:38:27.974414 13643 layer_factory.hpp:77] Creating layer stage1_2/branch1b/relu
I1025 13:38:27.974417 13643 net.cpp:100] Creating Layer stage1_2/branch1b/relu
I1025 13:38:27.974421 13643 net.cpp:434] stage1_2/branch1b/relu <- stage1_2/branch1b
I1025 13:38:27.974423 13643 net.cpp:395] stage1_2/branch1b/relu -> stage1_2/branch1b (in-place)
I1025 13:38:27.974800 13643 net.cpp:150] Setting up stage1_2/branch1b/relu
I1025 13:38:27.974808 13643 net.cpp:157] Top shape: 16 16 75 75 (1440000)
I1025 13:38:27.974810 13643 net.cpp:165] Memory required for data: 921600416
I1025 13:38:27.974813 13643 layer_factory.hpp:77] Creating layer stage1_2/branch2a
I1025 13:38:27.974819 13643 net.cpp:100] Creating Layer stage1_2/branch2a
I1025 13:38:27.974822 13643 net.cpp:434] stage1_2/branch2a <- stage1_1/concat_stage1_1/concat_0_split_1
I1025 13:38:27.974828 13643 net.cpp:408] stage1_2/branch2a -> stage1_2/branch2a
I1025 13:38:27.976176 13643 net.cpp:150] Setting up stage1_2/branch2a
I1025 13:38:27.976184 13643 net.cpp:157] Top shape: 16 16 75 75 (1440000)
I1025 13:38:27.976186 13643 net.cpp:165] Memory required for data: 927360416
I1025 13:38:27.976191 13643 layer_factory.hpp:77] Creating layer stage1_2/branch2a/bn
I1025 13:38:27.976194 13643 net.cpp:100] Creating Layer stage1_2/branch2a/bn
I1025 13:38:27.976197 13643 net.cpp:434] stage1_2/branch2a/bn <- stage1_2/branch2a
I1025 13:38:27.976202 13643 net.cpp:395] stage1_2/branch2a/bn -> stage1_2/branch2a (in-place)
I1025 13:38:27.976317 13643 net.cpp:150] Setting up stage1_2/branch2a/bn
I1025 13:38:27.976322 13643 net.cpp:157] Top shape: 16 16 75 75 (1440000)
I1025 13:38:27.976323 13643 net.cpp:165] Memory required for data: 933120416
I1025 13:38:27.976328 13643 layer_factory.hpp:77] Creating layer stage1_2/branch2a/scale
I1025 13:38:27.976332 13643 net.cpp:100] Creating Layer stage1_2/branch2a/scale
I1025 13:38:27.976334 13643 net.cpp:434] stage1_2/branch2a/scale <- stage1_2/branch2a
I1025 13:38:27.976338 13643 net.cpp:395] stage1_2/branch2a/scale -> stage1_2/branch2a (in-place)
I1025 13:38:27.976359 13643 layer_factory.hpp:77] Creating layer stage1_2/branch2a/scale
I1025 13:38:27.976429 13643 net.cpp:150] Setting up stage1_2/branch2a/scale
I1025 13:38:27.976433 13643 net.cpp:157] Top shape: 16 16 75 75 (1440000)
I1025 13:38:27.976435 13643 net.cpp:165] Memory required for data: 938880416
I1025 13:38:27.976438 13643 layer_factory.hpp:77] Creating layer stage1_2/branch2a/relu
I1025 13:38:27.976442 13643 net.cpp:100] Creating Layer stage1_2/branch2a/relu
I1025 13:38:27.976444 13643 net.cpp:434] stage1_2/branch2a/relu <- stage1_2/branch2a
I1025 13:38:27.976449 13643 net.cpp:395] stage1_2/branch2a/relu -> stage1_2/branch2a (in-place)
I1025 13:38:27.976815 13643 net.cpp:150] Setting up stage1_2/branch2a/relu
I1025 13:38:27.976822 13643 net.cpp:157] Top shape: 16 16 75 75 (1440000)
I1025 13:38:27.976824 13643 net.cpp:165] Memory required for data: 944640416
I1025 13:38:27.976827 13643 layer_factory.hpp:77] Creating layer stage1_2/branch2b
I1025 13:38:27.976835 13643 net.cpp:100] Creating Layer stage1_2/branch2b
I1025 13:38:27.976837 13643 net.cpp:434] stage1_2/branch2b <- stage1_2/branch2a
I1025 13:38:27.976841 13643 net.cpp:408] stage1_2/branch2b -> stage1_2/branch2b
I1025 13:38:27.979746 13643 net.cpp:150] Setting up stage1_2/branch2b
I1025 13:38:27.979760 13643 net.cpp:157] Top shape: 16 16 75 75 (1440000)
I1025 13:38:27.979763 13643 net.cpp:165] Memory required for data: 950400416
I1025 13:38:27.979781 13643 layer_factory.hpp:77] Creating layer stage1_2/branch2b/bn
I1025 13:38:27.979789 13643 net.cpp:100] Creating Layer stage1_2/branch2b/bn
I1025 13:38:27.979791 13643 net.cpp:434] stage1_2/branch2b/bn <- stage1_2/branch2b
I1025 13:38:27.979797 13643 net.cpp:395] stage1_2/branch2b/bn -> stage1_2/branch2b (in-place)
I1025 13:38:27.979920 13643 net.cpp:150] Setting up stage1_2/branch2b/bn
I1025 13:38:27.979925 13643 net.cpp:157] Top shape: 16 16 75 75 (1440000)
I1025 13:38:27.979928 13643 net.cpp:165] Memory required for data: 956160416
I1025 13:38:27.979933 13643 layer_factory.hpp:77] Creating layer stage1_2/branch2b/scale
I1025 13:38:27.979936 13643 net.cpp:100] Creating Layer stage1_2/branch2b/scale
I1025 13:38:27.979938 13643 net.cpp:434] stage1_2/branch2b/scale <- stage1_2/branch2b
I1025 13:38:27.979943 13643 net.cpp:395] stage1_2/branch2b/scale -> stage1_2/branch2b (in-place)
I1025 13:38:27.979965 13643 layer_factory.hpp:77] Creating layer stage1_2/branch2b/scale
I1025 13:38:27.980036 13643 net.cpp:150] Setting up stage1_2/branch2b/scale
I1025 13:38:27.980041 13643 net.cpp:157] Top shape: 16 16 75 75 (1440000)
I1025 13:38:27.980041 13643 net.cpp:165] Memory required for data: 961920416
I1025 13:38:27.980046 13643 layer_factory.hpp:77] Creating layer stage1_2/branch2b/relu
I1025 13:38:27.980049 13643 net.cpp:100] Creating Layer stage1_2/branch2b/relu
I1025 13:38:27.980051 13643 net.cpp:434] stage1_2/branch2b/relu <- stage1_2/branch2b
I1025 13:38:27.980054 13643 net.cpp:395] stage1_2/branch2b/relu -> stage1_2/branch2b (in-place)
I1025 13:38:27.980334 13643 net.cpp:150] Setting up stage1_2/branch2b/relu
I1025 13:38:27.980340 13643 net.cpp:157] Top shape: 16 16 75 75 (1440000)
I1025 13:38:27.980342 13643 net.cpp:165] Memory required for data: 967680416
I1025 13:38:27.980345 13643 layer_factory.hpp:77] Creating layer stage1_2/branch2c
I1025 13:38:27.980352 13643 net.cpp:100] Creating Layer stage1_2/branch2c
I1025 13:38:27.980355 13643 net.cpp:434] stage1_2/branch2c <- stage1_2/branch2b
I1025 13:38:27.980360 13643 net.cpp:408] stage1_2/branch2c -> stage1_2/branch2c
I1025 13:38:27.981804 13643 net.cpp:150] Setting up stage1_2/branch2c
I1025 13:38:27.981812 13643 net.cpp:157] Top shape: 16 16 75 75 (1440000)
I1025 13:38:27.981815 13643 net.cpp:165] Memory required for data: 973440416
I1025 13:38:27.981818 13643 layer_factory.hpp:77] Creating layer stage1_2/branch2c/bn
I1025 13:38:27.981823 13643 net.cpp:100] Creating Layer stage1_2/branch2c/bn
I1025 13:38:27.981827 13643 net.cpp:434] stage1_2/branch2c/bn <- stage1_2/branch2c
I1025 13:38:27.981830 13643 net.cpp:395] stage1_2/branch2c/bn -> stage1_2/branch2c (in-place)
I1025 13:38:27.981950 13643 net.cpp:150] Setting up stage1_2/branch2c/bn
I1025 13:38:27.981954 13643 net.cpp:157] Top shape: 16 16 75 75 (1440000)
I1025 13:38:27.981956 13643 net.cpp:165] Memory required for data: 979200416
I1025 13:38:27.981961 13643 layer_factory.hpp:77] Creating layer stage1_2/branch2c/scale
I1025 13:38:27.981966 13643 net.cpp:100] Creating Layer stage1_2/branch2c/scale
I1025 13:38:27.981967 13643 net.cpp:434] stage1_2/branch2c/scale <- stage1_2/branch2c
I1025 13:38:27.981971 13643 net.cpp:395] stage1_2/branch2c/scale -> stage1_2/branch2c (in-place)
I1025 13:38:27.981992 13643 layer_factory.hpp:77] Creating layer stage1_2/branch2c/scale
I1025 13:38:27.982061 13643 net.cpp:150] Setting up stage1_2/branch2c/scale
I1025 13:38:27.982065 13643 net.cpp:157] Top shape: 16 16 75 75 (1440000)
I1025 13:38:27.982069 13643 net.cpp:165] Memory required for data: 984960416
I1025 13:38:27.982071 13643 layer_factory.hpp:77] Creating layer stage1_2/branch2c/relu
I1025 13:38:27.982075 13643 net.cpp:100] Creating Layer stage1_2/branch2c/relu
I1025 13:38:27.982077 13643 net.cpp:434] stage1_2/branch2c/relu <- stage1_2/branch2c
I1025 13:38:27.982081 13643 net.cpp:395] stage1_2/branch2c/relu -> stage1_2/branch2c (in-place)
I1025 13:38:27.982441 13643 net.cpp:150] Setting up stage1_2/branch2c/relu
I1025 13:38:27.982450 13643 net.cpp:157] Top shape: 16 16 75 75 (1440000)
I1025 13:38:27.982460 13643 net.cpp:165] Memory required for data: 990720416
I1025 13:38:27.982462 13643 layer_factory.hpp:77] Creating layer stage1_2/concat
I1025 13:38:27.982475 13643 net.cpp:100] Creating Layer stage1_2/concat
I1025 13:38:27.982478 13643 net.cpp:434] stage1_2/concat <- stage1_1/concat_stage1_1/concat_0_split_2
I1025 13:38:27.982482 13643 net.cpp:434] stage1_2/concat <- stage1_2/branch1b
I1025 13:38:27.982486 13643 net.cpp:434] stage1_2/concat <- stage1_2/branch2c
I1025 13:38:27.982491 13643 net.cpp:408] stage1_2/concat -> stage1_2/concat
I1025 13:38:27.982508 13643 net.cpp:150] Setting up stage1_2/concat
I1025 13:38:27.982513 13643 net.cpp:157] Top shape: 16 96 75 75 (8640000)
I1025 13:38:27.982515 13643 net.cpp:165] Memory required for data: 1025280416
I1025 13:38:27.982517 13643 layer_factory.hpp:77] Creating layer stage1_2/concat_stage1_2/concat_0_split
I1025 13:38:27.982522 13643 net.cpp:100] Creating Layer stage1_2/concat_stage1_2/concat_0_split
I1025 13:38:27.982525 13643 net.cpp:434] stage1_2/concat_stage1_2/concat_0_split <- stage1_2/concat
I1025 13:38:27.982529 13643 net.cpp:408] stage1_2/concat_stage1_2/concat_0_split -> stage1_2/concat_stage1_2/concat_0_split_0
I1025 13:38:27.982534 13643 net.cpp:408] stage1_2/concat_stage1_2/concat_0_split -> stage1_2/concat_stage1_2/concat_0_split_1
I1025 13:38:27.982538 13643 net.cpp:408] stage1_2/concat_stage1_2/concat_0_split -> stage1_2/concat_stage1_2/concat_0_split_2
I1025 13:38:27.982568 13643 net.cpp:150] Setting up stage1_2/concat_stage1_2/concat_0_split
I1025 13:38:27.982571 13643 net.cpp:157] Top shape: 16 96 75 75 (8640000)
I1025 13:38:27.982573 13643 net.cpp:157] Top shape: 16 96 75 75 (8640000)
I1025 13:38:27.982576 13643 net.cpp:157] Top shape: 16 96 75 75 (8640000)
I1025 13:38:27.982578 13643 net.cpp:165] Memory required for data: 1128960416
I1025 13:38:27.982580 13643 layer_factory.hpp:77] Creating layer stage1_3/branch1a
I1025 13:38:27.982586 13643 net.cpp:100] Creating Layer stage1_3/branch1a
I1025 13:38:27.982589 13643 net.cpp:434] stage1_3/branch1a <- stage1_2/concat_stage1_2/concat_0_split_0
I1025 13:38:27.982600 13643 net.cpp:408] stage1_3/branch1a -> stage1_3/branch1a
I1025 13:38:27.983975 13643 net.cpp:150] Setting up stage1_3/branch1a
I1025 13:38:27.983983 13643 net.cpp:157] Top shape: 16 16 75 75 (1440000)
I1025 13:38:27.983985 13643 net.cpp:165] Memory required for data: 1134720416
I1025 13:38:27.983989 13643 layer_factory.hpp:77] Creating layer stage1_3/branch1a/bn
I1025 13:38:27.983995 13643 net.cpp:100] Creating Layer stage1_3/branch1a/bn
I1025 13:38:27.983999 13643 net.cpp:434] stage1_3/branch1a/bn <- stage1_3/branch1a
I1025 13:38:27.984002 13643 net.cpp:395] stage1_3/branch1a/bn -> stage1_3/branch1a (in-place)
I1025 13:38:27.984120 13643 net.cpp:150] Setting up stage1_3/branch1a/bn
I1025 13:38:27.984125 13643 net.cpp:157] Top shape: 16 16 75 75 (1440000)
I1025 13:38:27.984127 13643 net.cpp:165] Memory required for data: 1140480416
I1025 13:38:27.984131 13643 layer_factory.hpp:77] Creating layer stage1_3/branch1a/scale
I1025 13:38:27.984136 13643 net.cpp:100] Creating Layer stage1_3/branch1a/scale
I1025 13:38:27.984139 13643 net.cpp:434] stage1_3/branch1a/scale <- stage1_3/branch1a
I1025 13:38:27.984143 13643 net.cpp:395] stage1_3/branch1a/scale -> stage1_3/branch1a (in-place)
I1025 13:38:27.984165 13643 layer_factory.hpp:77] Creating layer stage1_3/branch1a/scale
I1025 13:38:27.984233 13643 net.cpp:150] Setting up stage1_3/branch1a/scale
I1025 13:38:27.984237 13643 net.cpp:157] Top shape: 16 16 75 75 (1440000)
I1025 13:38:27.984239 13643 net.cpp:165] Memory required for data: 1146240416
I1025 13:38:27.984243 13643 layer_factory.hpp:77] Creating layer stage1_3/branch1a/relu
I1025 13:38:27.984246 13643 net.cpp:100] Creating Layer stage1_3/branch1a/relu
I1025 13:38:27.984249 13643 net.cpp:434] stage1_3/branch1a/relu <- stage1_3/branch1a
I1025 13:38:27.984253 13643 net.cpp:395] stage1_3/branch1a/relu -> stage1_3/branch1a (in-place)
I1025 13:38:27.985327 13643 net.cpp:150] Setting up stage1_3/branch1a/relu
I1025 13:38:27.985334 13643 net.cpp:157] Top shape: 16 16 75 75 (1440000)
I1025 13:38:27.985345 13643 net.cpp:165] Memory required for data: 1152000416
I1025 13:38:27.985348 13643 layer_factory.hpp:77] Creating layer stage1_3/branch1b
I1025 13:38:27.985355 13643 net.cpp:100] Creating Layer stage1_3/branch1b
I1025 13:38:27.985359 13643 net.cpp:434] stage1_3/branch1b <- stage1_3/branch1a
I1025 13:38:27.985363 13643 net.cpp:408] stage1_3/branch1b -> stage1_3/branch1b
I1025 13:38:27.986868 13643 net.cpp:150] Setting up stage1_3/branch1b
I1025 13:38:27.986877 13643 net.cpp:157] Top shape: 16 16 75 75 (1440000)
I1025 13:38:27.986879 13643 net.cpp:165] Memory required for data: 1157760416
I1025 13:38:27.986883 13643 layer_factory.hpp:77] Creating layer stage1_3/branch1b/bn
I1025 13:38:27.986889 13643 net.cpp:100] Creating Layer stage1_3/branch1b/bn
I1025 13:38:27.986891 13643 net.cpp:434] stage1_3/branch1b/bn <- stage1_3/branch1b
I1025 13:38:27.986896 13643 net.cpp:395] stage1_3/branch1b/bn -> stage1_3/branch1b (in-place)
I1025 13:38:27.987015 13643 net.cpp:150] Setting up stage1_3/branch1b/bn
I1025 13:38:27.987018 13643 net.cpp:157] Top shape: 16 16 75 75 (1440000)
I1025 13:38:27.987020 13643 net.cpp:165] Memory required for data: 1163520416
I1025 13:38:27.987025 13643 layer_factory.hpp:77] Creating layer stage1_3/branch1b/scale
I1025 13:38:27.987030 13643 net.cpp:100] Creating Layer stage1_3/branch1b/scale
I1025 13:38:27.987033 13643 net.cpp:434] stage1_3/branch1b/scale <- stage1_3/branch1b
I1025 13:38:27.987036 13643 net.cpp:395] stage1_3/branch1b/scale -> stage1_3/branch1b (in-place)
I1025 13:38:27.987057 13643 layer_factory.hpp:77] Creating layer stage1_3/branch1b/scale
I1025 13:38:27.987130 13643 net.cpp:150] Setting up stage1_3/branch1b/scale
I1025 13:38:27.987135 13643 net.cpp:157] Top shape: 16 16 75 75 (1440000)
I1025 13:38:27.987138 13643 net.cpp:165] Memory required for data: 1169280416
I1025 13:38:27.987141 13643 layer_factory.hpp:77] Creating layer stage1_3/branch1b/relu
I1025 13:38:27.987145 13643 net.cpp:100] Creating Layer stage1_3/branch1b/relu
I1025 13:38:27.987148 13643 net.cpp:434] stage1_3/branch1b/relu <- stage1_3/branch1b
I1025 13:38:27.987151 13643 net.cpp:395] stage1_3/branch1b/relu -> stage1_3/branch1b (in-place)
I1025 13:38:27.987521 13643 net.cpp:150] Setting up stage1_3/branch1b/relu
I1025 13:38:27.987529 13643 net.cpp:157] Top shape: 16 16 75 75 (1440000)
I1025 13:38:27.987532 13643 net.cpp:165] Memory required for data: 1175040416
I1025 13:38:27.987534 13643 layer_factory.hpp:77] Creating layer stage1_3/branch2a
I1025 13:38:27.987540 13643 net.cpp:100] Creating Layer stage1_3/branch2a
I1025 13:38:27.987545 13643 net.cpp:434] stage1_3/branch2a <- stage1_2/concat_stage1_2/concat_0_split_1
I1025 13:38:27.987550 13643 net.cpp:408] stage1_3/branch2a -> stage1_3/branch2a
I1025 13:38:27.988919 13643 net.cpp:150] Setting up stage1_3/branch2a
I1025 13:38:27.988927 13643 net.cpp:157] Top shape: 16 16 75 75 (1440000)
I1025 13:38:27.988930 13643 net.cpp:165] Memory required for data: 1180800416
I1025 13:38:27.988934 13643 layer_factory.hpp:77] Creating layer stage1_3/branch2a/bn
I1025 13:38:27.988939 13643 net.cpp:100] Creating Layer stage1_3/branch2a/bn
I1025 13:38:27.988941 13643 net.cpp:434] stage1_3/branch2a/bn <- stage1_3/branch2a
I1025 13:38:27.988946 13643 net.cpp:395] stage1_3/branch2a/bn -> stage1_3/branch2a (in-place)
I1025 13:38:27.989066 13643 net.cpp:150] Setting up stage1_3/branch2a/bn
I1025 13:38:27.989071 13643 net.cpp:157] Top shape: 16 16 75 75 (1440000)
I1025 13:38:27.989073 13643 net.cpp:165] Memory required for data: 1186560416
I1025 13:38:27.989078 13643 layer_factory.hpp:77] Creating layer stage1_3/branch2a/scale
I1025 13:38:27.989082 13643 net.cpp:100] Creating Layer stage1_3/branch2a/scale
I1025 13:38:27.989085 13643 net.cpp:434] stage1_3/branch2a/scale <- stage1_3/branch2a
I1025 13:38:27.989089 13643 net.cpp:395] stage1_3/branch2a/scale -> stage1_3/branch2a (in-place)
I1025 13:38:27.989111 13643 layer_factory.hpp:77] Creating layer stage1_3/branch2a/scale
I1025 13:38:27.989179 13643 net.cpp:150] Setting up stage1_3/branch2a/scale
I1025 13:38:27.989193 13643 net.cpp:157] Top shape: 16 16 75 75 (1440000)
I1025 13:38:27.989197 13643 net.cpp:165] Memory required for data: 1192320416
I1025 13:38:27.989200 13643 layer_factory.hpp:77] Creating layer stage1_3/branch2a/relu
I1025 13:38:27.989204 13643 net.cpp:100] Creating Layer stage1_3/branch2a/relu
I1025 13:38:27.989207 13643 net.cpp:434] stage1_3/branch2a/relu <- stage1_3/branch2a
I1025 13:38:27.989209 13643 net.cpp:395] stage1_3/branch2a/relu -> stage1_3/branch2a (in-place)
I1025 13:38:27.989583 13643 net.cpp:150] Setting up stage1_3/branch2a/relu
I1025 13:38:27.989591 13643 net.cpp:157] Top shape: 16 16 75 75 (1440000)
I1025 13:38:27.989593 13643 net.cpp:165] Memory required for data: 1198080416
I1025 13:38:27.989596 13643 layer_factory.hpp:77] Creating layer stage1_3/branch2b
I1025 13:38:27.989603 13643 net.cpp:100] Creating Layer stage1_3/branch2b
I1025 13:38:27.989607 13643 net.cpp:434] stage1_3/branch2b <- stage1_3/branch2a
I1025 13:38:27.989612 13643 net.cpp:408] stage1_3/branch2b -> stage1_3/branch2b
I1025 13:38:27.991796 13643 net.cpp:150] Setting up stage1_3/branch2b
I1025 13:38:27.991806 13643 net.cpp:157] Top shape: 16 16 75 75 (1440000)
I1025 13:38:27.991807 13643 net.cpp:165] Memory required for data: 1203840416
I1025 13:38:27.991811 13643 layer_factory.hpp:77] Creating layer stage1_3/branch2b/bn
I1025 13:38:27.991816 13643 net.cpp:100] Creating Layer stage1_3/branch2b/bn
I1025 13:38:27.991819 13643 net.cpp:434] stage1_3/branch2b/bn <- stage1_3/branch2b
I1025 13:38:27.991824 13643 net.cpp:395] stage1_3/branch2b/bn -> stage1_3/branch2b (in-place)
I1025 13:38:27.991942 13643 net.cpp:150] Setting up stage1_3/branch2b/bn
I1025 13:38:27.991946 13643 net.cpp:157] Top shape: 16 16 75 75 (1440000)
I1025 13:38:27.991950 13643 net.cpp:165] Memory required for data: 1209600416
I1025 13:38:27.991953 13643 layer_factory.hpp:77] Creating layer stage1_3/branch2b/scale
I1025 13:38:27.991958 13643 net.cpp:100] Creating Layer stage1_3/branch2b/scale
I1025 13:38:27.991961 13643 net.cpp:434] stage1_3/branch2b/scale <- stage1_3/branch2b
I1025 13:38:27.991964 13643 net.cpp:395] stage1_3/branch2b/scale -> stage1_3/branch2b (in-place)
I1025 13:38:27.991987 13643 layer_factory.hpp:77] Creating layer stage1_3/branch2b/scale
I1025 13:38:27.992449 13643 net.cpp:150] Setting up stage1_3/branch2b/scale
I1025 13:38:27.992457 13643 net.cpp:157] Top shape: 16 16 75 75 (1440000)
I1025 13:38:27.992460 13643 net.cpp:165] Memory required for data: 1215360416
I1025 13:38:27.992465 13643 layer_factory.hpp:77] Creating layer stage1_3/branch2b/relu
I1025 13:38:27.992470 13643 net.cpp:100] Creating Layer stage1_3/branch2b/relu
I1025 13:38:27.992472 13643 net.cpp:434] stage1_3/branch2b/relu <- stage1_3/branch2b
I1025 13:38:27.992476 13643 net.cpp:395] stage1_3/branch2b/relu -> stage1_3/branch2b (in-place)
I1025 13:38:27.992760 13643 net.cpp:150] Setting up stage1_3/branch2b/relu
I1025 13:38:27.992766 13643 net.cpp:157] Top shape: 16 16 75 75 (1440000)
I1025 13:38:27.992769 13643 net.cpp:165] Memory required for data: 1221120416
I1025 13:38:27.992771 13643 layer_factory.hpp:77] Creating layer stage1_3/branch2c
I1025 13:38:27.992779 13643 net.cpp:100] Creating Layer stage1_3/branch2c
I1025 13:38:27.992781 13643 net.cpp:434] stage1_3/branch2c <- stage1_3/branch2b
I1025 13:38:27.992785 13643 net.cpp:408] stage1_3/branch2c -> stage1_3/branch2c
I1025 13:38:27.994257 13643 net.cpp:150] Setting up stage1_3/branch2c
I1025 13:38:27.994266 13643 net.cpp:157] Top shape: 16 16 75 75 (1440000)
I1025 13:38:27.994267 13643 net.cpp:165] Memory required for data: 1226880416
I1025 13:38:27.994271 13643 layer_factory.hpp:77] Creating layer stage1_3/branch2c/bn
I1025 13:38:27.994278 13643 net.cpp:100] Creating Layer stage1_3/branch2c/bn
I1025 13:38:27.994280 13643 net.cpp:434] stage1_3/branch2c/bn <- stage1_3/branch2c
I1025 13:38:27.994284 13643 net.cpp:395] stage1_3/branch2c/bn -> stage1_3/branch2c (in-place)
I1025 13:38:27.994403 13643 net.cpp:150] Setting up stage1_3/branch2c/bn
I1025 13:38:27.994408 13643 net.cpp:157] Top shape: 16 16 75 75 (1440000)
I1025 13:38:27.994418 13643 net.cpp:165] Memory required for data: 1232640416
I1025 13:38:27.994423 13643 layer_factory.hpp:77] Creating layer stage1_3/branch2c/scale
I1025 13:38:27.994427 13643 net.cpp:100] Creating Layer stage1_3/branch2c/scale
I1025 13:38:27.994429 13643 net.cpp:434] stage1_3/branch2c/scale <- stage1_3/branch2c
I1025 13:38:27.994433 13643 net.cpp:395] stage1_3/branch2c/scale -> stage1_3/branch2c (in-place)
I1025 13:38:27.994457 13643 layer_factory.hpp:77] Creating layer stage1_3/branch2c/scale
I1025 13:38:27.994527 13643 net.cpp:150] Setting up stage1_3/branch2c/scale
I1025 13:38:27.994532 13643 net.cpp:157] Top shape: 16 16 75 75 (1440000)
I1025 13:38:27.994534 13643 net.cpp:165] Memory required for data: 1238400416
I1025 13:38:27.994537 13643 layer_factory.hpp:77] Creating layer stage1_3/branch2c/relu
I1025 13:38:27.994540 13643 net.cpp:100] Creating Layer stage1_3/branch2c/relu
I1025 13:38:27.994544 13643 net.cpp:434] stage1_3/branch2c/relu <- stage1_3/branch2c
I1025 13:38:27.994549 13643 net.cpp:395] stage1_3/branch2c/relu -> stage1_3/branch2c (in-place)
I1025 13:38:27.994922 13643 net.cpp:150] Setting up stage1_3/branch2c/relu
I1025 13:38:27.994931 13643 net.cpp:157] Top shape: 16 16 75 75 (1440000)
I1025 13:38:27.994935 13643 net.cpp:165] Memory required for data: 1244160416
I1025 13:38:27.994937 13643 layer_factory.hpp:77] Creating layer stage1_3/concat
I1025 13:38:27.994942 13643 net.cpp:100] Creating Layer stage1_3/concat
I1025 13:38:27.994946 13643 net.cpp:434] stage1_3/concat <- stage1_2/concat_stage1_2/concat_0_split_2
I1025 13:38:27.994948 13643 net.cpp:434] stage1_3/concat <- stage1_3/branch1b
I1025 13:38:27.994951 13643 net.cpp:434] stage1_3/concat <- stage1_3/branch2c
I1025 13:38:27.994956 13643 net.cpp:408] stage1_3/concat -> stage1_3/concat
I1025 13:38:27.994973 13643 net.cpp:150] Setting up stage1_3/concat
I1025 13:38:27.994977 13643 net.cpp:157] Top shape: 16 128 75 75 (11520000)
I1025 13:38:27.994979 13643 net.cpp:165] Memory required for data: 1290240416
I1025 13:38:27.994982 13643 layer_factory.hpp:77] Creating layer stage1_tb
I1025 13:38:27.994988 13643 net.cpp:100] Creating Layer stage1_tb
I1025 13:38:27.994992 13643 net.cpp:434] stage1_tb <- stage1_3/concat
I1025 13:38:27.994994 13643 net.cpp:408] stage1_tb -> stage1_tb
I1025 13:38:27.996398 13643 net.cpp:150] Setting up stage1_tb
I1025 13:38:27.996407 13643 net.cpp:157] Top shape: 16 128 75 75 (11520000)
I1025 13:38:27.996408 13643 net.cpp:165] Memory required for data: 1336320416
I1025 13:38:27.996412 13643 layer_factory.hpp:77] Creating layer stage1_tb/bn
I1025 13:38:27.996418 13643 net.cpp:100] Creating Layer stage1_tb/bn
I1025 13:38:27.996421 13643 net.cpp:434] stage1_tb/bn <- stage1_tb
I1025 13:38:27.996425 13643 net.cpp:395] stage1_tb/bn -> stage1_tb (in-place)
I1025 13:38:27.996532 13643 net.cpp:150] Setting up stage1_tb/bn
I1025 13:38:27.996536 13643 net.cpp:157] Top shape: 16 128 75 75 (11520000)
I1025 13:38:27.996538 13643 net.cpp:165] Memory required for data: 1382400416
I1025 13:38:27.996543 13643 layer_factory.hpp:77] Creating layer stage1_tb/scale
I1025 13:38:27.996547 13643 net.cpp:100] Creating Layer stage1_tb/scale
I1025 13:38:27.996549 13643 net.cpp:434] stage1_tb/scale <- stage1_tb
I1025 13:38:27.996552 13643 net.cpp:395] stage1_tb/scale -> stage1_tb (in-place)
I1025 13:38:27.996575 13643 layer_factory.hpp:77] Creating layer stage1_tb/scale
I1025 13:38:27.996637 13643 net.cpp:150] Setting up stage1_tb/scale
I1025 13:38:27.996642 13643 net.cpp:157] Top shape: 16 128 75 75 (11520000)
I1025 13:38:27.996644 13643 net.cpp:165] Memory required for data: 1428480416
I1025 13:38:27.996649 13643 layer_factory.hpp:77] Creating layer stage1_tb/relu
I1025 13:38:27.996651 13643 net.cpp:100] Creating Layer stage1_tb/relu
I1025 13:38:27.996654 13643 net.cpp:434] stage1_tb/relu <- stage1_tb
I1025 13:38:27.996657 13643 net.cpp:395] stage1_tb/relu -> stage1_tb (in-place)
I1025 13:38:27.997831 13643 net.cpp:150] Setting up stage1_tb/relu
I1025 13:38:27.997840 13643 net.cpp:157] Top shape: 16 128 75 75 (11520000)
I1025 13:38:27.997850 13643 net.cpp:165] Memory required for data: 1474560416
I1025 13:38:27.997853 13643 layer_factory.hpp:77] Creating layer stage1_tb/pool
I1025 13:38:27.997859 13643 net.cpp:100] Creating Layer stage1_tb/pool
I1025 13:38:27.997860 13643 net.cpp:434] stage1_tb/pool <- stage1_tb
I1025 13:38:27.997864 13643 net.cpp:408] stage1_tb/pool -> stage1_tb/pool
I1025 13:38:27.998164 13643 net.cpp:150] Setting up stage1_tb/pool
I1025 13:38:27.998172 13643 net.cpp:157] Top shape: 16 128 38 38 (2957312)
I1025 13:38:27.998173 13643 net.cpp:165] Memory required for data: 1486389664
I1025 13:38:27.998175 13643 layer_factory.hpp:77] Creating layer stage1_tb/pool_stage1_tb/pool_0_split
I1025 13:38:27.998180 13643 net.cpp:100] Creating Layer stage1_tb/pool_stage1_tb/pool_0_split
I1025 13:38:27.998183 13643 net.cpp:434] stage1_tb/pool_stage1_tb/pool_0_split <- stage1_tb/pool
I1025 13:38:27.998188 13643 net.cpp:408] stage1_tb/pool_stage1_tb/pool_0_split -> stage1_tb/pool_stage1_tb/pool_0_split_0
I1025 13:38:27.998191 13643 net.cpp:408] stage1_tb/pool_stage1_tb/pool_0_split -> stage1_tb/pool_stage1_tb/pool_0_split_1
I1025 13:38:27.998195 13643 net.cpp:408] stage1_tb/pool_stage1_tb/pool_0_split -> stage1_tb/pool_stage1_tb/pool_0_split_2
I1025 13:38:27.998225 13643 net.cpp:150] Setting up stage1_tb/pool_stage1_tb/pool_0_split
I1025 13:38:27.998229 13643 net.cpp:157] Top shape: 16 128 38 38 (2957312)
I1025 13:38:27.998231 13643 net.cpp:157] Top shape: 16 128 38 38 (2957312)
I1025 13:38:27.998234 13643 net.cpp:157] Top shape: 16 128 38 38 (2957312)
I1025 13:38:27.998235 13643 net.cpp:165] Memory required for data: 1521877408
I1025 13:38:27.998237 13643 layer_factory.hpp:77] Creating layer stage2_1/branch1a
I1025 13:38:27.998244 13643 net.cpp:100] Creating Layer stage2_1/branch1a
I1025 13:38:27.998246 13643 net.cpp:434] stage2_1/branch1a <- stage1_tb/pool_stage1_tb/pool_0_split_0
I1025 13:38:27.998251 13643 net.cpp:408] stage2_1/branch1a -> stage2_1/branch1a
I1025 13:38:27.999703 13643 net.cpp:150] Setting up stage2_1/branch1a
I1025 13:38:27.999712 13643 net.cpp:157] Top shape: 16 32 38 38 (739328)
I1025 13:38:27.999714 13643 net.cpp:165] Memory required for data: 1524834720
I1025 13:38:27.999718 13643 layer_factory.hpp:77] Creating layer stage2_1/branch1a/bn
I1025 13:38:27.999723 13643 net.cpp:100] Creating Layer stage2_1/branch1a/bn
I1025 13:38:27.999727 13643 net.cpp:434] stage2_1/branch1a/bn <- stage2_1/branch1a
I1025 13:38:27.999732 13643 net.cpp:395] stage2_1/branch1a/bn -> stage2_1/branch1a (in-place)
I1025 13:38:27.999850 13643 net.cpp:150] Setting up stage2_1/branch1a/bn
I1025 13:38:27.999855 13643 net.cpp:157] Top shape: 16 32 38 38 (739328)
I1025 13:38:27.999857 13643 net.cpp:165] Memory required for data: 1527792032
I1025 13:38:27.999861 13643 layer_factory.hpp:77] Creating layer stage2_1/branch1a/scale
I1025 13:38:27.999866 13643 net.cpp:100] Creating Layer stage2_1/branch1a/scale
I1025 13:38:27.999867 13643 net.cpp:434] stage2_1/branch1a/scale <- stage2_1/branch1a
I1025 13:38:27.999871 13643 net.cpp:395] stage2_1/branch1a/scale -> stage2_1/branch1a (in-place)
I1025 13:38:27.999893 13643 layer_factory.hpp:77] Creating layer stage2_1/branch1a/scale
I1025 13:38:27.999959 13643 net.cpp:150] Setting up stage2_1/branch1a/scale
I1025 13:38:27.999964 13643 net.cpp:157] Top shape: 16 32 38 38 (739328)
I1025 13:38:27.999966 13643 net.cpp:165] Memory required for data: 1530749344
I1025 13:38:27.999969 13643 layer_factory.hpp:77] Creating layer stage2_1/branch1a/relu
I1025 13:38:27.999972 13643 net.cpp:100] Creating Layer stage2_1/branch1a/relu
I1025 13:38:27.999975 13643 net.cpp:434] stage2_1/branch1a/relu <- stage2_1/branch1a
I1025 13:38:27.999979 13643 net.cpp:395] stage2_1/branch1a/relu -> stage2_1/branch1a (in-place)
I1025 13:38:28.000347 13643 net.cpp:150] Setting up stage2_1/branch1a/relu
I1025 13:38:28.000355 13643 net.cpp:157] Top shape: 16 32 38 38 (739328)
I1025 13:38:28.000358 13643 net.cpp:165] Memory required for data: 1533706656
I1025 13:38:28.000361 13643 layer_factory.hpp:77] Creating layer stage2_1/branch1b
I1025 13:38:28.000375 13643 net.cpp:100] Creating Layer stage2_1/branch1b
I1025 13:38:28.000378 13643 net.cpp:434] stage2_1/branch1b <- stage2_1/branch1a
I1025 13:38:28.000385 13643 net.cpp:408] stage2_1/branch1b -> stage2_1/branch1b
I1025 13:38:28.001816 13643 net.cpp:150] Setting up stage2_1/branch1b
I1025 13:38:28.001824 13643 net.cpp:157] Top shape: 16 16 38 38 (369664)
I1025 13:38:28.001827 13643 net.cpp:165] Memory required for data: 1535185312
I1025 13:38:28.001830 13643 layer_factory.hpp:77] Creating layer stage2_1/branch1b/bn
I1025 13:38:28.001834 13643 net.cpp:100] Creating Layer stage2_1/branch1b/bn
I1025 13:38:28.001837 13643 net.cpp:434] stage2_1/branch1b/bn <- stage2_1/branch1b
I1025 13:38:28.001842 13643 net.cpp:395] stage2_1/branch1b/bn -> stage2_1/branch1b (in-place)
I1025 13:38:28.001960 13643 net.cpp:150] Setting up stage2_1/branch1b/bn
I1025 13:38:28.001965 13643 net.cpp:157] Top shape: 16 16 38 38 (369664)
I1025 13:38:28.001966 13643 net.cpp:165] Memory required for data: 1536663968
I1025 13:38:28.001981 13643 layer_factory.hpp:77] Creating layer stage2_1/branch1b/scale
I1025 13:38:28.001986 13643 net.cpp:100] Creating Layer stage2_1/branch1b/scale
I1025 13:38:28.001988 13643 net.cpp:434] stage2_1/branch1b/scale <- stage2_1/branch1b
I1025 13:38:28.001991 13643 net.cpp:395] stage2_1/branch1b/scale -> stage2_1/branch1b (in-place)
I1025 13:38:28.002014 13643 layer_factory.hpp:77] Creating layer stage2_1/branch1b/scale
I1025 13:38:28.002082 13643 net.cpp:150] Setting up stage2_1/branch1b/scale
I1025 13:38:28.002087 13643 net.cpp:157] Top shape: 16 16 38 38 (369664)
I1025 13:38:28.002089 13643 net.cpp:165] Memory required for data: 1538142624
I1025 13:38:28.002094 13643 layer_factory.hpp:77] Creating layer stage2_1/branch1b/relu
I1025 13:38:28.002099 13643 net.cpp:100] Creating Layer stage2_1/branch1b/relu
I1025 13:38:28.002100 13643 net.cpp:434] stage2_1/branch1b/relu <- stage2_1/branch1b
I1025 13:38:28.002104 13643 net.cpp:395] stage2_1/branch1b/relu -> stage2_1/branch1b (in-place)
I1025 13:38:28.002475 13643 net.cpp:150] Setting up stage2_1/branch1b/relu
I1025 13:38:28.002482 13643 net.cpp:157] Top shape: 16 16 38 38 (369664)
I1025 13:38:28.002485 13643 net.cpp:165] Memory required for data: 1539621280
I1025 13:38:28.002487 13643 layer_factory.hpp:77] Creating layer stage2_1/branch2a
I1025 13:38:28.002493 13643 net.cpp:100] Creating Layer stage2_1/branch2a
I1025 13:38:28.002497 13643 net.cpp:434] stage2_1/branch2a <- stage1_tb/pool_stage1_tb/pool_0_split_1
I1025 13:38:28.002503 13643 net.cpp:408] stage2_1/branch2a -> stage2_1/branch2a
I1025 13:38:28.004768 13643 net.cpp:150] Setting up stage2_1/branch2a
I1025 13:38:28.004778 13643 net.cpp:157] Top shape: 16 32 38 38 (739328)
I1025 13:38:28.004781 13643 net.cpp:165] Memory required for data: 1542578592
I1025 13:38:28.004786 13643 layer_factory.hpp:77] Creating layer stage2_1/branch2a/bn
I1025 13:38:28.004791 13643 net.cpp:100] Creating Layer stage2_1/branch2a/bn
I1025 13:38:28.004794 13643 net.cpp:434] stage2_1/branch2a/bn <- stage2_1/branch2a
I1025 13:38:28.004801 13643 net.cpp:395] stage2_1/branch2a/bn -> stage2_1/branch2a (in-place)
I1025 13:38:28.004920 13643 net.cpp:150] Setting up stage2_1/branch2a/bn
I1025 13:38:28.004925 13643 net.cpp:157] Top shape: 16 32 38 38 (739328)
I1025 13:38:28.004926 13643 net.cpp:165] Memory required for data: 1545535904
I1025 13:38:28.004931 13643 layer_factory.hpp:77] Creating layer stage2_1/branch2a/scale
I1025 13:38:28.004940 13643 net.cpp:100] Creating Layer stage2_1/branch2a/scale
I1025 13:38:28.004943 13643 net.cpp:434] stage2_1/branch2a/scale <- stage2_1/branch2a
I1025 13:38:28.004946 13643 net.cpp:395] stage2_1/branch2a/scale -> stage2_1/branch2a (in-place)
I1025 13:38:28.004971 13643 layer_factory.hpp:77] Creating layer stage2_1/branch2a/scale
I1025 13:38:28.005038 13643 net.cpp:150] Setting up stage2_1/branch2a/scale
I1025 13:38:28.005043 13643 net.cpp:157] Top shape: 16 32 38 38 (739328)
I1025 13:38:28.005045 13643 net.cpp:165] Memory required for data: 1548493216
I1025 13:38:28.005049 13643 layer_factory.hpp:77] Creating layer stage2_1/branch2a/relu
I1025 13:38:28.005066 13643 net.cpp:100] Creating Layer stage2_1/branch2a/relu
I1025 13:38:28.005069 13643 net.cpp:434] stage2_1/branch2a/relu <- stage2_1/branch2a
I1025 13:38:28.005072 13643 net.cpp:395] stage2_1/branch2a/relu -> stage2_1/branch2a (in-place)
I1025 13:38:28.005442 13643 net.cpp:150] Setting up stage2_1/branch2a/relu
I1025 13:38:28.005451 13643 net.cpp:157] Top shape: 16 32 38 38 (739328)
I1025 13:38:28.005453 13643 net.cpp:165] Memory required for data: 1551450528
I1025 13:38:28.005456 13643 layer_factory.hpp:77] Creating layer stage2_1/branch2b
I1025 13:38:28.005463 13643 net.cpp:100] Creating Layer stage2_1/branch2b
I1025 13:38:28.005466 13643 net.cpp:434] stage2_1/branch2b <- stage2_1/branch2a
I1025 13:38:28.005470 13643 net.cpp:408] stage2_1/branch2b -> stage2_1/branch2b
I1025 13:38:28.006860 13643 net.cpp:150] Setting up stage2_1/branch2b
I1025 13:38:28.006871 13643 net.cpp:157] Top shape: 16 16 38 38 (369664)
I1025 13:38:28.006875 13643 net.cpp:165] Memory required for data: 1552929184
I1025 13:38:28.006877 13643 layer_factory.hpp:77] Creating layer stage2_1/branch2b/bn
I1025 13:38:28.006882 13643 net.cpp:100] Creating Layer stage2_1/branch2b/bn
I1025 13:38:28.006886 13643 net.cpp:434] stage2_1/branch2b/bn <- stage2_1/branch2b
I1025 13:38:28.006891 13643 net.cpp:395] stage2_1/branch2b/bn -> stage2_1/branch2b (in-place)
I1025 13:38:28.007005 13643 net.cpp:150] Setting up stage2_1/branch2b/bn
I1025 13:38:28.007010 13643 net.cpp:157] Top shape: 16 16 38 38 (369664)
I1025 13:38:28.007012 13643 net.cpp:165] Memory required for data: 1554407840
I1025 13:38:28.007016 13643 layer_factory.hpp:77] Creating layer stage2_1/branch2b/scale
I1025 13:38:28.007022 13643 net.cpp:100] Creating Layer stage2_1/branch2b/scale
I1025 13:38:28.007025 13643 net.cpp:434] stage2_1/branch2b/scale <- stage2_1/branch2b
I1025 13:38:28.007028 13643 net.cpp:395] stage2_1/branch2b/scale -> stage2_1/branch2b (in-place)
I1025 13:38:28.007051 13643 layer_factory.hpp:77] Creating layer stage2_1/branch2b/scale
I1025 13:38:28.007119 13643 net.cpp:150] Setting up stage2_1/branch2b/scale
I1025 13:38:28.007124 13643 net.cpp:157] Top shape: 16 16 38 38 (369664)
I1025 13:38:28.007128 13643 net.cpp:165] Memory required for data: 1555886496
I1025 13:38:28.007130 13643 layer_factory.hpp:77] Creating layer stage2_1/branch2b/relu
I1025 13:38:28.007134 13643 net.cpp:100] Creating Layer stage2_1/branch2b/relu
I1025 13:38:28.007136 13643 net.cpp:434] stage2_1/branch2b/relu <- stage2_1/branch2b
I1025 13:38:28.007141 13643 net.cpp:395] stage2_1/branch2b/relu -> stage2_1/branch2b (in-place)
I1025 13:38:28.007511 13643 net.cpp:150] Setting up stage2_1/branch2b/relu
I1025 13:38:28.007519 13643 net.cpp:157] Top shape: 16 16 38 38 (369664)
I1025 13:38:28.007521 13643 net.cpp:165] Memory required for data: 1557365152
I1025 13:38:28.007524 13643 layer_factory.hpp:77] Creating layer stage2_1/branch2c
I1025 13:38:28.007531 13643 net.cpp:100] Creating Layer stage2_1/branch2c
I1025 13:38:28.007534 13643 net.cpp:434] stage2_1/branch2c <- stage2_1/branch2b
I1025 13:38:28.007539 13643 net.cpp:408] stage2_1/branch2c -> stage2_1/branch2c
I1025 13:38:28.009752 13643 net.cpp:150] Setting up stage2_1/branch2c
I1025 13:38:28.009759 13643 net.cpp:157] Top shape: 16 16 38 38 (369664)
I1025 13:38:28.009761 13643 net.cpp:165] Memory required for data: 1558843808
I1025 13:38:28.009765 13643 layer_factory.hpp:77] Creating layer stage2_1/branch2c/bn
I1025 13:38:28.009771 13643 net.cpp:100] Creating Layer stage2_1/branch2c/bn
I1025 13:38:28.009773 13643 net.cpp:434] stage2_1/branch2c/bn <- stage2_1/branch2c
I1025 13:38:28.009778 13643 net.cpp:395] stage2_1/branch2c/bn -> stage2_1/branch2c (in-place)
I1025 13:38:28.009893 13643 net.cpp:150] Setting up stage2_1/branch2c/bn
I1025 13:38:28.009898 13643 net.cpp:157] Top shape: 16 16 38 38 (369664)
I1025 13:38:28.009901 13643 net.cpp:165] Memory required for data: 1560322464
I1025 13:38:28.009904 13643 layer_factory.hpp:77] Creating layer stage2_1/branch2c/scale
I1025 13:38:28.009909 13643 net.cpp:100] Creating Layer stage2_1/branch2c/scale
I1025 13:38:28.009920 13643 net.cpp:434] stage2_1/branch2c/scale <- stage2_1/branch2c
I1025 13:38:28.009925 13643 net.cpp:395] stage2_1/branch2c/scale -> stage2_1/branch2c (in-place)
I1025 13:38:28.009948 13643 layer_factory.hpp:77] Creating layer stage2_1/branch2c/scale
I1025 13:38:28.010015 13643 net.cpp:150] Setting up stage2_1/branch2c/scale
I1025 13:38:28.010020 13643 net.cpp:157] Top shape: 16 16 38 38 (369664)
I1025 13:38:28.010021 13643 net.cpp:165] Memory required for data: 1561801120
I1025 13:38:28.010025 13643 layer_factory.hpp:77] Creating layer stage2_1/branch2c/relu
I1025 13:38:28.010028 13643 net.cpp:100] Creating Layer stage2_1/branch2c/relu
I1025 13:38:28.010030 13643 net.cpp:434] stage2_1/branch2c/relu <- stage2_1/branch2c
I1025 13:38:28.010035 13643 net.cpp:395] stage2_1/branch2c/relu -> stage2_1/branch2c (in-place)
I1025 13:38:28.010316 13643 net.cpp:150] Setting up stage2_1/branch2c/relu
I1025 13:38:28.010324 13643 net.cpp:157] Top shape: 16 16 38 38 (369664)
I1025 13:38:28.010327 13643 net.cpp:165] Memory required for data: 1563279776
I1025 13:38:28.010329 13643 layer_factory.hpp:77] Creating layer stage2_1/concat
I1025 13:38:28.010334 13643 net.cpp:100] Creating Layer stage2_1/concat
I1025 13:38:28.010335 13643 net.cpp:434] stage2_1/concat <- stage1_tb/pool_stage1_tb/pool_0_split_2
I1025 13:38:28.010339 13643 net.cpp:434] stage2_1/concat <- stage2_1/branch1b
I1025 13:38:28.010341 13643 net.cpp:434] stage2_1/concat <- stage2_1/branch2c
I1025 13:38:28.010345 13643 net.cpp:408] stage2_1/concat -> stage2_1/concat
I1025 13:38:28.010362 13643 net.cpp:150] Setting up stage2_1/concat
I1025 13:38:28.010366 13643 net.cpp:157] Top shape: 16 160 38 38 (3696640)
I1025 13:38:28.010368 13643 net.cpp:165] Memory required for data: 1578066336
I1025 13:38:28.010370 13643 layer_factory.hpp:77] Creating layer stage2_1/concat_stage2_1/concat_0_split
I1025 13:38:28.010376 13643 net.cpp:100] Creating Layer stage2_1/concat_stage2_1/concat_0_split
I1025 13:38:28.010380 13643 net.cpp:434] stage2_1/concat_stage2_1/concat_0_split <- stage2_1/concat
I1025 13:38:28.010383 13643 net.cpp:408] stage2_1/concat_stage2_1/concat_0_split -> stage2_1/concat_stage2_1/concat_0_split_0
I1025 13:38:28.010388 13643 net.cpp:408] stage2_1/concat_stage2_1/concat_0_split -> stage2_1/concat_stage2_1/concat_0_split_1
I1025 13:38:28.010392 13643 net.cpp:408] stage2_1/concat_stage2_1/concat_0_split -> stage2_1/concat_stage2_1/concat_0_split_2
I1025 13:38:28.010421 13643 net.cpp:150] Setting up stage2_1/concat_stage2_1/concat_0_split
I1025 13:38:28.010426 13643 net.cpp:157] Top shape: 16 160 38 38 (3696640)
I1025 13:38:28.010428 13643 net.cpp:157] Top shape: 16 160 38 38 (3696640)
I1025 13:38:28.010430 13643 net.cpp:157] Top shape: 16 160 38 38 (3696640)
I1025 13:38:28.010432 13643 net.cpp:165] Memory required for data: 1622426016
I1025 13:38:28.010434 13643 layer_factory.hpp:77] Creating layer stage2_2/branch1a
I1025 13:38:28.010440 13643 net.cpp:100] Creating Layer stage2_2/branch1a
I1025 13:38:28.010443 13643 net.cpp:434] stage2_2/branch1a <- stage2_1/concat_stage2_1/concat_0_split_0
I1025 13:38:28.010448 13643 net.cpp:408] stage2_2/branch1a -> stage2_2/branch1a
I1025 13:38:28.012606 13643 net.cpp:150] Setting up stage2_2/branch1a
I1025 13:38:28.012615 13643 net.cpp:157] Top shape: 16 32 38 38 (739328)
I1025 13:38:28.012617 13643 net.cpp:165] Memory required for data: 1625383328
I1025 13:38:28.012622 13643 layer_factory.hpp:77] Creating layer stage2_2/branch1a/bn
I1025 13:38:28.012626 13643 net.cpp:100] Creating Layer stage2_2/branch1a/bn
I1025 13:38:28.012630 13643 net.cpp:434] stage2_2/branch1a/bn <- stage2_2/branch1a
I1025 13:38:28.012634 13643 net.cpp:395] stage2_2/branch1a/bn -> stage2_2/branch1a (in-place)
I1025 13:38:28.012756 13643 net.cpp:150] Setting up stage2_2/branch1a/bn
I1025 13:38:28.012760 13643 net.cpp:157] Top shape: 16 32 38 38 (739328)
I1025 13:38:28.012763 13643 net.cpp:165] Memory required for data: 1628340640
I1025 13:38:28.012768 13643 layer_factory.hpp:77] Creating layer stage2_2/branch1a/scale
I1025 13:38:28.012781 13643 net.cpp:100] Creating Layer stage2_2/branch1a/scale
I1025 13:38:28.012785 13643 net.cpp:434] stage2_2/branch1a/scale <- stage2_2/branch1a
I1025 13:38:28.012789 13643 net.cpp:395] stage2_2/branch1a/scale -> stage2_2/branch1a (in-place)
I1025 13:38:28.012814 13643 layer_factory.hpp:77] Creating layer stage2_2/branch1a/scale
I1025 13:38:28.012881 13643 net.cpp:150] Setting up stage2_2/branch1a/scale
I1025 13:38:28.012887 13643 net.cpp:157] Top shape: 16 32 38 38 (739328)
I1025 13:38:28.012888 13643 net.cpp:165] Memory required for data: 1631297952
I1025 13:38:28.012892 13643 layer_factory.hpp:77] Creating layer stage2_2/branch1a/relu
I1025 13:38:28.012897 13643 net.cpp:100] Creating Layer stage2_2/branch1a/relu
I1025 13:38:28.012899 13643 net.cpp:434] stage2_2/branch1a/relu <- stage2_2/branch1a
I1025 13:38:28.012903 13643 net.cpp:395] stage2_2/branch1a/relu -> stage2_2/branch1a (in-place)
I1025 13:38:28.013281 13643 net.cpp:150] Setting up stage2_2/branch1a/relu
I1025 13:38:28.013289 13643 net.cpp:157] Top shape: 16 32 38 38 (739328)
I1025 13:38:28.013291 13643 net.cpp:165] Memory required for data: 1634255264
I1025 13:38:28.013293 13643 layer_factory.hpp:77] Creating layer stage2_2/branch1b
I1025 13:38:28.013301 13643 net.cpp:100] Creating Layer stage2_2/branch1b
I1025 13:38:28.013305 13643 net.cpp:434] stage2_2/branch1b <- stage2_2/branch1a
I1025 13:38:28.013310 13643 net.cpp:408] stage2_2/branch1b -> stage2_2/branch1b
I1025 13:38:28.014705 13643 net.cpp:150] Setting up stage2_2/branch1b
I1025 13:38:28.014714 13643 net.cpp:157] Top shape: 16 16 38 38 (369664)
I1025 13:38:28.014716 13643 net.cpp:165] Memory required for data: 1635733920
I1025 13:38:28.014720 13643 layer_factory.hpp:77] Creating layer stage2_2/branch1b/bn
I1025 13:38:28.014726 13643 net.cpp:100] Creating Layer stage2_2/branch1b/bn
I1025 13:38:28.014729 13643 net.cpp:434] stage2_2/branch1b/bn <- stage2_2/branch1b
I1025 13:38:28.014734 13643 net.cpp:395] stage2_2/branch1b/bn -> stage2_2/branch1b (in-place)
I1025 13:38:28.014852 13643 net.cpp:150] Setting up stage2_2/branch1b/bn
I1025 13:38:28.014856 13643 net.cpp:157] Top shape: 16 16 38 38 (369664)
I1025 13:38:28.014858 13643 net.cpp:165] Memory required for data: 1637212576
I1025 13:38:28.014863 13643 layer_factory.hpp:77] Creating layer stage2_2/branch1b/scale
I1025 13:38:28.014869 13643 net.cpp:100] Creating Layer stage2_2/branch1b/scale
I1025 13:38:28.014873 13643 net.cpp:434] stage2_2/branch1b/scale <- stage2_2/branch1b
I1025 13:38:28.014875 13643 net.cpp:395] stage2_2/branch1b/scale -> stage2_2/branch1b (in-place)
I1025 13:38:28.014899 13643 layer_factory.hpp:77] Creating layer stage2_2/branch1b/scale
I1025 13:38:28.014962 13643 net.cpp:150] Setting up stage2_2/branch1b/scale
I1025 13:38:28.014967 13643 net.cpp:157] Top shape: 16 16 38 38 (369664)
I1025 13:38:28.014969 13643 net.cpp:165] Memory required for data: 1638691232
I1025 13:38:28.014973 13643 layer_factory.hpp:77] Creating layer stage2_2/branch1b/relu
I1025 13:38:28.014977 13643 net.cpp:100] Creating Layer stage2_2/branch1b/relu
I1025 13:38:28.014979 13643 net.cpp:434] stage2_2/branch1b/relu <- stage2_2/branch1b
I1025 13:38:28.014983 13643 net.cpp:395] stage2_2/branch1b/relu -> stage2_2/branch1b (in-place)
I1025 13:38:28.015355 13643 net.cpp:150] Setting up stage2_2/branch1b/relu
I1025 13:38:28.015362 13643 net.cpp:157] Top shape: 16 16 38 38 (369664)
I1025 13:38:28.015365 13643 net.cpp:165] Memory required for data: 1640169888
I1025 13:38:28.015367 13643 layer_factory.hpp:77] Creating layer stage2_2/branch2a
I1025 13:38:28.015374 13643 net.cpp:100] Creating Layer stage2_2/branch2a
I1025 13:38:28.015378 13643 net.cpp:434] stage2_2/branch2a <- stage2_1/concat_stage2_1/concat_0_split_1
I1025 13:38:28.015383 13643 net.cpp:408] stage2_2/branch2a -> stage2_2/branch2a
I1025 13:38:28.017608 13643 net.cpp:150] Setting up stage2_2/branch2a
I1025 13:38:28.017617 13643 net.cpp:157] Top shape: 16 32 38 38 (739328)
I1025 13:38:28.017619 13643 net.cpp:165] Memory required for data: 1643127200
I1025 13:38:28.017634 13643 layer_factory.hpp:77] Creating layer stage2_2/branch2a/bn
I1025 13:38:28.017639 13643 net.cpp:100] Creating Layer stage2_2/branch2a/bn
I1025 13:38:28.017642 13643 net.cpp:434] stage2_2/branch2a/bn <- stage2_2/branch2a
I1025 13:38:28.017647 13643 net.cpp:395] stage2_2/branch2a/bn -> stage2_2/branch2a (in-place)
I1025 13:38:28.017768 13643 net.cpp:150] Setting up stage2_2/branch2a/bn
I1025 13:38:28.017773 13643 net.cpp:157] Top shape: 16 32 38 38 (739328)
I1025 13:38:28.017776 13643 net.cpp:165] Memory required for data: 1646084512
I1025 13:38:28.017781 13643 layer_factory.hpp:77] Creating layer stage2_2/branch2a/scale
I1025 13:38:28.017783 13643 net.cpp:100] Creating Layer stage2_2/branch2a/scale
I1025 13:38:28.017786 13643 net.cpp:434] stage2_2/branch2a/scale <- stage2_2/branch2a
I1025 13:38:28.017791 13643 net.cpp:395] stage2_2/branch2a/scale -> stage2_2/branch2a (in-place)
I1025 13:38:28.017812 13643 layer_factory.hpp:77] Creating layer stage2_2/branch2a/scale
I1025 13:38:28.017881 13643 net.cpp:150] Setting up stage2_2/branch2a/scale
I1025 13:38:28.017885 13643 net.cpp:157] Top shape: 16 32 38 38 (739328)
I1025 13:38:28.017889 13643 net.cpp:165] Memory required for data: 1649041824
I1025 13:38:28.017892 13643 layer_factory.hpp:77] Creating layer stage2_2/branch2a/relu
I1025 13:38:28.017895 13643 net.cpp:100] Creating Layer stage2_2/branch2a/relu
I1025 13:38:28.017897 13643 net.cpp:434] stage2_2/branch2a/relu <- stage2_2/branch2a
I1025 13:38:28.017901 13643 net.cpp:395] stage2_2/branch2a/relu -> stage2_2/branch2a (in-place)
I1025 13:38:28.018285 13643 net.cpp:150] Setting up stage2_2/branch2a/relu
I1025 13:38:28.018293 13643 net.cpp:157] Top shape: 16 32 38 38 (739328)
I1025 13:38:28.018296 13643 net.cpp:165] Memory required for data: 1651999136
I1025 13:38:28.018298 13643 layer_factory.hpp:77] Creating layer stage2_2/branch2b
I1025 13:38:28.018306 13643 net.cpp:100] Creating Layer stage2_2/branch2b
I1025 13:38:28.018308 13643 net.cpp:434] stage2_2/branch2b <- stage2_2/branch2a
I1025 13:38:28.018312 13643 net.cpp:408] stage2_2/branch2b -> stage2_2/branch2b
I1025 13:38:28.019738 13643 net.cpp:150] Setting up stage2_2/branch2b
I1025 13:38:28.019747 13643 net.cpp:157] Top shape: 16 16 38 38 (369664)
I1025 13:38:28.019749 13643 net.cpp:165] Memory required for data: 1653477792
I1025 13:38:28.019752 13643 layer_factory.hpp:77] Creating layer stage2_2/branch2b/bn
I1025 13:38:28.019780 13643 net.cpp:100] Creating Layer stage2_2/branch2b/bn
I1025 13:38:28.019783 13643 net.cpp:434] stage2_2/branch2b/bn <- stage2_2/branch2b
I1025 13:38:28.019788 13643 net.cpp:395] stage2_2/branch2b/bn -> stage2_2/branch2b (in-place)
I1025 13:38:28.019902 13643 net.cpp:150] Setting up stage2_2/branch2b/bn
I1025 13:38:28.019907 13643 net.cpp:157] Top shape: 16 16 38 38 (369664)
I1025 13:38:28.019909 13643 net.cpp:165] Memory required for data: 1654956448
I1025 13:38:28.019914 13643 layer_factory.hpp:77] Creating layer stage2_2/branch2b/scale
I1025 13:38:28.019918 13643 net.cpp:100] Creating Layer stage2_2/branch2b/scale
I1025 13:38:28.019922 13643 net.cpp:434] stage2_2/branch2b/scale <- stage2_2/branch2b
I1025 13:38:28.019924 13643 net.cpp:395] stage2_2/branch2b/scale -> stage2_2/branch2b (in-place)
I1025 13:38:28.019948 13643 layer_factory.hpp:77] Creating layer stage2_2/branch2b/scale
I1025 13:38:28.020012 13643 net.cpp:150] Setting up stage2_2/branch2b/scale
I1025 13:38:28.020018 13643 net.cpp:157] Top shape: 16 16 38 38 (369664)
I1025 13:38:28.020021 13643 net.cpp:165] Memory required for data: 1656435104
I1025 13:38:28.020025 13643 layer_factory.hpp:77] Creating layer stage2_2/branch2b/relu
I1025 13:38:28.020028 13643 net.cpp:100] Creating Layer stage2_2/branch2b/relu
I1025 13:38:28.020031 13643 net.cpp:434] stage2_2/branch2b/relu <- stage2_2/branch2b
I1025 13:38:28.020035 13643 net.cpp:395] stage2_2/branch2b/relu -> stage2_2/branch2b (in-place)
I1025 13:38:28.020407 13643 net.cpp:150] Setting up stage2_2/branch2b/relu
I1025 13:38:28.020414 13643 net.cpp:157] Top shape: 16 16 38 38 (369664)
I1025 13:38:28.020418 13643 net.cpp:165] Memory required for data: 1657913760
I1025 13:38:28.020429 13643 layer_factory.hpp:77] Creating layer stage2_2/branch2c
I1025 13:38:28.020437 13643 net.cpp:100] Creating Layer stage2_2/branch2c
I1025 13:38:28.020440 13643 net.cpp:434] stage2_2/branch2c <- stage2_2/branch2b
I1025 13:38:28.020445 13643 net.cpp:408] stage2_2/branch2c -> stage2_2/branch2c
I1025 13:38:28.022676 13643 net.cpp:150] Setting up stage2_2/branch2c
I1025 13:38:28.022686 13643 net.cpp:157] Top shape: 16 16 38 38 (369664)
I1025 13:38:28.022687 13643 net.cpp:165] Memory required for data: 1659392416
I1025 13:38:28.022691 13643 layer_factory.hpp:77] Creating layer stage2_2/branch2c/bn
I1025 13:38:28.022696 13643 net.cpp:100] Creating Layer stage2_2/branch2c/bn
I1025 13:38:28.022701 13643 net.cpp:434] stage2_2/branch2c/bn <- stage2_2/branch2c
I1025 13:38:28.022704 13643 net.cpp:395] stage2_2/branch2c/bn -> stage2_2/branch2c (in-place)
I1025 13:38:28.022823 13643 net.cpp:150] Setting up stage2_2/branch2c/bn
I1025 13:38:28.022828 13643 net.cpp:157] Top shape: 16 16 38 38 (369664)
I1025 13:38:28.022830 13643 net.cpp:165] Memory required for data: 1660871072
I1025 13:38:28.022835 13643 layer_factory.hpp:77] Creating layer stage2_2/branch2c/scale
I1025 13:38:28.022840 13643 net.cpp:100] Creating Layer stage2_2/branch2c/scale
I1025 13:38:28.022843 13643 net.cpp:434] stage2_2/branch2c/scale <- stage2_2/branch2c
I1025 13:38:28.022846 13643 net.cpp:395] stage2_2/branch2c/scale -> stage2_2/branch2c (in-place)
I1025 13:38:28.022868 13643 layer_factory.hpp:77] Creating layer stage2_2/branch2c/scale
I1025 13:38:28.022934 13643 net.cpp:150] Setting up stage2_2/branch2c/scale
I1025 13:38:28.022939 13643 net.cpp:157] Top shape: 16 16 38 38 (369664)
I1025 13:38:28.022941 13643 net.cpp:165] Memory required for data: 1662349728
I1025 13:38:28.022944 13643 layer_factory.hpp:77] Creating layer stage2_2/branch2c/relu
I1025 13:38:28.022949 13643 net.cpp:100] Creating Layer stage2_2/branch2c/relu
I1025 13:38:28.022953 13643 net.cpp:434] stage2_2/branch2c/relu <- stage2_2/branch2c
I1025 13:38:28.022956 13643 net.cpp:395] stage2_2/branch2c/relu -> stage2_2/branch2c (in-place)
I1025 13:38:28.023236 13643 net.cpp:150] Setting up stage2_2/branch2c/relu
I1025 13:38:28.023243 13643 net.cpp:157] Top shape: 16 16 38 38 (369664)
I1025 13:38:28.023245 13643 net.cpp:165] Memory required for data: 1663828384
I1025 13:38:28.023248 13643 layer_factory.hpp:77] Creating layer stage2_2/concat
I1025 13:38:28.023253 13643 net.cpp:100] Creating Layer stage2_2/concat
I1025 13:38:28.023257 13643 net.cpp:434] stage2_2/concat <- stage2_1/concat_stage2_1/concat_0_split_2
I1025 13:38:28.023259 13643 net.cpp:434] stage2_2/concat <- stage2_2/branch1b
I1025 13:38:28.023262 13643 net.cpp:434] stage2_2/concat <- stage2_2/branch2c
I1025 13:38:28.023267 13643 net.cpp:408] stage2_2/concat -> stage2_2/concat
I1025 13:38:28.023286 13643 net.cpp:150] Setting up stage2_2/concat
I1025 13:38:28.023290 13643 net.cpp:157] Top shape: 16 192 38 38 (4435968)
I1025 13:38:28.023293 13643 net.cpp:165] Memory required for data: 1681572256
I1025 13:38:28.023294 13643 layer_factory.hpp:77] Creating layer stage2_2/concat_stage2_2/concat_0_split
I1025 13:38:28.023299 13643 net.cpp:100] Creating Layer stage2_2/concat_stage2_2/concat_0_split
I1025 13:38:28.023303 13643 net.cpp:434] stage2_2/concat_stage2_2/concat_0_split <- stage2_2/concat
I1025 13:38:28.023306 13643 net.cpp:408] stage2_2/concat_stage2_2/concat_0_split -> stage2_2/concat_stage2_2/concat_0_split_0
I1025 13:38:28.023320 13643 net.cpp:408] stage2_2/concat_stage2_2/concat_0_split -> stage2_2/concat_stage2_2/concat_0_split_1
I1025 13:38:28.023325 13643 net.cpp:408] stage2_2/concat_stage2_2/concat_0_split -> stage2_2/concat_stage2_2/concat_0_split_2
I1025 13:38:28.023355 13643 net.cpp:150] Setting up stage2_2/concat_stage2_2/concat_0_split
I1025 13:38:28.023360 13643 net.cpp:157] Top shape: 16 192 38 38 (4435968)
I1025 13:38:28.023363 13643 net.cpp:157] Top shape: 16 192 38 38 (4435968)
I1025 13:38:28.023366 13643 net.cpp:157] Top shape: 16 192 38 38 (4435968)
I1025 13:38:28.023376 13643 net.cpp:165] Memory required for data: 1734803872
I1025 13:38:28.023380 13643 layer_factory.hpp:77] Creating layer stage2_3/branch1a
I1025 13:38:28.023386 13643 net.cpp:100] Creating Layer stage2_3/branch1a
I1025 13:38:28.023388 13643 net.cpp:434] stage2_3/branch1a <- stage2_2/concat_stage2_2/concat_0_split_0
I1025 13:38:28.023392 13643 net.cpp:408] stage2_3/branch1a -> stage2_3/branch1a
I1025 13:38:28.024863 13643 net.cpp:150] Setting up stage2_3/branch1a
I1025 13:38:28.024873 13643 net.cpp:157] Top shape: 16 32 38 38 (739328)
I1025 13:38:28.024874 13643 net.cpp:165] Memory required for data: 1737761184
I1025 13:38:28.024878 13643 layer_factory.hpp:77] Creating layer stage2_3/branch1a/bn
I1025 13:38:28.024883 13643 net.cpp:100] Creating Layer stage2_3/branch1a/bn
I1025 13:38:28.024886 13643 net.cpp:434] stage2_3/branch1a/bn <- stage2_3/branch1a
I1025 13:38:28.024891 13643 net.cpp:395] stage2_3/branch1a/bn -> stage2_3/branch1a (in-place)
I1025 13:38:28.025012 13643 net.cpp:150] Setting up stage2_3/branch1a/bn
I1025 13:38:28.025017 13643 net.cpp:157] Top shape: 16 32 38 38 (739328)
I1025 13:38:28.025018 13643 net.cpp:165] Memory required for data: 1740718496
I1025 13:38:28.025023 13643 layer_factory.hpp:77] Creating layer stage2_3/branch1a/scale
I1025 13:38:28.025028 13643 net.cpp:100] Creating Layer stage2_3/branch1a/scale
I1025 13:38:28.025032 13643 net.cpp:434] stage2_3/branch1a/scale <- stage2_3/branch1a
I1025 13:38:28.025034 13643 net.cpp:395] stage2_3/branch1a/scale -> stage2_3/branch1a (in-place)
I1025 13:38:28.025058 13643 layer_factory.hpp:77] Creating layer stage2_3/branch1a/scale
I1025 13:38:28.025123 13643 net.cpp:150] Setting up stage2_3/branch1a/scale
I1025 13:38:28.025128 13643 net.cpp:157] Top shape: 16 32 38 38 (739328)
I1025 13:38:28.025130 13643 net.cpp:165] Memory required for data: 1743675808
I1025 13:38:28.025135 13643 layer_factory.hpp:77] Creating layer stage2_3/branch1a/relu
I1025 13:38:28.025140 13643 net.cpp:100] Creating Layer stage2_3/branch1a/relu
I1025 13:38:28.025142 13643 net.cpp:434] stage2_3/branch1a/relu <- stage2_3/branch1a
I1025 13:38:28.025146 13643 net.cpp:395] stage2_3/branch1a/relu -> stage2_3/branch1a (in-place)
I1025 13:38:28.025518 13643 net.cpp:150] Setting up stage2_3/branch1a/relu
I1025 13:38:28.025527 13643 net.cpp:157] Top shape: 16 32 38 38 (739328)
I1025 13:38:28.025528 13643 net.cpp:165] Memory required for data: 1746633120
I1025 13:38:28.025532 13643 layer_factory.hpp:77] Creating layer stage2_3/branch1b
I1025 13:38:28.025537 13643 net.cpp:100] Creating Layer stage2_3/branch1b
I1025 13:38:28.025540 13643 net.cpp:434] stage2_3/branch1b <- stage2_3/branch1a
I1025 13:38:28.025545 13643 net.cpp:408] stage2_3/branch1b -> stage2_3/branch1b
I1025 13:38:28.026923 13643 net.cpp:150] Setting up stage2_3/branch1b
I1025 13:38:28.026932 13643 net.cpp:157] Top shape: 16 16 38 38 (369664)
I1025 13:38:28.026934 13643 net.cpp:165] Memory required for data: 1748111776
I1025 13:38:28.026938 13643 layer_factory.hpp:77] Creating layer stage2_3/branch1b/bn
I1025 13:38:28.026943 13643 net.cpp:100] Creating Layer stage2_3/branch1b/bn
I1025 13:38:28.026947 13643 net.cpp:434] stage2_3/branch1b/bn <- stage2_3/branch1b
I1025 13:38:28.026950 13643 net.cpp:395] stage2_3/branch1b/bn -> stage2_3/branch1b (in-place)
I1025 13:38:28.027070 13643 net.cpp:150] Setting up stage2_3/branch1b/bn
I1025 13:38:28.027073 13643 net.cpp:157] Top shape: 16 16 38 38 (369664)
I1025 13:38:28.027076 13643 net.cpp:165] Memory required for data: 1749590432
I1025 13:38:28.027081 13643 layer_factory.hpp:77] Creating layer stage2_3/branch1b/scale
I1025 13:38:28.027084 13643 net.cpp:100] Creating Layer stage2_3/branch1b/scale
I1025 13:38:28.027086 13643 net.cpp:434] stage2_3/branch1b/scale <- stage2_3/branch1b
I1025 13:38:28.027089 13643 net.cpp:395] stage2_3/branch1b/scale -> stage2_3/branch1b (in-place)
I1025 13:38:28.027112 13643 layer_factory.hpp:77] Creating layer stage2_3/branch1b/scale
I1025 13:38:28.027179 13643 net.cpp:150] Setting up stage2_3/branch1b/scale
I1025 13:38:28.027184 13643 net.cpp:157] Top shape: 16 16 38 38 (369664)
I1025 13:38:28.027194 13643 net.cpp:165] Memory required for data: 1751069088
I1025 13:38:28.027197 13643 layer_factory.hpp:77] Creating layer stage2_3/branch1b/relu
I1025 13:38:28.027201 13643 net.cpp:100] Creating Layer stage2_3/branch1b/relu
I1025 13:38:28.027205 13643 net.cpp:434] stage2_3/branch1b/relu <- stage2_3/branch1b
I1025 13:38:28.027209 13643 net.cpp:395] stage2_3/branch1b/relu -> stage2_3/branch1b (in-place)
I1025 13:38:28.027581 13643 net.cpp:150] Setting up stage2_3/branch1b/relu
I1025 13:38:28.027590 13643 net.cpp:157] Top shape: 16 16 38 38 (369664)
I1025 13:38:28.027592 13643 net.cpp:165] Memory required for data: 1752547744
I1025 13:38:28.027595 13643 layer_factory.hpp:77] Creating layer stage2_3/branch2a
I1025 13:38:28.027602 13643 net.cpp:100] Creating Layer stage2_3/branch2a
I1025 13:38:28.027606 13643 net.cpp:434] stage2_3/branch2a <- stage2_2/concat_stage2_2/concat_0_split_1
I1025 13:38:28.027611 13643 net.cpp:408] stage2_3/branch2a -> stage2_3/branch2a
I1025 13:38:28.029783 13643 net.cpp:150] Setting up stage2_3/branch2a
I1025 13:38:28.029793 13643 net.cpp:157] Top shape: 16 32 38 38 (739328)
I1025 13:38:28.029794 13643 net.cpp:165] Memory required for data: 1755505056
I1025 13:38:28.029798 13643 layer_factory.hpp:77] Creating layer stage2_3/branch2a/bn
I1025 13:38:28.029805 13643 net.cpp:100] Creating Layer stage2_3/branch2a/bn
I1025 13:38:28.029808 13643 net.cpp:434] stage2_3/branch2a/bn <- stage2_3/branch2a
I1025 13:38:28.029814 13643 net.cpp:395] stage2_3/branch2a/bn -> stage2_3/branch2a (in-place)
I1025 13:38:28.029934 13643 net.cpp:150] Setting up stage2_3/branch2a/bn
I1025 13:38:28.029939 13643 net.cpp:157] Top shape: 16 32 38 38 (739328)
I1025 13:38:28.029942 13643 net.cpp:165] Memory required for data: 1758462368
I1025 13:38:28.029945 13643 layer_factory.hpp:77] Creating layer stage2_3/branch2a/scale
I1025 13:38:28.029950 13643 net.cpp:100] Creating Layer stage2_3/branch2a/scale
I1025 13:38:28.029954 13643 net.cpp:434] stage2_3/branch2a/scale <- stage2_3/branch2a
I1025 13:38:28.029958 13643 net.cpp:395] stage2_3/branch2a/scale -> stage2_3/branch2a (in-place)
I1025 13:38:28.029980 13643 layer_factory.hpp:77] Creating layer stage2_3/branch2a/scale
I1025 13:38:28.030048 13643 net.cpp:150] Setting up stage2_3/branch2a/scale
I1025 13:38:28.030053 13643 net.cpp:157] Top shape: 16 32 38 38 (739328)
I1025 13:38:28.030055 13643 net.cpp:165] Memory required for data: 1761419680
I1025 13:38:28.030059 13643 layer_factory.hpp:77] Creating layer stage2_3/branch2a/relu
I1025 13:38:28.030066 13643 net.cpp:100] Creating Layer stage2_3/branch2a/relu
I1025 13:38:28.030068 13643 net.cpp:434] stage2_3/branch2a/relu <- stage2_3/branch2a
I1025 13:38:28.030071 13643 net.cpp:395] stage2_3/branch2a/relu -> stage2_3/branch2a (in-place)
I1025 13:38:28.030454 13643 net.cpp:150] Setting up stage2_3/branch2a/relu
I1025 13:38:28.030462 13643 net.cpp:157] Top shape: 16 32 38 38 (739328)
I1025 13:38:28.030465 13643 net.cpp:165] Memory required for data: 1764376992
I1025 13:38:28.030467 13643 layer_factory.hpp:77] Creating layer stage2_3/branch2b
I1025 13:38:28.030474 13643 net.cpp:100] Creating Layer stage2_3/branch2b
I1025 13:38:28.030478 13643 net.cpp:434] stage2_3/branch2b <- stage2_3/branch2a
I1025 13:38:28.030483 13643 net.cpp:408] stage2_3/branch2b -> stage2_3/branch2b
I1025 13:38:28.031939 13643 net.cpp:150] Setting up stage2_3/branch2b
I1025 13:38:28.031947 13643 net.cpp:157] Top shape: 16 16 38 38 (369664)
I1025 13:38:28.031950 13643 net.cpp:165] Memory required for data: 1765855648
I1025 13:38:28.031955 13643 layer_factory.hpp:77] Creating layer stage2_3/branch2b/bn
I1025 13:38:28.031960 13643 net.cpp:100] Creating Layer stage2_3/branch2b/bn
I1025 13:38:28.031963 13643 net.cpp:434] stage2_3/branch2b/bn <- stage2_3/branch2b
I1025 13:38:28.031967 13643 net.cpp:395] stage2_3/branch2b/bn -> stage2_3/branch2b (in-place)
I1025 13:38:28.032084 13643 net.cpp:150] Setting up stage2_3/branch2b/bn
I1025 13:38:28.032089 13643 net.cpp:157] Top shape: 16 16 38 38 (369664)
I1025 13:38:28.032100 13643 net.cpp:165] Memory required for data: 1767334304
I1025 13:38:28.032105 13643 layer_factory.hpp:77] Creating layer stage2_3/branch2b/scale
I1025 13:38:28.032109 13643 net.cpp:100] Creating Layer stage2_3/branch2b/scale
I1025 13:38:28.032112 13643 net.cpp:434] stage2_3/branch2b/scale <- stage2_3/branch2b
I1025 13:38:28.032117 13643 net.cpp:395] stage2_3/branch2b/scale -> stage2_3/branch2b (in-place)
I1025 13:38:28.032140 13643 layer_factory.hpp:77] Creating layer stage2_3/branch2b/scale
I1025 13:38:28.032208 13643 net.cpp:150] Setting up stage2_3/branch2b/scale
I1025 13:38:28.032213 13643 net.cpp:157] Top shape: 16 16 38 38 (369664)
I1025 13:38:28.032215 13643 net.cpp:165] Memory required for data: 1768812960
I1025 13:38:28.032218 13643 layer_factory.hpp:77] Creating layer stage2_3/branch2b/relu
I1025 13:38:28.032223 13643 net.cpp:100] Creating Layer stage2_3/branch2b/relu
I1025 13:38:28.032227 13643 net.cpp:434] stage2_3/branch2b/relu <- stage2_3/branch2b
I1025 13:38:28.032230 13643 net.cpp:395] stage2_3/branch2b/relu -> stage2_3/branch2b (in-place)
I1025 13:38:28.032608 13643 net.cpp:150] Setting up stage2_3/branch2b/relu
I1025 13:38:28.032615 13643 net.cpp:157] Top shape: 16 16 38 38 (369664)
I1025 13:38:28.032618 13643 net.cpp:165] Memory required for data: 1770291616
I1025 13:38:28.032621 13643 layer_factory.hpp:77] Creating layer stage2_3/branch2c
I1025 13:38:28.032627 13643 net.cpp:100] Creating Layer stage2_3/branch2c
I1025 13:38:28.032631 13643 net.cpp:434] stage2_3/branch2c <- stage2_3/branch2b
I1025 13:38:28.032636 13643 net.cpp:408] stage2_3/branch2c -> stage2_3/branch2c
I1025 13:38:28.034910 13643 net.cpp:150] Setting up stage2_3/branch2c
I1025 13:38:28.034922 13643 net.cpp:157] Top shape: 16 16 38 38 (369664)
I1025 13:38:28.034925 13643 net.cpp:165] Memory required for data: 1771770272
I1025 13:38:28.034929 13643 layer_factory.hpp:77] Creating layer stage2_3/branch2c/bn
I1025 13:38:28.034934 13643 net.cpp:100] Creating Layer stage2_3/branch2c/bn
I1025 13:38:28.034937 13643 net.cpp:434] stage2_3/branch2c/bn <- stage2_3/branch2c
I1025 13:38:28.034945 13643 net.cpp:395] stage2_3/branch2c/bn -> stage2_3/branch2c (in-place)
I1025 13:38:28.035065 13643 net.cpp:150] Setting up stage2_3/branch2c/bn
I1025 13:38:28.035069 13643 net.cpp:157] Top shape: 16 16 38 38 (369664)
I1025 13:38:28.035071 13643 net.cpp:165] Memory required for data: 1773248928
I1025 13:38:28.035076 13643 layer_factory.hpp:77] Creating layer stage2_3/branch2c/scale
I1025 13:38:28.035081 13643 net.cpp:100] Creating Layer stage2_3/branch2c/scale
I1025 13:38:28.035084 13643 net.cpp:434] stage2_3/branch2c/scale <- stage2_3/branch2c
I1025 13:38:28.035089 13643 net.cpp:395] stage2_3/branch2c/scale -> stage2_3/branch2c (in-place)
I1025 13:38:28.035110 13643 layer_factory.hpp:77] Creating layer stage2_3/branch2c/scale
I1025 13:38:28.035176 13643 net.cpp:150] Setting up stage2_3/branch2c/scale
I1025 13:38:28.035181 13643 net.cpp:157] Top shape: 16 16 38 38 (369664)
I1025 13:38:28.035183 13643 net.cpp:165] Memory required for data: 1774727584
I1025 13:38:28.035187 13643 layer_factory.hpp:77] Creating layer stage2_3/branch2c/relu
I1025 13:38:28.035192 13643 net.cpp:100] Creating Layer stage2_3/branch2c/relu
I1025 13:38:28.035193 13643 net.cpp:434] stage2_3/branch2c/relu <- stage2_3/branch2c
I1025 13:38:28.035197 13643 net.cpp:395] stage2_3/branch2c/relu -> stage2_3/branch2c (in-place)
I1025 13:38:28.035485 13643 net.cpp:150] Setting up stage2_3/branch2c/relu
I1025 13:38:28.035490 13643 net.cpp:157] Top shape: 16 16 38 38 (369664)
I1025 13:38:28.035493 13643 net.cpp:165] Memory required for data: 1776206240
I1025 13:38:28.035495 13643 layer_factory.hpp:77] Creating layer stage2_3/concat
I1025 13:38:28.035501 13643 net.cpp:100] Creating Layer stage2_3/concat
I1025 13:38:28.035504 13643 net.cpp:434] stage2_3/concat <- stage2_2/concat_stage2_2/concat_0_split_2
I1025 13:38:28.035507 13643 net.cpp:434] stage2_3/concat <- stage2_3/branch1b
I1025 13:38:28.035509 13643 net.cpp:434] stage2_3/concat <- stage2_3/branch2c
I1025 13:38:28.035516 13643 net.cpp:408] stage2_3/concat -> stage2_3/concat
I1025 13:38:28.035543 13643 net.cpp:150] Setting up stage2_3/concat
I1025 13:38:28.035547 13643 net.cpp:157] Top shape: 16 224 38 38 (5175296)
I1025 13:38:28.035549 13643 net.cpp:165] Memory required for data: 1796907424
I1025 13:38:28.035552 13643 layer_factory.hpp:77] Creating layer stage2_3/concat_stage2_3/concat_0_split
I1025 13:38:28.035557 13643 net.cpp:100] Creating Layer stage2_3/concat_stage2_3/concat_0_split
I1025 13:38:28.035560 13643 net.cpp:434] stage2_3/concat_stage2_3/concat_0_split <- stage2_3/concat
I1025 13:38:28.035564 13643 net.cpp:408] stage2_3/concat_stage2_3/concat_0_split -> stage2_3/concat_stage2_3/concat_0_split_0
I1025 13:38:28.035569 13643 net.cpp:408] stage2_3/concat_stage2_3/concat_0_split -> stage2_3/concat_stage2_3/concat_0_split_1
I1025 13:38:28.035574 13643 net.cpp:408] stage2_3/concat_stage2_3/concat_0_split -> stage2_3/concat_stage2_3/concat_0_split_2
I1025 13:38:28.035604 13643 net.cpp:150] Setting up stage2_3/concat_stage2_3/concat_0_split
I1025 13:38:28.035607 13643 net.cpp:157] Top shape: 16 224 38 38 (5175296)
I1025 13:38:28.035610 13643 net.cpp:157] Top shape: 16 224 38 38 (5175296)
I1025 13:38:28.035612 13643 net.cpp:157] Top shape: 16 224 38 38 (5175296)
I1025 13:38:28.035614 13643 net.cpp:165] Memory required for data: 1859010976
I1025 13:38:28.035616 13643 layer_factory.hpp:77] Creating layer stage2_4/branch1a
I1025 13:38:28.035622 13643 net.cpp:100] Creating Layer stage2_4/branch1a
I1025 13:38:28.035625 13643 net.cpp:434] stage2_4/branch1a <- stage2_3/concat_stage2_3/concat_0_split_0
I1025 13:38:28.035629 13643 net.cpp:408] stage2_4/branch1a -> stage2_4/branch1a
I1025 13:38:28.037147 13643 net.cpp:150] Setting up stage2_4/branch1a
I1025 13:38:28.037155 13643 net.cpp:157] Top shape: 16 32 38 38 (739328)
I1025 13:38:28.037158 13643 net.cpp:165] Memory required for data: 1861968288
I1025 13:38:28.037160 13643 layer_factory.hpp:77] Creating layer stage2_4/branch1a/bn
I1025 13:38:28.037168 13643 net.cpp:100] Creating Layer stage2_4/branch1a/bn
I1025 13:38:28.037171 13643 net.cpp:434] stage2_4/branch1a/bn <- stage2_4/branch1a
I1025 13:38:28.037174 13643 net.cpp:395] stage2_4/branch1a/bn -> stage2_4/branch1a (in-place)
I1025 13:38:28.037293 13643 net.cpp:150] Setting up stage2_4/branch1a/bn
I1025 13:38:28.037297 13643 net.cpp:157] Top shape: 16 32 38 38 (739328)
I1025 13:38:28.037300 13643 net.cpp:165] Memory required for data: 1864925600
I1025 13:38:28.037304 13643 layer_factory.hpp:77] Creating layer stage2_4/branch1a/scale
I1025 13:38:28.037308 13643 net.cpp:100] Creating Layer stage2_4/branch1a/scale
I1025 13:38:28.037312 13643 net.cpp:434] stage2_4/branch1a/scale <- stage2_4/branch1a
I1025 13:38:28.037317 13643 net.cpp:395] stage2_4/branch1a/scale -> stage2_4/branch1a (in-place)
I1025 13:38:28.037339 13643 layer_factory.hpp:77] Creating layer stage2_4/branch1a/scale
I1025 13:38:28.037405 13643 net.cpp:150] Setting up stage2_4/branch1a/scale
I1025 13:38:28.037410 13643 net.cpp:157] Top shape: 16 32 38 38 (739328)
I1025 13:38:28.037412 13643 net.cpp:165] Memory required for data: 1867882912
I1025 13:38:28.037415 13643 layer_factory.hpp:77] Creating layer stage2_4/branch1a/relu
I1025 13:38:28.037420 13643 net.cpp:100] Creating Layer stage2_4/branch1a/relu
I1025 13:38:28.037422 13643 net.cpp:434] stage2_4/branch1a/relu <- stage2_4/branch1a
I1025 13:38:28.037426 13643 net.cpp:395] stage2_4/branch1a/relu -> stage2_4/branch1a (in-place)
I1025 13:38:28.037710 13643 net.cpp:150] Setting up stage2_4/branch1a/relu
I1025 13:38:28.037717 13643 net.cpp:157] Top shape: 16 32 38 38 (739328)
I1025 13:38:28.037719 13643 net.cpp:165] Memory required for data: 1870840224
I1025 13:38:28.037722 13643 layer_factory.hpp:77] Creating layer stage2_4/branch1b
I1025 13:38:28.037729 13643 net.cpp:100] Creating Layer stage2_4/branch1b
I1025 13:38:28.037731 13643 net.cpp:434] stage2_4/branch1b <- stage2_4/branch1a
I1025 13:38:28.037736 13643 net.cpp:408] stage2_4/branch1b -> stage2_4/branch1b
I1025 13:38:28.039209 13643 net.cpp:150] Setting up stage2_4/branch1b
I1025 13:38:28.039225 13643 net.cpp:157] Top shape: 16 16 38 38 (369664)
I1025 13:38:28.039227 13643 net.cpp:165] Memory required for data: 1872318880
I1025 13:38:28.039232 13643 layer_factory.hpp:77] Creating layer stage2_4/branch1b/bn
I1025 13:38:28.039237 13643 net.cpp:100] Creating Layer stage2_4/branch1b/bn
I1025 13:38:28.039242 13643 net.cpp:434] stage2_4/branch1b/bn <- stage2_4/branch1b
I1025 13:38:28.039245 13643 net.cpp:395] stage2_4/branch1b/bn -> stage2_4/branch1b (in-place)
I1025 13:38:28.039361 13643 net.cpp:150] Setting up stage2_4/branch1b/bn
I1025 13:38:28.039366 13643 net.cpp:157] Top shape: 16 16 38 38 (369664)
I1025 13:38:28.039368 13643 net.cpp:165] Memory required for data: 1873797536
I1025 13:38:28.039372 13643 layer_factory.hpp:77] Creating layer stage2_4/branch1b/scale
I1025 13:38:28.039378 13643 net.cpp:100] Creating Layer stage2_4/branch1b/scale
I1025 13:38:28.039382 13643 net.cpp:434] stage2_4/branch1b/scale <- stage2_4/branch1b
I1025 13:38:28.039386 13643 net.cpp:395] stage2_4/branch1b/scale -> stage2_4/branch1b (in-place)
I1025 13:38:28.039407 13643 layer_factory.hpp:77] Creating layer stage2_4/branch1b/scale
I1025 13:38:28.039474 13643 net.cpp:150] Setting up stage2_4/branch1b/scale
I1025 13:38:28.039479 13643 net.cpp:157] Top shape: 16 16 38 38 (369664)
I1025 13:38:28.039481 13643 net.cpp:165] Memory required for data: 1875276192
I1025 13:38:28.039484 13643 layer_factory.hpp:77] Creating layer stage2_4/branch1b/relu
I1025 13:38:28.039489 13643 net.cpp:100] Creating Layer stage2_4/branch1b/relu
I1025 13:38:28.039491 13643 net.cpp:434] stage2_4/branch1b/relu <- stage2_4/branch1b
I1025 13:38:28.039494 13643 net.cpp:395] stage2_4/branch1b/relu -> stage2_4/branch1b (in-place)
I1025 13:38:28.039863 13643 net.cpp:150] Setting up stage2_4/branch1b/relu
I1025 13:38:28.039870 13643 net.cpp:157] Top shape: 16 16 38 38 (369664)
I1025 13:38:28.039873 13643 net.cpp:165] Memory required for data: 1876754848
I1025 13:38:28.039875 13643 layer_factory.hpp:77] Creating layer stage2_4/branch2a
I1025 13:38:28.039882 13643 net.cpp:100] Creating Layer stage2_4/branch2a
I1025 13:38:28.039885 13643 net.cpp:434] stage2_4/branch2a <- stage2_3/concat_stage2_3/concat_0_split_1
I1025 13:38:28.039891 13643 net.cpp:408] stage2_4/branch2a -> stage2_4/branch2a
I1025 13:38:28.042157 13643 net.cpp:150] Setting up stage2_4/branch2a
I1025 13:38:28.042166 13643 net.cpp:157] Top shape: 16 32 38 38 (739328)
I1025 13:38:28.042170 13643 net.cpp:165] Memory required for data: 1879712160
I1025 13:38:28.042174 13643 layer_factory.hpp:77] Creating layer stage2_4/branch2a/bn
I1025 13:38:28.042182 13643 net.cpp:100] Creating Layer stage2_4/branch2a/bn
I1025 13:38:28.042186 13643 net.cpp:434] stage2_4/branch2a/bn <- stage2_4/branch2a
I1025 13:38:28.042192 13643 net.cpp:395] stage2_4/branch2a/bn -> stage2_4/branch2a (in-place)
I1025 13:38:28.042316 13643 net.cpp:150] Setting up stage2_4/branch2a/bn
I1025 13:38:28.042321 13643 net.cpp:157] Top shape: 16 32 38 38 (739328)
I1025 13:38:28.042323 13643 net.cpp:165] Memory required for data: 1882669472
I1025 13:38:28.042327 13643 layer_factory.hpp:77] Creating layer stage2_4/branch2a/scale
I1025 13:38:28.042333 13643 net.cpp:100] Creating Layer stage2_4/branch2a/scale
I1025 13:38:28.042335 13643 net.cpp:434] stage2_4/branch2a/scale <- stage2_4/branch2a
I1025 13:38:28.042338 13643 net.cpp:395] stage2_4/branch2a/scale -> stage2_4/branch2a (in-place)
I1025 13:38:28.042361 13643 layer_factory.hpp:77] Creating layer stage2_4/branch2a/scale
I1025 13:38:28.042429 13643 net.cpp:150] Setting up stage2_4/branch2a/scale
I1025 13:38:28.042434 13643 net.cpp:157] Top shape: 16 32 38 38 (739328)
I1025 13:38:28.042436 13643 net.cpp:165] Memory required for data: 1885626784
I1025 13:38:28.042439 13643 layer_factory.hpp:77] Creating layer stage2_4/branch2a/relu
I1025 13:38:28.042445 13643 net.cpp:100] Creating Layer stage2_4/branch2a/relu
I1025 13:38:28.042448 13643 net.cpp:434] stage2_4/branch2a/relu <- stage2_4/branch2a
I1025 13:38:28.042451 13643 net.cpp:395] stage2_4/branch2a/relu -> stage2_4/branch2a (in-place)
I1025 13:38:28.042840 13643 net.cpp:150] Setting up stage2_4/branch2a/relu
I1025 13:38:28.042850 13643 net.cpp:157] Top shape: 16 32 38 38 (739328)
I1025 13:38:28.042851 13643 net.cpp:165] Memory required for data: 1888584096
I1025 13:38:28.042855 13643 layer_factory.hpp:77] Creating layer stage2_4/branch2b
I1025 13:38:28.042860 13643 net.cpp:100] Creating Layer stage2_4/branch2b
I1025 13:38:28.042865 13643 net.cpp:434] stage2_4/branch2b <- stage2_4/branch2a
I1025 13:38:28.042870 13643 net.cpp:408] stage2_4/branch2b -> stage2_4/branch2b
I1025 13:38:28.044275 13643 net.cpp:150] Setting up stage2_4/branch2b
I1025 13:38:28.044283 13643 net.cpp:157] Top shape: 16 16 38 38 (369664)
I1025 13:38:28.044286 13643 net.cpp:165] Memory required for data: 1890062752
I1025 13:38:28.044289 13643 layer_factory.hpp:77] Creating layer stage2_4/branch2b/bn
I1025 13:38:28.044296 13643 net.cpp:100] Creating Layer stage2_4/branch2b/bn
I1025 13:38:28.044299 13643 net.cpp:434] stage2_4/branch2b/bn <- stage2_4/branch2b
I1025 13:38:28.044303 13643 net.cpp:395] stage2_4/branch2b/bn -> stage2_4/branch2b (in-place)
I1025 13:38:28.044421 13643 net.cpp:150] Setting up stage2_4/branch2b/bn
I1025 13:38:28.044426 13643 net.cpp:157] Top shape: 16 16 38 38 (369664)
I1025 13:38:28.044428 13643 net.cpp:165] Memory required for data: 1891541408
I1025 13:38:28.044433 13643 layer_factory.hpp:77] Creating layer stage2_4/branch2b/scale
I1025 13:38:28.044438 13643 net.cpp:100] Creating Layer stage2_4/branch2b/scale
I1025 13:38:28.044440 13643 net.cpp:434] stage2_4/branch2b/scale <- stage2_4/branch2b
I1025 13:38:28.044443 13643 net.cpp:395] stage2_4/branch2b/scale -> stage2_4/branch2b (in-place)
I1025 13:38:28.044467 13643 layer_factory.hpp:77] Creating layer stage2_4/branch2b/scale
I1025 13:38:28.044534 13643 net.cpp:150] Setting up stage2_4/branch2b/scale
I1025 13:38:28.044538 13643 net.cpp:157] Top shape: 16 16 38 38 (369664)
I1025 13:38:28.044540 13643 net.cpp:165] Memory required for data: 1893020064
I1025 13:38:28.044544 13643 layer_factory.hpp:77] Creating layer stage2_4/branch2b/relu
I1025 13:38:28.044548 13643 net.cpp:100] Creating Layer stage2_4/branch2b/relu
I1025 13:38:28.044551 13643 net.cpp:434] stage2_4/branch2b/relu <- stage2_4/branch2b
I1025 13:38:28.044554 13643 net.cpp:395] stage2_4/branch2b/relu -> stage2_4/branch2b (in-place)
I1025 13:38:28.044957 13643 net.cpp:150] Setting up stage2_4/branch2b/relu
I1025 13:38:28.044966 13643 net.cpp:157] Top shape: 16 16 38 38 (369664)
I1025 13:38:28.044968 13643 net.cpp:165] Memory required for data: 1894498720
I1025 13:38:28.044971 13643 layer_factory.hpp:77] Creating layer stage2_4/branch2c
I1025 13:38:28.044977 13643 net.cpp:100] Creating Layer stage2_4/branch2c
I1025 13:38:28.044981 13643 net.cpp:434] stage2_4/branch2c <- stage2_4/branch2b
I1025 13:38:28.044986 13643 net.cpp:408] stage2_4/branch2c -> stage2_4/branch2c
I1025 13:38:28.046914 13643 net.cpp:150] Setting up stage2_4/branch2c
I1025 13:38:28.046923 13643 net.cpp:157] Top shape: 16 16 38 38 (369664)
I1025 13:38:28.046926 13643 net.cpp:165] Memory required for data: 1895977376
I1025 13:38:28.046928 13643 layer_factory.hpp:77] Creating layer stage2_4/branch2c/bn
I1025 13:38:28.046936 13643 net.cpp:100] Creating Layer stage2_4/branch2c/bn
I1025 13:38:28.046938 13643 net.cpp:434] stage2_4/branch2c/bn <- stage2_4/branch2c
I1025 13:38:28.046942 13643 net.cpp:395] stage2_4/branch2c/bn -> stage2_4/branch2c (in-place)
I1025 13:38:28.047065 13643 net.cpp:150] Setting up stage2_4/branch2c/bn
I1025 13:38:28.047070 13643 net.cpp:157] Top shape: 16 16 38 38 (369664)
I1025 13:38:28.047072 13643 net.cpp:165] Memory required for data: 1897456032
I1025 13:38:28.047077 13643 layer_factory.hpp:77] Creating layer stage2_4/branch2c/scale
I1025 13:38:28.047081 13643 net.cpp:100] Creating Layer stage2_4/branch2c/scale
I1025 13:38:28.047083 13643 net.cpp:434] stage2_4/branch2c/scale <- stage2_4/branch2c
I1025 13:38:28.047087 13643 net.cpp:395] stage2_4/branch2c/scale -> stage2_4/branch2c (in-place)
I1025 13:38:28.047109 13643 layer_factory.hpp:77] Creating layer stage2_4/branch2c/scale
I1025 13:38:28.047188 13643 net.cpp:150] Setting up stage2_4/branch2c/scale
I1025 13:38:28.047192 13643 net.cpp:157] Top shape: 16 16 38 38 (369664)
I1025 13:38:28.047195 13643 net.cpp:165] Memory required for data: 1898934688
I1025 13:38:28.047199 13643 layer_factory.hpp:77] Creating layer stage2_4/branch2c/relu
I1025 13:38:28.047202 13643 net.cpp:100] Creating Layer stage2_4/branch2c/relu
I1025 13:38:28.047204 13643 net.cpp:434] stage2_4/branch2c/relu <- stage2_4/branch2c
I1025 13:38:28.047209 13643 net.cpp:395] stage2_4/branch2c/relu -> stage2_4/branch2c (in-place)
I1025 13:38:28.048739 13643 net.cpp:150] Setting up stage2_4/branch2c/relu
I1025 13:38:28.048749 13643 net.cpp:157] Top shape: 16 16 38 38 (369664)
I1025 13:38:28.048753 13643 net.cpp:165] Memory required for data: 1900413344
I1025 13:38:28.048755 13643 layer_factory.hpp:77] Creating layer stage2_4/concat
I1025 13:38:28.048760 13643 net.cpp:100] Creating Layer stage2_4/concat
I1025 13:38:28.048763 13643 net.cpp:434] stage2_4/concat <- stage2_3/concat_stage2_3/concat_0_split_2
I1025 13:38:28.048766 13643 net.cpp:434] stage2_4/concat <- stage2_4/branch1b
I1025 13:38:28.048770 13643 net.cpp:434] stage2_4/concat <- stage2_4/branch2c
I1025 13:38:28.048774 13643 net.cpp:408] stage2_4/concat -> stage2_4/concat
I1025 13:38:28.048792 13643 net.cpp:150] Setting up stage2_4/concat
I1025 13:38:28.048797 13643 net.cpp:157] Top shape: 16 256 38 38 (5914624)
I1025 13:38:28.048800 13643 net.cpp:165] Memory required for data: 1924071840
I1025 13:38:28.048802 13643 layer_factory.hpp:77] Creating layer stage2_tb
I1025 13:38:28.048807 13643 net.cpp:100] Creating Layer stage2_tb
I1025 13:38:28.048810 13643 net.cpp:434] stage2_tb <- stage2_4/concat
I1025 13:38:28.048815 13643 net.cpp:408] stage2_tb -> stage2_tb
I1025 13:38:28.050523 13643 net.cpp:150] Setting up stage2_tb
I1025 13:38:28.050531 13643 net.cpp:157] Top shape: 16 256 38 38 (5914624)
I1025 13:38:28.050534 13643 net.cpp:165] Memory required for data: 1947730336
I1025 13:38:28.050537 13643 layer_factory.hpp:77] Creating layer stage2_tb/bn
I1025 13:38:28.050544 13643 net.cpp:100] Creating Layer stage2_tb/bn
I1025 13:38:28.050546 13643 net.cpp:434] stage2_tb/bn <- stage2_tb
I1025 13:38:28.050549 13643 net.cpp:395] stage2_tb/bn -> stage2_tb (in-place)
I1025 13:38:28.050676 13643 net.cpp:150] Setting up stage2_tb/bn
I1025 13:38:28.050683 13643 net.cpp:157] Top shape: 16 256 38 38 (5914624)
I1025 13:38:28.050684 13643 net.cpp:165] Memory required for data: 1971388832
I1025 13:38:28.050688 13643 layer_factory.hpp:77] Creating layer stage2_tb/scale
I1025 13:38:28.050693 13643 net.cpp:100] Creating Layer stage2_tb/scale
I1025 13:38:28.050695 13643 net.cpp:434] stage2_tb/scale <- stage2_tb
I1025 13:38:28.050698 13643 net.cpp:395] stage2_tb/scale -> stage2_tb (in-place)
I1025 13:38:28.050724 13643 layer_factory.hpp:77] Creating layer stage2_tb/scale
I1025 13:38:28.050786 13643 net.cpp:150] Setting up stage2_tb/scale
I1025 13:38:28.050791 13643 net.cpp:157] Top shape: 16 256 38 38 (5914624)
I1025 13:38:28.050792 13643 net.cpp:165] Memory required for data: 1995047328
I1025 13:38:28.050796 13643 layer_factory.hpp:77] Creating layer stage2_tb/relu
I1025 13:38:28.050799 13643 net.cpp:100] Creating Layer stage2_tb/relu
I1025 13:38:28.050801 13643 net.cpp:434] stage2_tb/relu <- stage2_tb
I1025 13:38:28.050806 13643 net.cpp:395] stage2_tb/relu -> stage2_tb (in-place)
I1025 13:38:28.051091 13643 net.cpp:150] Setting up stage2_tb/relu
I1025 13:38:28.051098 13643 net.cpp:157] Top shape: 16 256 38 38 (5914624)
I1025 13:38:28.051100 13643 net.cpp:165] Memory required for data: 2018705824
I1025 13:38:28.051102 13643 layer_factory.hpp:77] Creating layer stage2_tb_stage2_tb/relu_0_split
I1025 13:38:28.051106 13643 net.cpp:100] Creating Layer stage2_tb_stage2_tb/relu_0_split
I1025 13:38:28.051110 13643 net.cpp:434] stage2_tb_stage2_tb/relu_0_split <- stage2_tb
I1025 13:38:28.051115 13643 net.cpp:408] stage2_tb_stage2_tb/relu_0_split -> stage2_tb_stage2_tb/relu_0_split_0
I1025 13:38:28.051120 13643 net.cpp:408] stage2_tb_stage2_tb/relu_0_split -> stage2_tb_stage2_tb/relu_0_split_1
I1025 13:38:28.051136 13643 net.cpp:408] stage2_tb_stage2_tb/relu_0_split -> stage2_tb_stage2_tb/relu_0_split_2
I1025 13:38:28.051168 13643 net.cpp:150] Setting up stage2_tb_stage2_tb/relu_0_split
I1025 13:38:28.051173 13643 net.cpp:157] Top shape: 16 256 38 38 (5914624)
I1025 13:38:28.051175 13643 net.cpp:157] Top shape: 16 256 38 38 (5914624)
I1025 13:38:28.051177 13643 net.cpp:157] Top shape: 16 256 38 38 (5914624)
I1025 13:38:28.051180 13643 net.cpp:165] Memory required for data: 2089681312
I1025 13:38:28.051182 13643 layer_factory.hpp:77] Creating layer stage4_tb/ext/pm1
I1025 13:38:28.051188 13643 net.cpp:100] Creating Layer stage4_tb/ext/pm1
I1025 13:38:28.051192 13643 net.cpp:434] stage4_tb/ext/pm1 <- stage2_tb_stage2_tb/relu_0_split_0
I1025 13:38:28.051196 13643 net.cpp:408] stage4_tb/ext/pm1 -> stage4_tb/ext/pm1
I1025 13:38:28.052870 13643 net.cpp:150] Setting up stage4_tb/ext/pm1
I1025 13:38:28.052882 13643 net.cpp:157] Top shape: 16 256 38 38 (5914624)
I1025 13:38:28.052886 13643 net.cpp:165] Memory required for data: 2113339808
I1025 13:38:28.052891 13643 layer_factory.hpp:77] Creating layer stage4_tb/ext/pm1/bn
I1025 13:38:28.052898 13643 net.cpp:100] Creating Layer stage4_tb/ext/pm1/bn
I1025 13:38:28.052902 13643 net.cpp:434] stage4_tb/ext/pm1/bn <- stage4_tb/ext/pm1
I1025 13:38:28.052908 13643 net.cpp:395] stage4_tb/ext/pm1/bn -> stage4_tb/ext/pm1 (in-place)
I1025 13:38:28.053050 13643 net.cpp:150] Setting up stage4_tb/ext/pm1/bn
I1025 13:38:28.053056 13643 net.cpp:157] Top shape: 16 256 38 38 (5914624)
I1025 13:38:28.053058 13643 net.cpp:165] Memory required for data: 2136998304
I1025 13:38:28.053063 13643 layer_factory.hpp:77] Creating layer stage4_tb/ext/pm1/scale
I1025 13:38:28.053069 13643 net.cpp:100] Creating Layer stage4_tb/ext/pm1/scale
I1025 13:38:28.053073 13643 net.cpp:434] stage4_tb/ext/pm1/scale <- stage4_tb/ext/pm1
I1025 13:38:28.053076 13643 net.cpp:395] stage4_tb/ext/pm1/scale -> stage4_tb/ext/pm1 (in-place)
I1025 13:38:28.053100 13643 layer_factory.hpp:77] Creating layer stage4_tb/ext/pm1/scale
I1025 13:38:28.053162 13643 net.cpp:150] Setting up stage4_tb/ext/pm1/scale
I1025 13:38:28.053167 13643 net.cpp:157] Top shape: 16 256 38 38 (5914624)
I1025 13:38:28.053169 13643 net.cpp:165] Memory required for data: 2160656800
I1025 13:38:28.053172 13643 layer_factory.hpp:77] Creating layer stage4_tb/ext/pm1/b2a
I1025 13:38:28.053180 13643 net.cpp:100] Creating Layer stage4_tb/ext/pm1/b2a
I1025 13:38:28.053184 13643 net.cpp:434] stage4_tb/ext/pm1/b2a <- stage2_tb_stage2_tb/relu_0_split_1
I1025 13:38:28.053187 13643 net.cpp:408] stage4_tb/ext/pm1/b2a -> stage4_tb/ext/pm1/b2a
I1025 13:38:28.055929 13643 net.cpp:150] Setting up stage4_tb/ext/pm1/b2a
I1025 13:38:28.055940 13643 net.cpp:157] Top shape: 16 128 38 38 (2957312)
I1025 13:38:28.055943 13643 net.cpp:165] Memory required for data: 2172486048
I1025 13:38:28.055946 13643 layer_factory.hpp:77] Creating layer stage4_tb/ext/pm1/b2a/bn
I1025 13:38:28.055953 13643 net.cpp:100] Creating Layer stage4_tb/ext/pm1/b2a/bn
I1025 13:38:28.055958 13643 net.cpp:434] stage4_tb/ext/pm1/b2a/bn <- stage4_tb/ext/pm1/b2a
I1025 13:38:28.055960 13643 net.cpp:395] stage4_tb/ext/pm1/b2a/bn -> stage4_tb/ext/pm1/b2a (in-place)
I1025 13:38:28.056077 13643 net.cpp:150] Setting up stage4_tb/ext/pm1/b2a/bn
I1025 13:38:28.056082 13643 net.cpp:157] Top shape: 16 128 38 38 (2957312)
I1025 13:38:28.056084 13643 net.cpp:165] Memory required for data: 2184315296
I1025 13:38:28.056088 13643 layer_factory.hpp:77] Creating layer stage4_tb/ext/pm1/b2a/scale
I1025 13:38:28.056094 13643 net.cpp:100] Creating Layer stage4_tb/ext/pm1/b2a/scale
I1025 13:38:28.056097 13643 net.cpp:434] stage4_tb/ext/pm1/b2a/scale <- stage4_tb/ext/pm1/b2a
I1025 13:38:28.056102 13643 net.cpp:395] stage4_tb/ext/pm1/b2a/scale -> stage4_tb/ext/pm1/b2a (in-place)
I1025 13:38:28.056126 13643 layer_factory.hpp:77] Creating layer stage4_tb/ext/pm1/b2a/scale
I1025 13:38:28.056190 13643 net.cpp:150] Setting up stage4_tb/ext/pm1/b2a/scale
I1025 13:38:28.056193 13643 net.cpp:157] Top shape: 16 128 38 38 (2957312)
I1025 13:38:28.056206 13643 net.cpp:165] Memory required for data: 2196144544
I1025 13:38:28.056226 13643 layer_factory.hpp:77] Creating layer stage4_tb/ext/pm1/b2a/relu
I1025 13:38:28.056231 13643 net.cpp:100] Creating Layer stage4_tb/ext/pm1/b2a/relu
I1025 13:38:28.056233 13643 net.cpp:434] stage4_tb/ext/pm1/b2a/relu <- stage4_tb/ext/pm1/b2a
I1025 13:38:28.056238 13643 net.cpp:395] stage4_tb/ext/pm1/b2a/relu -> stage4_tb/ext/pm1/b2a (in-place)
I1025 13:38:28.056622 13643 net.cpp:150] Setting up stage4_tb/ext/pm1/b2a/relu
I1025 13:38:28.056630 13643 net.cpp:157] Top shape: 16 128 38 38 (2957312)
I1025 13:38:28.056632 13643 net.cpp:165] Memory required for data: 2207973792
I1025 13:38:28.056635 13643 layer_factory.hpp:77] Creating layer stage4_tb/ext/pm1/b2b
I1025 13:38:28.056643 13643 net.cpp:100] Creating Layer stage4_tb/ext/pm1/b2b
I1025 13:38:28.056645 13643 net.cpp:434] stage4_tb/ext/pm1/b2b <- stage4_tb/ext/pm1/b2a
I1025 13:38:28.056650 13643 net.cpp:408] stage4_tb/ext/pm1/b2b -> stage4_tb/ext/pm1/b2b
I1025 13:38:28.058571 13643 net.cpp:150] Setting up stage4_tb/ext/pm1/b2b
I1025 13:38:28.058579 13643 net.cpp:157] Top shape: 16 128 38 38 (2957312)
I1025 13:38:28.058581 13643 net.cpp:165] Memory required for data: 2219803040
I1025 13:38:28.058585 13643 layer_factory.hpp:77] Creating layer stage4_tb/ext/pm1/b2b/bn
I1025 13:38:28.058594 13643 net.cpp:100] Creating Layer stage4_tb/ext/pm1/b2b/bn
I1025 13:38:28.058600 13643 net.cpp:434] stage4_tb/ext/pm1/b2b/bn <- stage4_tb/ext/pm1/b2b
I1025 13:38:28.058605 13643 net.cpp:395] stage4_tb/ext/pm1/b2b/bn -> stage4_tb/ext/pm1/b2b (in-place)
I1025 13:38:28.058724 13643 net.cpp:150] Setting up stage4_tb/ext/pm1/b2b/bn
I1025 13:38:28.058729 13643 net.cpp:157] Top shape: 16 128 38 38 (2957312)
I1025 13:38:28.058732 13643 net.cpp:165] Memory required for data: 2231632288
I1025 13:38:28.058737 13643 layer_factory.hpp:77] Creating layer stage4_tb/ext/pm1/b2b/scale
I1025 13:38:28.058742 13643 net.cpp:100] Creating Layer stage4_tb/ext/pm1/b2b/scale
I1025 13:38:28.058745 13643 net.cpp:434] stage4_tb/ext/pm1/b2b/scale <- stage4_tb/ext/pm1/b2b
I1025 13:38:28.058748 13643 net.cpp:395] stage4_tb/ext/pm1/b2b/scale -> stage4_tb/ext/pm1/b2b (in-place)
I1025 13:38:28.058773 13643 layer_factory.hpp:77] Creating layer stage4_tb/ext/pm1/b2b/scale
I1025 13:38:28.058847 13643 net.cpp:150] Setting up stage4_tb/ext/pm1/b2b/scale
I1025 13:38:28.058853 13643 net.cpp:157] Top shape: 16 128 38 38 (2957312)
I1025 13:38:28.058856 13643 net.cpp:165] Memory required for data: 2243461536
I1025 13:38:28.058858 13643 layer_factory.hpp:77] Creating layer stage4_tb/ext/pm1/b2b/relu
I1025 13:38:28.058863 13643 net.cpp:100] Creating Layer stage4_tb/ext/pm1/b2b/relu
I1025 13:38:28.058866 13643 net.cpp:434] stage4_tb/ext/pm1/b2b/relu <- stage4_tb/ext/pm1/b2b
I1025 13:38:28.058869 13643 net.cpp:395] stage4_tb/ext/pm1/b2b/relu -> stage4_tb/ext/pm1/b2b (in-place)
I1025 13:38:28.059238 13643 net.cpp:150] Setting up stage4_tb/ext/pm1/b2b/relu
I1025 13:38:28.059245 13643 net.cpp:157] Top shape: 16 128 38 38 (2957312)
I1025 13:38:28.059248 13643 net.cpp:165] Memory required for data: 2255290784
I1025 13:38:28.059252 13643 layer_factory.hpp:77] Creating layer stage4_tb/ext/pm1/b2c
I1025 13:38:28.059257 13643 net.cpp:100] Creating Layer stage4_tb/ext/pm1/b2c
I1025 13:38:28.059260 13643 net.cpp:434] stage4_tb/ext/pm1/b2c <- stage4_tb/ext/pm1/b2b
I1025 13:38:28.059267 13643 net.cpp:408] stage4_tb/ext/pm1/b2c -> stage4_tb/ext/pm1/b2c
I1025 13:38:28.060815 13643 net.cpp:150] Setting up stage4_tb/ext/pm1/b2c
I1025 13:38:28.060824 13643 net.cpp:157] Top shape: 16 256 38 38 (5914624)
I1025 13:38:28.060827 13643 net.cpp:165] Memory required for data: 2278949280
I1025 13:38:28.060830 13643 layer_factory.hpp:77] Creating layer stage4_tb/ext/pm1/b2c/bn
I1025 13:38:28.060837 13643 net.cpp:100] Creating Layer stage4_tb/ext/pm1/b2c/bn
I1025 13:38:28.060840 13643 net.cpp:434] stage4_tb/ext/pm1/b2c/bn <- stage4_tb/ext/pm1/b2c
I1025 13:38:28.060844 13643 net.cpp:395] stage4_tb/ext/pm1/b2c/bn -> stage4_tb/ext/pm1/b2c (in-place)
I1025 13:38:28.060966 13643 net.cpp:150] Setting up stage4_tb/ext/pm1/b2c/bn
I1025 13:38:28.060971 13643 net.cpp:157] Top shape: 16 256 38 38 (5914624)
I1025 13:38:28.060973 13643 net.cpp:165] Memory required for data: 2302607776
I1025 13:38:28.060977 13643 layer_factory.hpp:77] Creating layer stage4_tb/ext/pm1/b2c/scale
I1025 13:38:28.060982 13643 net.cpp:100] Creating Layer stage4_tb/ext/pm1/b2c/scale
I1025 13:38:28.060986 13643 net.cpp:434] stage4_tb/ext/pm1/b2c/scale <- stage4_tb/ext/pm1/b2c
I1025 13:38:28.060989 13643 net.cpp:395] stage4_tb/ext/pm1/b2c/scale -> stage4_tb/ext/pm1/b2c (in-place)
I1025 13:38:28.061013 13643 layer_factory.hpp:77] Creating layer stage4_tb/ext/pm1/b2c/scale
I1025 13:38:28.061074 13643 net.cpp:150] Setting up stage4_tb/ext/pm1/b2c/scale
I1025 13:38:28.061079 13643 net.cpp:157] Top shape: 16 256 38 38 (5914624)
I1025 13:38:28.061081 13643 net.cpp:165] Memory required for data: 2326266272
I1025 13:38:28.061084 13643 layer_factory.hpp:77] Creating layer stage4_tb/ext/pm1/res
I1025 13:38:28.061094 13643 net.cpp:100] Creating Layer stage4_tb/ext/pm1/res
I1025 13:38:28.061096 13643 net.cpp:434] stage4_tb/ext/pm1/res <- stage4_tb/ext/pm1
I1025 13:38:28.061100 13643 net.cpp:434] stage4_tb/ext/pm1/res <- stage4_tb/ext/pm1/b2c
I1025 13:38:28.061105 13643 net.cpp:408] stage4_tb/ext/pm1/res -> stage4_tb/ext/pm1/res
I1025 13:38:28.061120 13643 net.cpp:150] Setting up stage4_tb/ext/pm1/res
I1025 13:38:28.061125 13643 net.cpp:157] Top shape: 16 256 38 38 (5914624)
I1025 13:38:28.061127 13643 net.cpp:165] Memory required for data: 2349924768
I1025 13:38:28.061130 13643 layer_factory.hpp:77] Creating layer stage4_tb/ext/pm1/res/relu
…
I1025 13:38:28.810546 13643 net.cpp:150] Setting up stage4_tb/ext/pm5/b2a
I1025 13:38:28.810555 13643 net.cpp:157] Top shape: 1 128 3 3 (1152)
I1025 13:38:28.810559 13643 net.cpp:165] Memory required for data: 201377472
I1025 13:38:28.810562 13643 layer_factory.hpp:77] Creating layer stage4_tb/ext/pm5/b2a/bn
I1025 13:38:28.810567 13643 net.cpp:100] Creating Layer stage4_tb/ext/pm5/b2a/bn
I1025 13:38:28.810571 13643 net.cpp:434] stage4_tb/ext/pm5/b2a/bn <- stage4_tb/ext/pm5/b2a
I1025 13:38:28.810576 13643 net.cpp:395] stage4_tb/ext/pm5/b2a/bn -> stage4_tb/ext/pm5/b2a (in-place)
I1025 13:38:28.810719 13643 net.cpp:150] Setting up stage4_tb/ext/pm5/b2a/bn
I1025 13:38:28.810726 13643 net.cpp:157] Top shape: 1 128 3 3 (1152)
I1025 13:38:28.810729 13643 net.cpp:165] Memory required for data: 201382080
I1025 13:38:28.810737 13643 layer_factory.hpp:77] Creating layer stage4_tb/ext/pm5/b2a/scale
I1025 13:38:28.810744 13643 net.cpp:100] Creating Layer stage4_tb/ext/pm5/b2a/scale
I1025 13:38:28.810747 13643 net.cpp:434] stage4_tb/ext/pm5/b2a/scale <- stage4_tb/ext/pm5/b2a
I1025 13:38:28.810752 13643 net.cpp:395] stage4_tb/ext/pm5/b2a/scale -> stage4_tb/ext/pm5/b2a (in-place)
I1025 13:38:28.810777 13643 layer_factory.hpp:77] Creating layer stage4_tb/ext/pm5/b2a/scale
I1025 13:38:28.810847 13643 net.cpp:150] Setting up stage4_tb/ext/pm5/b2a/scale
I1025 13:38:28.810853 13643 net.cpp:157] Top shape: 1 128 3 3 (1152)
I1025 13:38:28.810854 13643 net.cpp:165] Memory required for data: 201386688
I1025 13:38:28.810858 13643 layer_factory.hpp:77] Creating layer stage4_tb/ext/pm5/b2a/relu
I1025 13:38:28.810861 13643 net.cpp:100] Creating Layer stage4_tb/ext/pm5/b2a/relu
I1025 13:38:28.810863 13643 net.cpp:434] stage4_tb/ext/pm5/b2a/relu <- stage4_tb/ext/pm5/b2a
I1025 13:38:28.810866 13643 net.cpp:395] stage4_tb/ext/pm5/b2a/relu -> stage4_tb/ext/pm5/b2a (in-place)
I1025 13:38:28.811257 13643 net.cpp:150] Setting up stage4_tb/ext/pm5/b2a/relu
I1025 13:38:28.811264 13643 net.cpp:157] Top shape: 1 128 3 3 (1152)
I1025 13:38:28.811266 13643 net.cpp:165] Memory required for data: 201391296
I1025 13:38:28.811269 13643 layer_factory.hpp:77] Creating layer stage4_tb/ext/pm5/b2b
I1025 13:38:28.811275 13643 net.cpp:100] Creating Layer stage4_tb/ext/pm5/b2b
I1025 13:38:28.811277 13643 net.cpp:434] stage4_tb/ext/pm5/b2b <- stage4_tb/ext/pm5/b2a
I1025 13:38:28.811290 13643 net.cpp:408] stage4_tb/ext/pm5/b2b -> stage4_tb/ext/pm5/b2b
I1025 13:38:28.815690 13643 net.cpp:150] Setting up stage4_tb/ext/pm5/b2b
I1025 13:38:28.815706 13643 net.cpp:157] Top shape: 1 128 3 3 (1152)
I1025 13:38:28.815709 13643 net.cpp:165] Memory required for data: 201395904
I1025 13:38:28.815714 13643 layer_factory.hpp:77] Creating layer stage4_tb/ext/pm5/b2b/bn
I1025 13:38:28.815721 13643 net.cpp:100] Creating Layer stage4_tb/ext/pm5/b2b/bn
I1025 13:38:28.815724 13643 net.cpp:434] stage4_tb/ext/pm5/b2b/bn <- stage4_tb/ext/pm5/b2b
I1025 13:38:28.815729 13643 net.cpp:395] stage4_tb/ext/pm5/b2b/bn -> stage4_tb/ext/pm5/b2b (in-place)
I1025 13:38:28.815862 13643 net.cpp:150] Setting up stage4_tb/ext/pm5/b2b/bn
I1025 13:38:28.815867 13643 net.cpp:157] Top shape: 1 128 3 3 (1152)
I1025 13:38:28.815871 13643 net.cpp:165] Memory required for data: 201400512
I1025 13:38:28.815874 13643 layer_factory.hpp:77] Creating layer stage4_tb/ext/pm5/b2b/scale
I1025 13:38:28.815878 13643 net.cpp:100] Creating Layer stage4_tb/ext/pm5/b2b/scale
I1025 13:38:28.815881 13643 net.cpp:434] stage4_tb/ext/pm5/b2b/scale <- stage4_tb/ext/pm5/b2b
I1025 13:38:28.815884 13643 net.cpp:395] stage4_tb/ext/pm5/b2b/scale -> stage4_tb/ext/pm5/b2b (in-place)
I1025 13:38:28.815910 13643 layer_factory.hpp:77] Creating layer stage4_tb/ext/pm5/b2b/scale
I1025 13:38:28.815982 13643 net.cpp:150] Setting up stage4_tb/ext/pm5/b2b/scale
I1025 13:38:28.815986 13643 net.cpp:157] Top shape: 1 128 3 3 (1152)
I1025 13:38:28.815989 13643 net.cpp:165] Memory required for data: 201405120
I1025 13:38:28.815992 13643 layer_factory.hpp:77] Creating layer stage4_tb/ext/pm5/b2b/relu
I1025 13:38:28.815999 13643 net.cpp:100] Creating Layer stage4_tb/ext/pm5/b2b/relu
I1025 13:38:28.816000 13643 net.cpp:434] stage4_tb/ext/pm5/b2b/relu <- stage4_tb/ext/pm5/b2b
I1025 13:38:28.816004 13643 net.cpp:395] stage4_tb/ext/pm5/b2b/relu -> stage4_tb/ext/pm5/b2b (in-place)
I1025 13:38:28.816396 13643 net.cpp:150] Setting up stage4_tb/ext/pm5/b2b/relu
I1025 13:38:28.816403 13643 net.cpp:157] Top shape: 1 128 3 3 (1152)
I1025 13:38:28.816406 13643 net.cpp:165] Memory required for data: 201409728
I1025 13:38:28.816408 13643 layer_factory.hpp:77] Creating layer stage4_tb/ext/pm5/b2c
I1025 13:38:28.816416 13643 net.cpp:100] Creating Layer stage4_tb/ext/pm5/b2c
I1025 13:38:28.816418 13643 net.cpp:434] stage4_tb/ext/pm5/b2c <- stage4_tb/ext/pm5/b2b
I1025 13:38:28.816423 13643 net.cpp:408] stage4_tb/ext/pm5/b2c -> stage4_tb/ext/pm5/b2c
I1025 13:38:28.818377 13643 net.cpp:150] Setting up stage4_tb/ext/pm5/b2c
I1025 13:38:28.818384 13643 net.cpp:157] Top shape: 1 256 3 3 (2304)
I1025 13:38:28.818387 13643 net.cpp:165] Memory required for data: 201418944
I1025 13:38:28.818390 13643 layer_factory.hpp:77] Creating layer stage4_tb/ext/pm5/b2c/bn
I1025 13:38:28.818397 13643 net.cpp:100] Creating Layer stage4_tb/ext/pm5/b2c/bn
I1025 13:38:28.818399 13643 net.cpp:434] stage4_tb/ext/pm5/b2c/bn <- stage4_tb/ext/pm5/b2c
I1025 13:38:28.818403 13643 net.cpp:395] stage4_tb/ext/pm5/b2c/bn -> stage4_tb/ext/pm5/b2c (in-place)
I1025 13:38:28.818528 13643 net.cpp:150] Setting up stage4_tb/ext/pm5/b2c/bn
I1025 13:38:28.818533 13643 net.cpp:157] Top shape: 1 256 3 3 (2304)
I1025 13:38:28.818536 13643 net.cpp:165] Memory required for data: 201428160
I1025 13:38:28.818539 13643 layer_factory.hpp:77] Creating layer stage4_tb/ext/pm5/b2c/scale
I1025 13:38:28.818543 13643 net.cpp:100] Creating Layer stage4_tb/ext/pm5/b2c/scale
I1025 13:38:28.818547 13643 net.cpp:434] stage4_tb/ext/pm5/b2c/scale <- stage4_tb/ext/pm5/b2c
I1025 13:38:28.818550 13643 net.cpp:395] stage4_tb/ext/pm5/b2c/scale -> stage4_tb/ext/pm5/b2c (in-place)
I1025 13:38:28.818574 13643 layer_factory.hpp:77] Creating layer stage4_tb/ext/pm5/b2c/scale
I1025 13:38:28.818657 13643 net.cpp:150] Setting up stage4_tb/ext/pm5/b2c/scale
I1025 13:38:28.818663 13643 net.cpp:157] Top shape: 1 256 3 3 (2304)
I1025 13:38:28.818665 13643 net.cpp:165] Memory required for data: 201437376
I1025 13:38:28.818670 13643 layer_factory.hpp:77] Creating layer stage4_tb/ext/pm5/res
I1025 13:38:28.818684 13643 net.cpp:100] Creating Layer stage4_tb/ext/pm5/res
I1025 13:38:28.818689 13643 net.cpp:434] stage4_tb/ext/pm5/res <- stage4_tb/ext/pm5
I1025 13:38:28.818696 13643 net.cpp:434] stage4_tb/ext/pm5/res <- stage4_tb/ext/pm5/b2c
I1025 13:38:28.818702 13643 net.cpp:408] stage4_tb/ext/pm5/res -> stage4_tb/ext/pm5/res
I1025 13:38:28.818727 13643 net.cpp:150] Setting up stage4_tb/ext/pm5/res
I1025 13:38:28.818733 13643 net.cpp:157] Top shape: 1 256 3 3 (2304)
I1025 13:38:28.818738 13643 net.cpp:165] Memory required for data: 201446592
I1025 13:38:28.818742 13643 layer_factory.hpp:77] Creating layer stage4_tb/ext/pm5/res/relu
I1025 13:38:28.818747 13643 net.cpp:100] Creating Layer stage4_tb/ext/pm5/res/relu
I1025 13:38:28.818751 13643 net.cpp:434] stage4_tb/ext/pm5/res/relu <- stage4_tb/ext/pm5/res
I1025 13:38:28.818754 13643 net.cpp:395] stage4_tb/ext/pm5/res/relu -> stage4_tb/ext/pm5/res (in-place)
I1025 13:38:28.819149 13643 net.cpp:150] Setting up stage4_tb/ext/pm5/res/relu
I1025 13:38:28.819157 13643 net.cpp:157] Top shape: 1 256 3 3 (2304)
I1025 13:38:28.819159 13643 net.cpp:165] Memory required for data: 201455808
I1025 13:38:28.819162 13643 layer_factory.hpp:77] Creating layer stage4_tb/ext/pm5/res_stage4_tb/ext/pm5/res/relu_0_split
I1025 13:38:28.819166 13643 net.cpp:100] Creating Layer stage4_tb/ext/pm5/res_stage4_tb/ext/pm5/res/relu_0_split
I1025 13:38:28.819169 13643 net.cpp:434] stage4_tb/ext/pm5/res_stage4_tb/ext/pm5/res/relu_0_split <- stage4_tb/ext/pm5/res
I1025 13:38:28.819175 13643 net.cpp:408] stage4_tb/ext/pm5/res_stage4_tb/ext/pm5/res/relu_0_split -> stage4_tb/ext/pm5/res_stage4_tb/ext/pm5/res/relu_0_split_0
I1025 13:38:28.819181 13643 net.cpp:408] stage4_tb/ext/pm5/res_stage4_tb/ext/pm5/res/relu_0_split -> stage4_tb/ext/pm5/res_stage4_tb/ext/pm5/res/relu_0_split_1
I1025 13:38:28.819187 13643 net.cpp:408] stage4_tb/ext/pm5/res_stage4_tb/ext/pm5/res/relu_0_split -> stage4_tb/ext/pm5/res_stage4_tb/ext/pm5/res/relu_0_split_2
I1025 13:38:28.819223 13643 net.cpp:150] Setting up stage4_tb/ext/pm5/res_stage4_tb/ext/pm5/res/relu_0_split
I1025 13:38:28.819227 13643 net.cpp:157] Top shape: 1 256 3 3 (2304)
I1025 13:38:28.819231 13643 net.cpp:157] Top shape: 1 256 3 3 (2304)
I1025 13:38:28.819232 13643 net.cpp:157] Top shape: 1 256 3 3 (2304)
I1025 13:38:28.819234 13643 net.cpp:165] Memory required for data: 201483456
I1025 13:38:28.819236 13643 layer_factory.hpp:77] Creating layer stage4_tb/ext/pm6
I1025 13:38:28.819242 13643 net.cpp:100] Creating Layer stage4_tb/ext/pm6
I1025 13:38:28.819247 13643 net.cpp:434] stage4_tb/ext/pm6 <- ext1/fe3_2_ext1/fe3_2/relu_0_split_0
I1025 13:38:28.819252 13643 net.cpp:408] stage4_tb/ext/pm6 -> stage4_tb/ext/pm6
I1025 13:38:28.823101 13643 net.cpp:150] Setting up stage4_tb/ext/pm6
I1025 13:38:28.823112 13643 net.cpp:157] Top shape: 1 256 1 1 (256)
I1025 13:38:28.823114 13643 net.cpp:165] Memory required for data: 201484480
I1025 13:38:28.823118 13643 layer_factory.hpp:77] Creating layer stage4_tb/ext/pm6/bn
I1025 13:38:28.823124 13643 net.cpp:100] Creating Layer stage4_tb/ext/pm6/bn
I1025 13:38:28.823128 13643 net.cpp:434] stage4_tb/ext/pm6/bn <- stage4_tb/ext/pm6
I1025 13:38:28.823132 13643 net.cpp:395] stage4_tb/ext/pm6/bn -> stage4_tb/ext/pm6 (in-place)
I1025 13:38:28.823257 13643 net.cpp:150] Setting up stage4_tb/ext/pm6/bn
I1025 13:38:28.823261 13643 net.cpp:157] Top shape: 1 256 1 1 (256)
I1025 13:38:28.823264 13643 net.cpp:165] Memory required for data: 201485504
I1025 13:38:28.823268 13643 layer_factory.hpp:77] Creating layer stage4_tb/ext/pm6/scale
I1025 13:38:28.823273 13643 net.cpp:100] Creating Layer stage4_tb/ext/pm6/scale
I1025 13:38:28.823276 13643 net.cpp:434] stage4_tb/ext/pm6/scale <- stage4_tb/ext/pm6
I1025 13:38:28.823282 13643 net.cpp:395] stage4_tb/ext/pm6/scale -> stage4_tb/ext/pm6 (in-place)
I1025 13:38:28.823305 13643 layer_factory.hpp:77] Creating layer stage4_tb/ext/pm6/scale
I1025 13:38:28.823374 13643 net.cpp:150] Setting up stage4_tb/ext/pm6/scale
I1025 13:38:28.823379 13643 net.cpp:157] Top shape: 1 256 1 1 (256)
I1025 13:38:28.823390 13643 net.cpp:165] Memory required for data: 201486528
I1025 13:38:28.823393 13643 layer_factory.hpp:77] Creating layer stage4_tb/ext/pm6/b2a
I1025 13:38:28.823400 13643 net.cpp:100] Creating Layer stage4_tb/ext/pm6/b2a
I1025 13:38:28.823403 13643 net.cpp:434] stage4_tb/ext/pm6/b2a <- ext1/fe3_2_ext1/fe3_2/relu_0_split_1
I1025 13:38:28.823410 13643 net.cpp:408] stage4_tb/ext/pm6/b2a -> stage4_tb/ext/pm6/b2a
I1025 13:38:28.825121 13643 net.cpp:150] Setting up stage4_tb/ext/pm6/b2a
I1025 13:38:28.825129 13643 net.cpp:157] Top shape: 1 128 1 1 (128)
I1025 13:38:28.825132 13643 net.cpp:165] Memory required for data: 201487040
I1025 13:38:28.825136 13643 layer_factory.hpp:77] Creating layer stage4_tb/ext/pm6/b2a/bn
I1025 13:38:28.825140 13643 net.cpp:100] Creating Layer stage4_tb/ext/pm6/b2a/bn
I1025 13:38:28.825145 13643 net.cpp:434] stage4_tb/ext/pm6/b2a/bn <- stage4_tb/ext/pm6/b2a
I1025 13:38:28.825148 13643 net.cpp:395] stage4_tb/ext/pm6/b2a/bn -> stage4_tb/ext/pm6/b2a (in-place)
I1025 13:38:28.825273 13643 net.cpp:150] Setting up stage4_tb/ext/pm6/b2a/bn
I1025 13:38:28.825278 13643 net.cpp:157] Top shape: 1 128 1 1 (128)
I1025 13:38:28.825279 13643 net.cpp:165] Memory required for data: 201487552
I1025 13:38:28.825284 13643 layer_factory.hpp:77] Creating layer stage4_tb/ext/pm6/b2a/scale
I1025 13:38:28.825289 13643 net.cpp:100] Creating Layer stage4_tb/ext/pm6/b2a/scale
I1025 13:38:28.825294 13643 net.cpp:434] stage4_tb/ext/pm6/b2a/scale <- stage4_tb/ext/pm6/b2a
I1025 13:38:28.825297 13643 net.cpp:395] stage4_tb/ext/pm6/b2a/scale -> stage4_tb/ext/pm6/b2a (in-place)
I1025 13:38:28.825323 13643 layer_factory.hpp:77] Creating layer stage4_tb/ext/pm6/b2a/scale
I1025 13:38:28.825392 13643 net.cpp:150] Setting up stage4_tb/ext/pm6/b2a/scale
I1025 13:38:28.825397 13643 net.cpp:157] Top shape: 1 128 1 1 (128)
I1025 13:38:28.825398 13643 net.cpp:165] Memory required for data: 201488064
I1025 13:38:28.825402 13643 layer_factory.hpp:77] Creating layer stage4_tb/ext/pm6/b2a/relu
I1025 13:38:28.825407 13643 net.cpp:100] Creating Layer stage4_tb/ext/pm6/b2a/relu
I1025 13:38:28.825409 13643 net.cpp:434] stage4_tb/ext/pm6/b2a/relu <- stage4_tb/ext/pm6/b2a
I1025 13:38:28.825412 13643 net.cpp:395] stage4_tb/ext/pm6/b2a/relu -> stage4_tb/ext/pm6/b2a (in-place)
I1025 13:38:28.825990 13643 net.cpp:150] Setting up stage4_tb/ext/pm6/b2a/relu
I1025 13:38:28.825999 13643 net.cpp:157] Top shape: 1 128 1 1 (128)
I1025 13:38:28.826001 13643 net.cpp:165] Memory required for data: 201488576
I1025 13:38:28.826004 13643 layer_factory.hpp:77] Creating layer stage4_tb/ext/pm6/b2b
I1025 13:38:28.826011 13643 net.cpp:100] Creating Layer stage4_tb/ext/pm6/b2b
I1025 13:38:28.826015 13643 net.cpp:434] stage4_tb/ext/pm6/b2b <- stage4_tb/ext/pm6/b2a
I1025 13:38:28.826020 13643 net.cpp:408] stage4_tb/ext/pm6/b2b -> stage4_tb/ext/pm6/b2b
I1025 13:38:28.828127 13643 net.cpp:150] Setting up stage4_tb/ext/pm6/b2b
I1025 13:38:28.828136 13643 net.cpp:157] Top shape: 1 128 1 1 (128)
I1025 13:38:28.828138 13643 net.cpp:165] Memory required for data: 201489088
I1025 13:38:28.828142 13643 layer_factory.hpp:77] Creating layer stage4_tb/ext/pm6/b2b/bn
I1025 13:38:28.828148 13643 net.cpp:100] Creating Layer stage4_tb/ext/pm6/b2b/bn
I1025 13:38:28.828152 13643 net.cpp:434] stage4_tb/ext/pm6/b2b/bn <- stage4_tb/ext/pm6/b2b
I1025 13:38:28.828156 13643 net.cpp:395] stage4_tb/ext/pm6/b2b/bn -> stage4_tb/ext/pm6/b2b (in-place)
I1025 13:38:28.828281 13643 net.cpp:150] Setting up stage4_tb/ext/pm6/b2b/bn
I1025 13:38:28.828285 13643 net.cpp:157] Top shape: 1 128 1 1 (128)
I1025 13:38:28.828287 13643 net.cpp:165] Memory required for data: 201489600
I1025 13:38:28.828292 13643 layer_factory.hpp:77] Creating layer stage4_tb/ext/pm6/b2b/scale
I1025 13:38:28.828297 13643 net.cpp:100] Creating Layer stage4_tb/ext/pm6/b2b/scale
I1025 13:38:28.828299 13643 net.cpp:434] stage4_tb/ext/pm6/b2b/scale <- stage4_tb/ext/pm6/b2b
I1025 13:38:28.828302 13643 net.cpp:395] stage4_tb/ext/pm6/b2b/scale -> stage4_tb/ext/pm6/b2b (in-place)
I1025 13:38:28.828327 13643 layer_factory.hpp:77] Creating layer stage4_tb/ext/pm6/b2b/scale
I1025 13:38:28.828404 13643 net.cpp:150] Setting up stage4_tb/ext/pm6/b2b/scale
I1025 13:38:28.828409 13643 net.cpp:157] Top shape: 1 128 1 1 (128)
I1025 13:38:28.828410 13643 net.cpp:165] Memory required for data: 201490112
I1025 13:38:28.828414 13643 layer_factory.hpp:77] Creating layer stage4_tb/ext/pm6/b2b/relu
I1025 13:38:28.828418 13643 net.cpp:100] Creating Layer stage4_tb/ext/pm6/b2b/relu
I1025 13:38:28.828421 13643 net.cpp:434] stage4_tb/ext/pm6/b2b/relu <- stage4_tb/ext/pm6/b2b
I1025 13:38:28.828424 13643 net.cpp:395] stage4_tb/ext/pm6/b2b/relu -> stage4_tb/ext/pm6/b2b (in-place)
I1025 13:38:28.828826 13643 net.cpp:150] Setting up stage4_tb/ext/pm6/b2b/relu
I1025 13:38:28.828833 13643 net.cpp:157] Top shape: 1 128 1 1 (128)
I1025 13:38:28.828835 13643 net.cpp:165] Memory required for data: 201490624
I1025 13:38:28.828837 13643 layer_factory.hpp:77] Creating layer stage4_tb/ext/pm6/b2c
I1025 13:38:28.828845 13643 net.cpp:100] Creating Layer stage4_tb/ext/pm6/b2c
I1025 13:38:28.828847 13643 net.cpp:434] stage4_tb/ext/pm6/b2c <- stage4_tb/ext/pm6/b2b
I1025 13:38:28.828852 13643 net.cpp:408] stage4_tb/ext/pm6/b2c -> stage4_tb/ext/pm6/b2c
I1025 13:38:28.832787 13643 net.cpp:150] Setting up stage4_tb/ext/pm6/b2c
I1025 13:38:28.832799 13643 net.cpp:157] Top shape: 1 256 1 1 (256)
I1025 13:38:28.832803 13643 net.cpp:165] Memory required for data: 201491648
I1025 13:38:28.832806 13643 layer_factory.hpp:77] Creating layer stage4_tb/ext/pm6/b2c/bn
I1025 13:38:28.832811 13643 net.cpp:100] Creating Layer stage4_tb/ext/pm6/b2c/bn
I1025 13:38:28.832815 13643 net.cpp:434] stage4_tb/ext/pm6/b2c/bn <- stage4_tb/ext/pm6/b2c
I1025 13:38:28.832820 13643 net.cpp:395] stage4_tb/ext/pm6/b2c/bn -> stage4_tb/ext/pm6/b2c (in-place)
I1025 13:38:28.832943 13643 net.cpp:150] Setting up stage4_tb/ext/pm6/b2c/bn
I1025 13:38:28.832948 13643 net.cpp:157] Top shape: 1 256 1 1 (256)
I1025 13:38:28.832950 13643 net.cpp:165] Memory required for data: 201492672
I1025 13:38:28.832954 13643 layer_factory.hpp:77] Creating layer stage4_tb/ext/pm6/b2c/scale
I1025 13:38:28.832958 13643 net.cpp:100] Creating Layer stage4_tb/ext/pm6/b2c/scale
I1025 13:38:28.832962 13643 net.cpp:434] stage4_tb/ext/pm6/b2c/scale <- stage4_tb/ext/pm6/b2c
I1025 13:38:28.832964 13643 net.cpp:395] stage4_tb/ext/pm6/b2c/scale -> stage4_tb/ext/pm6/b2c (in-place)
I1025 13:38:28.832989 13643 layer_factory.hpp:77] Creating layer stage4_tb/ext/pm6/b2c/scale
I1025 13:38:28.833058 13643 net.cpp:150] Setting up stage4_tb/ext/pm6/b2c/scale
I1025 13:38:28.833062 13643 net.cpp:157] Top shape: 1 256 1 1 (256)
I1025 13:38:28.833065 13643 net.cpp:165] Memory required for data: 201493696
I1025 13:38:28.833068 13643 layer_factory.hpp:77] Creating layer stage4_tb/ext/pm6/res
I1025 13:38:28.833071 13643 net.cpp:100] Creating Layer stage4_tb/ext/pm6/res
I1025 13:38:28.833073 13643 net.cpp:434] stage4_tb/ext/pm6/res <- stage4_tb/ext/pm6
I1025 13:38:28.833077 13643 net.cpp:434] stage4_tb/ext/pm6/res <- stage4_tb/ext/pm6/b2c
I1025 13:38:28.833081 13643 net.cpp:408] stage4_tb/ext/pm6/res -> stage4_tb/ext/pm6/res
I1025 13:38:28.833096 13643 net.cpp:150] Setting up stage4_tb/ext/pm6/res
I1025 13:38:28.833099 13643 net.cpp:157] Top shape: 1 256 1 1 (256)
I1025 13:38:28.833101 13643 net.cpp:165] Memory required for data: 201494720
I1025 13:38:28.833103 13643 layer_factory.hpp:77] Creating layer stage4_tb/ext/pm6/res/relu
I1025 13:38:28.833107 13643 net.cpp:100] Creating Layer stage4_tb/ext/pm6/res/relu
I1025 13:38:28.833109 13643 net.cpp:434] stage4_tb/ext/pm6/res/relu <- stage4_tb/ext/pm6/res
I1025 13:38:28.833112 13643 net.cpp:395] stage4_tb/ext/pm6/res/relu -> stage4_tb/ext/pm6/res (in-place)
I1025 13:38:28.833513 13643 net.cpp:150] Setting up stage4_tb/ext/pm6/res/relu
I1025 13:38:28.833521 13643 net.cpp:157] Top shape: 1 256 1 1 (256)
I1025 13:38:28.833523 13643 net.cpp:165] Memory required for data: 201495744
I1025 13:38:28.833525 13643 layer_factory.hpp:77] Creating layer stage4_tb/ext/pm6/res_stage4_tb/ext/pm6/res/relu_0_split
I1025 13:38:28.833541 13643 net.cpp:100] Creating Layer stage4_tb/ext/pm6/res_stage4_tb/ext/pm6/res/relu_0_split
I1025 13:38:28.833544 13643 net.cpp:434] stage4_tb/ext/pm6/res_stage4_tb/ext/pm6/res/relu_0_split <- stage4_tb/ext/pm6/res
I1025 13:38:28.833549 13643 net.cpp:408] stage4_tb/ext/pm6/res_stage4_tb/ext/pm6/res/relu_0_split -> stage4_tb/ext/pm6/res_stage4_tb/ext/pm6/res/relu_0_split_0
I1025 13:38:28.833554 13643 net.cpp:408] stage4_tb/ext/pm6/res_stage4_tb/ext/pm6/res/relu_0_split -> stage4_tb/ext/pm6/res_stage4_tb/ext/pm6/res/relu_0_split_1
I1025 13:38:28.833559 13643 net.cpp:408] stage4_tb/ext/pm6/res_stage4_tb/ext/pm6/res/relu_0_split -> stage4_tb/ext/pm6/res_stage4_tb/ext/pm6/res/relu_0_split_2
I1025 13:38:28.833595 13643 net.cpp:150] Setting up stage4_tb/ext/pm6/res_stage4_tb/ext/pm6/res/relu_0_split
I1025 13:38:28.833600 13643 net.cpp:157] Top shape: 1 256 1 1 (256)
I1025 13:38:28.833602 13643 net.cpp:157] Top shape: 1 256 1 1 (256)
I1025 13:38:28.833604 13643 net.cpp:157] Top shape: 1 256 1 1 (256)
I1025 13:38:28.833606 13643 net.cpp:165] Memory required for data: 201498816
I1025 13:38:28.833608 13643 layer_factory.hpp:77] Creating layer ext/pm1_mbox_loc
I1025 13:38:28.833616 13643 net.cpp:100] Creating Layer ext/pm1_mbox_loc
I1025 13:38:28.833618 13643 net.cpp:434] ext/pm1_mbox_loc <- stage4_tb/ext/pm1/res_stage4_tb/ext/pm1/res/relu_0_split_0
I1025 13:38:28.833624 13643 net.cpp:408] ext/pm1_mbox_loc -> ext/pm1_mbox_loc
I1025 13:38:28.835283 13643 net.cpp:150] Setting up ext/pm1_mbox_loc
I1025 13:38:28.835292 13643 net.cpp:157] Top shape: 1 16 38 38 (23104)
I1025 13:38:28.835294 13643 net.cpp:165] Memory required for data: 201591232
I1025 13:38:28.835299 13643 layer_factory.hpp:77] Creating layer ext/pm1_mbox_loc_perm
I1025 13:38:28.835304 13643 net.cpp:100] Creating Layer ext/pm1_mbox_loc_perm
I1025 13:38:28.835307 13643 net.cpp:434] ext/pm1_mbox_loc_perm <- ext/pm1_mbox_loc
I1025 13:38:28.835312 13643 net.cpp:408] ext/pm1_mbox_loc_perm -> ext/pm1_mbox_loc_perm
I1025 13:38:28.835382 13643 net.cpp:150] Setting up ext/pm1_mbox_loc_perm
I1025 13:38:28.835387 13643 net.cpp:157] Top shape: 1 38 38 16 (23104)
I1025 13:38:28.835389 13643 net.cpp:165] Memory required for data: 201683648
I1025 13:38:28.835391 13643 layer_factory.hpp:77] Creating layer ext/pm1_mbox_loc_flat
I1025 13:38:28.835397 13643 net.cpp:100] Creating Layer ext/pm1_mbox_loc_flat
I1025 13:38:28.835398 13643 net.cpp:434] ext/pm1_mbox_loc_flat <- ext/pm1_mbox_loc_perm
I1025 13:38:28.835402 13643 net.cpp:408] ext/pm1_mbox_loc_flat -> ext/pm1_mbox_loc_flat
I1025 13:38:28.835417 13643 net.cpp:150] Setting up ext/pm1_mbox_loc_flat
I1025 13:38:28.835419 13643 net.cpp:157] Top shape: 1 23104 (23104)
I1025 13:38:28.835422 13643 net.cpp:165] Memory required for data: 201776064
I1025 13:38:28.835423 13643 layer_factory.hpp:77] Creating layer ext/pm1_mbox_conf
I1025 13:38:28.835429 13643 net.cpp:100] Creating Layer ext/pm1_mbox_conf
I1025 13:38:28.835433 13643 net.cpp:434] ext/pm1_mbox_conf <- stage4_tb/ext/pm1/res_stage4_tb/ext/pm1/res/relu_0_split_1
I1025 13:38:28.835438 13643 net.cpp:408] ext/pm1_mbox_conf -> ext/pm1_mbox_conf
I1025 13:38:28.836992 13643 net.cpp:150] Setting up ext/pm1_mbox_conf
I1025 13:38:28.836999 13643 net.cpp:157] Top shape: 1 48 38 38 (69312)
I1025 13:38:28.837002 13643 net.cpp:165] Memory required for data: 202053312
I1025 13:38:28.837005 13643 layer_factory.hpp:77] Creating layer ext/pm1_mbox_conf_perm
I1025 13:38:28.837015 13643 net.cpp:100] Creating Layer ext/pm1_mbox_conf_perm
I1025 13:38:28.837018 13643 net.cpp:434] ext/pm1_mbox_conf_perm <- ext/pm1_mbox_conf
I1025 13:38:28.837023 13643 net.cpp:408] ext/pm1_mbox_conf_perm -> ext/pm1_mbox_conf_perm
I1025 13:38:28.837091 13643 net.cpp:150] Setting up ext/pm1_mbox_conf_perm
I1025 13:38:28.837096 13643 net.cpp:157] Top shape: 1 38 38 48 (69312)
I1025 13:38:28.837097 13643 net.cpp:165] Memory required for data: 202330560
I1025 13:38:28.837100 13643 layer_factory.hpp:77] Creating layer ext/pm1_mbox_conf_flat
I1025 13:38:28.837103 13643 net.cpp:100] Creating Layer ext/pm1_mbox_conf_flat
I1025 13:38:28.837113 13643 net.cpp:434] ext/pm1_mbox_conf_flat <- ext/pm1_mbox_conf_perm
I1025 13:38:28.837118 13643 net.cpp:408] ext/pm1_mbox_conf_flat -> ext/pm1_mbox_conf_flat
I1025 13:38:28.837133 13643 net.cpp:150] Setting up ext/pm1_mbox_conf_flat
I1025 13:38:28.837137 13643 net.cpp:157] Top shape: 1 69312 (69312)
I1025 13:38:28.837139 13643 net.cpp:165] Memory required for data: 202607808
I1025 13:38:28.837142 13643 layer_factory.hpp:77] Creating layer ext/pm1_mbox_priorbox
I1025 13:38:28.837148 13643 net.cpp:100] Creating Layer ext/pm1_mbox_priorbox
I1025 13:38:28.837152 13643 net.cpp:434] ext/pm1_mbox_priorbox <- stage4_tb/ext/pm1/res_stage4_tb/ext/pm1/res/relu_0_split_2
I1025 13:38:28.837154 13643 net.cpp:434] ext/pm1_mbox_priorbox <- data_data_0_split_1
I1025 13:38:28.837160 13643 net.cpp:408] ext/pm1_mbox_priorbox -> ext/pm1_mbox_priorbox
I1025 13:38:28.837177 13643 net.cpp:150] Setting up ext/pm1_mbox_priorbox
I1025 13:38:28.837182 13643 net.cpp:157] Top shape: 1 2 23104 (46208)
I1025 13:38:28.837183 13643 net.cpp:165] Memory required for data: 202792640
I1025 13:38:28.837186 13643 layer_factory.hpp:77] Creating layer ext/pm2_mbox_loc
I1025 13:38:28.837193 13643 net.cpp:100] Creating Layer ext/pm2_mbox_loc
I1025 13:38:28.837195 13643 net.cpp:434] ext/pm2_mbox_loc <- stage4_tb/ext/pm2/res_stage4_tb/ext/pm2/res/relu_0_split_0
I1025 13:38:28.837200 13643 net.cpp:408] ext/pm2_mbox_loc -> ext/pm2_mbox_loc
I1025 13:38:28.840740 13643 net.cpp:150] Setting up ext/pm2_mbox_loc
I1025 13:38:28.840751 13643 net.cpp:157] Top shape: 1 24 19 19 (8664)
I1025 13:38:28.840754 13643 net.cpp:165] Memory required for data: 202827296
I1025 13:38:28.840757 13643 layer_factory.hpp:77] Creating layer ext/pm2_mbox_loc_perm
I1025 13:38:28.840764 13643 net.cpp:100] Creating Layer ext/pm2_mbox_loc_perm
I1025 13:38:28.840767 13643 net.cpp:434] ext/pm2_mbox_loc_perm <- ext/pm2_mbox_loc
I1025 13:38:28.840772 13643 net.cpp:408] ext/pm2_mbox_loc_perm -> ext/pm2_mbox_loc_perm
I1025 13:38:28.840843 13643 net.cpp:150] Setting up ext/pm2_mbox_loc_perm
I1025 13:38:28.840848 13643 net.cpp:157] Top shape: 1 19 19 24 (8664)
I1025 13:38:28.840850 13643 net.cpp:165] Memory required for data: 202861952
I1025 13:38:28.840852 13643 layer_factory.hpp:77] Creating layer ext/pm2_mbox_loc_flat
I1025 13:38:28.840855 13643 net.cpp:100] Creating Layer ext/pm2_mbox_loc_flat
I1025 13:38:28.840859 13643 net.cpp:434] ext/pm2_mbox_loc_flat <- ext/pm2_mbox_loc_perm
I1025 13:38:28.840863 13643 net.cpp:408] ext/pm2_mbox_loc_flat -> ext/pm2_mbox_loc_flat
I1025 13:38:28.840878 13643 net.cpp:150] Setting up ext/pm2_mbox_loc_flat
I1025 13:38:28.840883 13643 net.cpp:157] Top shape: 1 8664 (8664)
I1025 13:38:28.840884 13643 net.cpp:165] Memory required for data: 202896608
I1025 13:38:28.840886 13643 layer_factory.hpp:77] Creating layer ext/pm2_mbox_conf
I1025 13:38:28.840893 13643 net.cpp:100] Creating Layer ext/pm2_mbox_conf
I1025 13:38:28.840894 13643 net.cpp:434] ext/pm2_mbox_conf <- stage4_tb/ext/pm2/res_stage4_tb/ext/pm2/res/relu_0_split_1
I1025 13:38:28.840900 13643 net.cpp:408] ext/pm2_mbox_conf -> ext/pm2_mbox_conf
I1025 13:38:28.842556 13643 net.cpp:150] Setting up ext/pm2_mbox_conf
I1025 13:38:28.842564 13643 net.cpp:157] Top shape: 1 72 19 19 (25992)
I1025 13:38:28.842566 13643 net.cpp:165] Memory required for data: 203000576
I1025 13:38:28.842571 13643 layer_factory.hpp:77] Creating layer ext/pm2_mbox_conf_perm
I1025 13:38:28.842576 13643 net.cpp:100] Creating Layer ext/pm2_mbox_conf_perm
I1025 13:38:28.842578 13643 net.cpp:434] ext/pm2_mbox_conf_perm <- ext/pm2_mbox_conf
I1025 13:38:28.842582 13643 net.cpp:408] ext/pm2_mbox_conf_perm -> ext/pm2_mbox_conf_perm
I1025 13:38:28.842653 13643 net.cpp:150] Setting up ext/pm2_mbox_conf_perm
I1025 13:38:28.842658 13643 net.cpp:157] Top shape: 1 19 19 72 (25992)
I1025 13:38:28.842660 13643 net.cpp:165] Memory required for data: 203104544
I1025 13:38:28.842662 13643 layer_factory.hpp:77] Creating layer ext/pm2_mbox_conf_flat
I1025 13:38:28.842667 13643 net.cpp:100] Creating Layer ext/pm2_mbox_conf_flat
I1025 13:38:28.842669 13643 net.cpp:434] ext/pm2_mbox_conf_flat <- ext/pm2_mbox_conf_perm
I1025 13:38:28.842684 13643 net.cpp:408] ext/pm2_mbox_conf_flat -> ext/pm2_mbox_conf_flat
I1025 13:38:28.842707 13643 net.cpp:150] Setting up ext/pm2_mbox_conf_flat
I1025 13:38:28.842713 13643 net.cpp:157] Top shape: 1 25992 (25992)
I1025 13:38:28.842715 13643 net.cpp:165] Memory required for data: 203208512
I1025 13:38:28.842717 13643 layer_factory.hpp:77] Creating layer ext/pm2_mbox_priorbox
I1025 13:38:28.842722 13643 net.cpp:100] Creating Layer ext/pm2_mbox_priorbox
I1025 13:38:28.842726 13643 net.cpp:434] ext/pm2_mbox_priorbox <- stage4_tb/ext/pm2/res_stage4_tb/ext/pm2/res/relu_0_split_2
I1025 13:38:28.842730 13643 net.cpp:434] ext/pm2_mbox_priorbox <- data_data_0_split_2
I1025 13:38:28.842736 13643 net.cpp:408] ext/pm2_mbox_priorbox -> ext/pm2_mbox_priorbox
I1025 13:38:28.842761 13643 net.cpp:150] Setting up ext/pm2_mbox_priorbox
I1025 13:38:28.842767 13643 net.cpp:157] Top shape: 1 2 8664 (17328)
I1025 13:38:28.842769 13643 net.cpp:165] Memory required for data: 203277824
I1025 13:38:28.842772 13643 layer_factory.hpp:77] Creating layer ext/pm3_mbox_loc
I1025 13:38:28.842777 13643 net.cpp:100] Creating Layer ext/pm3_mbox_loc
I1025 13:38:28.842779 13643 net.cpp:434] ext/pm3_mbox_loc <- stage4_tb/ext/pm3/res_stage4_tb/ext/pm3/res/relu_0_split_0
I1025 13:38:28.842784 13643 net.cpp:408] ext/pm3_mbox_loc -> ext/pm3_mbox_loc
I1025 13:38:28.844290 13643 net.cpp:150] Setting up ext/pm3_mbox_loc
I1025 13:38:28.844298 13643 net.cpp:157] Top shape: 1 24 10 10 (2400)
I1025 13:38:28.844300 13643 net.cpp:165] Memory required for data: 203287424
I1025 13:38:28.844305 13643 layer_factory.hpp:77] Creating layer ext/pm3_mbox_loc_perm
I1025 13:38:28.844308 13643 net.cpp:100] Creating Layer ext/pm3_mbox_loc_perm
I1025 13:38:28.844311 13643 net.cpp:434] ext/pm3_mbox_loc_perm <- ext/pm3_mbox_loc
I1025 13:38:28.844316 13643 net.cpp:408] ext/pm3_mbox_loc_perm -> ext/pm3_mbox_loc_perm
I1025 13:38:28.844382 13643 net.cpp:150] Setting up ext/pm3_mbox_loc_perm
I1025 13:38:28.844386 13643 net.cpp:157] Top shape: 1 10 10 24 (2400)
I1025 13:38:28.844388 13643 net.cpp:165] Memory required for data: 203297024
I1025 13:38:28.844390 13643 layer_factory.hpp:77] Creating layer ext/pm3_mbox_loc_flat
I1025 13:38:28.844395 13643 net.cpp:100] Creating Layer ext/pm3_mbox_loc_flat
I1025 13:38:28.844398 13643 net.cpp:434] ext/pm3_mbox_loc_flat <- ext/pm3_mbox_loc_perm
I1025 13:38:28.844400 13643 net.cpp:408] ext/pm3_mbox_loc_flat -> ext/pm3_mbox_loc_flat
I1025 13:38:28.844415 13643 net.cpp:150] Setting up ext/pm3_mbox_loc_flat
I1025 13:38:28.844419 13643 net.cpp:157] Top shape: 1 2400 (2400)
I1025 13:38:28.844420 13643 net.cpp:165] Memory required for data: 203306624
I1025 13:38:28.844422 13643 layer_factory.hpp:77] Creating layer ext/pm3_mbox_conf
I1025 13:38:28.844429 13643 net.cpp:100] Creating Layer ext/pm3_mbox_conf
I1025 13:38:28.844432 13643 net.cpp:434] ext/pm3_mbox_conf <- stage4_tb/ext/pm3/res_stage4_tb/ext/pm3/res/relu_0_split_1
I1025 13:38:28.844436 13643 net.cpp:408] ext/pm3_mbox_conf -> ext/pm3_mbox_conf
I1025 13:38:28.848410 13643 net.cpp:150] Setting up ext/pm3_mbox_conf
I1025 13:38:28.848423 13643 net.cpp:157] Top shape: 1 72 10 10 (7200)
I1025 13:38:28.848426 13643 net.cpp:165] Memory required for data: 203335424
I1025 13:38:28.848430 13643 layer_factory.hpp:77] Creating layer ext/pm3_mbox_conf_perm
I1025 13:38:28.848436 13643 net.cpp:100] Creating Layer ext/pm3_mbox_conf_perm
I1025 13:38:28.848439 13643 net.cpp:434] ext/pm3_mbox_conf_perm <- ext/pm3_mbox_conf
I1025 13:38:28.848443 13643 net.cpp:408] ext/pm3_mbox_conf_perm -> ext/pm3_mbox_conf_perm
I1025 13:38:28.848511 13643 net.cpp:150] Setting up ext/pm3_mbox_conf_perm
I1025 13:38:28.848516 13643 net.cpp:157] Top shape: 1 10 10 72 (7200)
I1025 13:38:28.848518 13643 net.cpp:165] Memory required for data: 203364224
I1025 13:38:28.848521 13643 layer_factory.hpp:77] Creating layer ext/pm3_mbox_conf_flat
I1025 13:38:28.848525 13643 net.cpp:100] Creating Layer ext/pm3_mbox_conf_flat
I1025 13:38:28.848527 13643 net.cpp:434] ext/pm3_mbox_conf_flat <- ext/pm3_mbox_conf_perm
I1025 13:38:28.848541 13643 net.cpp:408] ext/pm3_mbox_conf_flat -> ext/pm3_mbox_conf_flat
I1025 13:38:28.848557 13643 net.cpp:150] Setting up ext/pm3_mbox_conf_flat
I1025 13:38:28.848562 13643 net.cpp:157] Top shape: 1 7200 (7200)
I1025 13:38:28.848563 13643 net.cpp:165] Memory required for data: 203393024
I1025 13:38:28.848567 13643 layer_factory.hpp:77] Creating layer ext/pm3_mbox_priorbox
I1025 13:38:28.848570 13643 net.cpp:100] Creating Layer ext/pm3_mbox_priorbox
I1025 13:38:28.848573 13643 net.cpp:434] ext/pm3_mbox_priorbox <- stage4_tb/ext/pm3/res_stage4_tb/ext/pm3/res/relu_0_split_2
I1025 13:38:28.848577 13643 net.cpp:434] ext/pm3_mbox_priorbox <- data_data_0_split_3
I1025 13:38:28.848582 13643 net.cpp:408] ext/pm3_mbox_priorbox -> ext/pm3_mbox_priorbox
I1025 13:38:28.848601 13643 net.cpp:150] Setting up ext/pm3_mbox_priorbox
I1025 13:38:28.848604 13643 net.cpp:157] Top shape: 1 2 2400 (4800)
I1025 13:38:28.848606 13643 net.cpp:165] Memory required for data: 203412224
I1025 13:38:28.848609 13643 layer_factory.hpp:77] Creating layer ext/pm4_mbox_loc
I1025 13:38:28.848615 13643 net.cpp:100] Creating Layer ext/pm4_mbox_loc
I1025 13:38:28.848618 13643 net.cpp:434] ext/pm4_mbox_loc <- stage4_tb/ext/pm4/res_stage4_tb/ext/pm4/res/relu_0_split_0
I1025 13:38:28.848623 13643 net.cpp:408] ext/pm4_mbox_loc -> ext/pm4_mbox_loc
I1025 13:38:28.850296 13643 net.cpp:150] Setting up ext/pm4_mbox_loc
I1025 13:38:28.850306 13643 net.cpp:157] Top shape: 1 24 5 5 (600)
I1025 13:38:28.850307 13643 net.cpp:165] Memory required for data: 203414624
I1025 13:38:28.850311 13643 layer_factory.hpp:77] Creating layer ext/pm4_mbox_loc_perm
I1025 13:38:28.850317 13643 net.cpp:100] Creating Layer ext/pm4_mbox_loc_perm
I1025 13:38:28.850319 13643 net.cpp:434] ext/pm4_mbox_loc_perm <- ext/pm4_mbox_loc
I1025 13:38:28.850323 13643 net.cpp:408] ext/pm4_mbox_loc_perm -> ext/pm4_mbox_loc_perm
I1025 13:38:28.850391 13643 net.cpp:150] Setting up ext/pm4_mbox_loc_perm
I1025 13:38:28.850396 13643 net.cpp:157] Top shape: 1 5 5 24 (600)
I1025 13:38:28.850399 13643 net.cpp:165] Memory required for data: 203417024
I1025 13:38:28.850400 13643 layer_factory.hpp:77] Creating layer ext/pm4_mbox_loc_flat
I1025 13:38:28.850404 13643 net.cpp:100] Creating Layer ext/pm4_mbox_loc_flat
I1025 13:38:28.850407 13643 net.cpp:434] ext/pm4_mbox_loc_flat <- ext/pm4_mbox_loc_perm
I1025 13:38:28.850411 13643 net.cpp:408] ext/pm4_mbox_loc_flat -> ext/pm4_mbox_loc_flat
I1025 13:38:28.850425 13643 net.cpp:150] Setting up ext/pm4_mbox_loc_flat
I1025 13:38:28.850427 13643 net.cpp:157] Top shape: 1 600 (600)
I1025 13:38:28.850430 13643 net.cpp:165] Memory required for data: 203419424
I1025 13:38:28.850431 13643 layer_factory.hpp:77] Creating layer ext/pm4_mbox_conf
I1025 13:38:28.850438 13643 net.cpp:100] Creating Layer ext/pm4_mbox_conf
I1025 13:38:28.850442 13643 net.cpp:434] ext/pm4_mbox_conf <- stage4_tb/ext/pm4/res_stage4_tb/ext/pm4/res/relu_0_split_1
I1025 13:38:28.850447 13643 net.cpp:408] ext/pm4_mbox_conf -> ext/pm4_mbox_conf
I1025 13:38:28.852126 13643 net.cpp:150] Setting up ext/pm4_mbox_conf
I1025 13:38:28.852135 13643 net.cpp:157] Top shape: 1 72 5 5 (1800)
I1025 13:38:28.852138 13643 net.cpp:165] Memory required for data: 203426624
I1025 13:38:28.852142 13643 layer_factory.hpp:77] Creating layer ext/pm4_mbox_conf_perm
I1025 13:38:28.852146 13643 net.cpp:100] Creating Layer ext/pm4_mbox_conf_perm
I1025 13:38:28.852149 13643 net.cpp:434] ext/pm4_mbox_conf_perm <- ext/pm4_mbox_conf
I1025 13:38:28.852154 13643 net.cpp:408] ext/pm4_mbox_conf_perm -> ext/pm4_mbox_conf_perm
I1025 13:38:28.852221 13643 net.cpp:150] Setting up ext/pm4_mbox_conf_perm
I1025 13:38:28.852226 13643 net.cpp:157] Top shape: 1 5 5 72 (1800)
I1025 13:38:28.852227 13643 net.cpp:165] Memory required for data: 203433824
I1025 13:38:28.852229 13643 layer_factory.hpp:77] Creating layer ext/pm4_mbox_conf_flat
I1025 13:38:28.852233 13643 net.cpp:100] Creating Layer ext/pm4_mbox_conf_flat
I1025 13:38:28.852236 13643 net.cpp:434] ext/pm4_mbox_conf_flat <- ext/pm4_mbox_conf_perm
I1025 13:38:28.852247 13643 net.cpp:408] ext/pm4_mbox_conf_flat -> ext/pm4_mbox_conf_flat
I1025 13:38:28.852262 13643 net.cpp:150] Setting up ext/pm4_mbox_conf_flat
I1025 13:38:28.852267 13643 net.cpp:157] Top shape: 1 1800 (1800)
I1025 13:38:28.852268 13643 net.cpp:165] Memory required for data: 203441024
I1025 13:38:28.852270 13643 layer_factory.hpp:77] Creating layer ext/pm4_mbox_priorbox
I1025 13:38:28.852273 13643 net.cpp:100] Creating Layer ext/pm4_mbox_priorbox
I1025 13:38:28.852278 13643 net.cpp:434] ext/pm4_mbox_priorbox <- stage4_tb/ext/pm4/res_stage4_tb/ext/pm4/res/relu_0_split_2
I1025 13:38:28.852282 13643 net.cpp:434] ext/pm4_mbox_priorbox <- data_data_0_split_4
I1025 13:38:28.852285 13643 net.cpp:408] ext/pm4_mbox_priorbox -> ext/pm4_mbox_priorbox
I1025 13:38:28.852303 13643 net.cpp:150] Setting up ext/pm4_mbox_priorbox
I1025 13:38:28.852306 13643 net.cpp:157] Top shape: 1 2 600 (1200)
I1025 13:38:28.852308 13643 net.cpp:165] Memory required for data: 203445824
I1025 13:38:28.852310 13643 layer_factory.hpp:77] Creating layer ext/pm5_mbox_loc
I1025 13:38:28.852316 13643 net.cpp:100] Creating Layer ext/pm5_mbox_loc
I1025 13:38:28.852319 13643 net.cpp:434] ext/pm5_mbox_loc <- stage4_tb/ext/pm5/res_stage4_tb/ext/pm5/res/relu_0_split_0
I1025 13:38:28.852324 13643 net.cpp:408] ext/pm5_mbox_loc -> ext/pm5_mbox_loc
I1025 13:38:28.853845 13643 net.cpp:150] Setting up ext/pm5_mbox_loc
I1025 13:38:28.853855 13643 net.cpp:157] Top shape: 1 16 3 3 (144)
I1025 13:38:28.853858 13643 net.cpp:165] Memory required for data: 203446400
I1025 13:38:28.853863 13643 layer_factory.hpp:77] Creating layer ext/pm5_mbox_loc_perm
I1025 13:38:28.853866 13643 net.cpp:100] Creating Layer ext/pm5_mbox_loc_perm
I1025 13:38:28.853869 13643 net.cpp:434] ext/pm5_mbox_loc_perm <- ext/pm5_mbox_loc
I1025 13:38:28.853873 13643 net.cpp:408] ext/pm5_mbox_loc_perm -> ext/pm5_mbox_loc_perm
I1025 13:38:28.853941 13643 net.cpp:150] Setting up ext/pm5_mbox_loc_perm
I1025 13:38:28.853946 13643 net.cpp:157] Top shape: 1 3 3 16 (144)
I1025 13:38:28.853948 13643 net.cpp:165] Memory required for data: 203446976
I1025 13:38:28.853950 13643 layer_factory.hpp:77] Creating layer ext/pm5_mbox_loc_flat
I1025 13:38:28.853955 13643 net.cpp:100] Creating Layer ext/pm5_mbox_loc_flat
I1025 13:38:28.853956 13643 net.cpp:434] ext/pm5_mbox_loc_flat <- ext/pm5_mbox_loc_perm
I1025 13:38:28.853960 13643 net.cpp:408] ext/pm5_mbox_loc_flat -> ext/pm5_mbox_loc_flat
I1025 13:38:28.853976 13643 net.cpp:150] Setting up ext/pm5_mbox_loc_flat
I1025 13:38:28.853978 13643 net.cpp:157] Top shape: 1 144 (144)
I1025 13:38:28.853981 13643 net.cpp:165] Memory required for data: 203447552
I1025 13:38:28.853982 13643 layer_factory.hpp:77] Creating layer ext/pm5_mbox_conf
I1025 13:38:28.853989 13643 net.cpp:100] Creating Layer ext/pm5_mbox_conf
I1025 13:38:28.853992 13643 net.cpp:434] ext/pm5_mbox_conf <- stage4_tb/ext/pm5/res_stage4_tb/ext/pm5/res/relu_0_split_1
I1025 13:38:28.853997 13643 net.cpp:408] ext/pm5_mbox_conf -> ext/pm5_mbox_conf
I1025 13:38:28.857728 13643 net.cpp:150] Setting up ext/pm5_mbox_conf
I1025 13:38:28.857743 13643 net.cpp:157] Top shape: 1 48 3 3 (432)
I1025 13:38:28.857745 13643 net.cpp:165] Memory required for data: 203449280
I1025 13:38:28.857750 13643 layer_factory.hpp:77] Creating layer ext/pm5_mbox_conf_perm
I1025 13:38:28.857755 13643 net.cpp:100] Creating Layer ext/pm5_mbox_conf_perm
I1025 13:38:28.857758 13643 net.cpp:434] ext/pm5_mbox_conf_perm <- ext/pm5_mbox_conf
I1025 13:38:28.857764 13643 net.cpp:408] ext/pm5_mbox_conf_perm -> ext/pm5_mbox_conf_perm
I1025 13:38:28.857836 13643 net.cpp:150] Setting up ext/pm5_mbox_conf_perm
I1025 13:38:28.857839 13643 net.cpp:157] Top shape: 1 3 3 48 (432)
I1025 13:38:28.857841 13643 net.cpp:165] Memory required for data: 203451008
I1025 13:38:28.857843 13643 layer_factory.hpp:77] Creating layer ext/pm5_mbox_conf_flat
I1025 13:38:28.857848 13643 net.cpp:100] Creating Layer ext/pm5_mbox_conf_flat
I1025 13:38:28.857851 13643 net.cpp:434] ext/pm5_mbox_conf_flat <- ext/pm5_mbox_conf_perm
I1025 13:38:28.857856 13643 net.cpp:408] ext/pm5_mbox_conf_flat -> ext/pm5_mbox_conf_flat
I1025 13:38:28.857883 13643 net.cpp:150] Setting up ext/pm5_mbox_conf_flat
I1025 13:38:28.857887 13643 net.cpp:157] Top shape: 1 432 (432)
I1025 13:38:28.857889 13643 net.cpp:165] Memory required for data: 203452736
I1025 13:38:28.857892 13643 layer_factory.hpp:77] Creating layer ext/pm5_mbox_priorbox
I1025 13:38:28.857897 13643 net.cpp:100] Creating Layer ext/pm5_mbox_priorbox
I1025 13:38:28.857900 13643 net.cpp:434] ext/pm5_mbox_priorbox <- stage4_tb/ext/pm5/res_stage4_tb/ext/pm5/res/relu_0_split_2
I1025 13:38:28.857903 13643 net.cpp:434] ext/pm5_mbox_priorbox <- data_data_0_split_5
I1025 13:38:28.857910 13643 net.cpp:408] ext/pm5_mbox_priorbox -> ext/pm5_mbox_priorbox
I1025 13:38:28.857928 13643 net.cpp:150] Setting up ext/pm5_mbox_priorbox
I1025 13:38:28.857933 13643 net.cpp:157] Top shape: 1 2 144 (288)
I1025 13:38:28.857933 13643 net.cpp:165] Memory required for data: 203453888
I1025 13:38:28.857936 13643 layer_factory.hpp:77] Creating layer ext/pm6_mbox_loc
I1025 13:38:28.857944 13643 net.cpp:100] Creating Layer ext/pm6_mbox_loc
I1025 13:38:28.857946 13643 net.cpp:434] ext/pm6_mbox_loc <- stage4_tb/ext/pm6/res_stage4_tb/ext/pm6/res/relu_0_split_0
I1025 13:38:28.857949 13643 net.cpp:408] ext/pm6_mbox_loc -> ext/pm6_mbox_loc
I1025 13:38:28.859882 13643 net.cpp:150] Setting up ext/pm6_mbox_loc
I1025 13:38:28.859891 13643 net.cpp:157] Top shape: 1 16 1 1 (16)
I1025 13:38:28.859894 13643 net.cpp:165] Memory required for data: 203453952
I1025 13:38:28.859897 13643 layer_factory.hpp:77] Creating layer ext/pm6_mbox_loc_perm
I1025 13:38:28.859903 13643 net.cpp:100] Creating Layer ext/pm6_mbox_loc_perm
I1025 13:38:28.859906 13643 net.cpp:434] ext/pm6_mbox_loc_perm <- ext/pm6_mbox_loc
I1025 13:38:28.859911 13643 net.cpp:408] ext/pm6_mbox_loc_perm -> ext/pm6_mbox_loc_perm
I1025 13:38:28.859990 13643 net.cpp:150] Setting up ext/pm6_mbox_loc_perm
I1025 13:38:28.859997 13643 net.cpp:157] Top shape: 1 1 1 16 (16)
I1025 13:38:28.859998 13643 net.cpp:165] Memory required for data: 203454016
I1025 13:38:28.860000 13643 layer_factory.hpp:77] Creating layer ext/pm6_mbox_loc_flat
I1025 13:38:28.860005 13643 net.cpp:100] Creating Layer ext/pm6_mbox_loc_flat
I1025 13:38:28.860009 13643 net.cpp:434] ext/pm6_mbox_loc_flat <- ext/pm6_mbox_loc_perm
I1025 13:38:28.860013 13643 net.cpp:408] ext/pm6_mbox_loc_flat -> ext/pm6_mbox_loc_flat
I1025 13:38:28.860028 13643 net.cpp:150] Setting up ext/pm6_mbox_loc_flat
I1025 13:38:28.860031 13643 net.cpp:157] Top shape: 1 16 (16)
I1025 13:38:28.860033 13643 net.cpp:165] Memory required for data: 203454080
I1025 13:38:28.860035 13643 layer_factory.hpp:77] Creating layer ext/pm6_mbox_conf
I1025 13:38:28.860041 13643 net.cpp:100] Creating Layer ext/pm6_mbox_conf
I1025 13:38:28.860046 13643 net.cpp:434] ext/pm6_mbox_conf <- stage4_tb/ext/pm6/res_stage4_tb/ext/pm6/res/relu_0_split_1
I1025 13:38:28.860050 13643 net.cpp:408] ext/pm6_mbox_conf -> ext/pm6_mbox_conf
I1025 13:38:28.861682 13643 net.cpp:150] Setting up ext/pm6_mbox_conf
I1025 13:38:28.861692 13643 net.cpp:157] Top shape: 1 48 1 1 (48)
I1025 13:38:28.861694 13643 net.cpp:165] Memory required for data: 203454272
I1025 13:38:28.861699 13643 layer_factory.hpp:77] Creating layer ext/pm6_mbox_conf_perm
I1025 13:38:28.861704 13643 net.cpp:100] Creating Layer ext/pm6_mbox_conf_perm
I1025 13:38:28.861708 13643 net.cpp:434] ext/pm6_mbox_conf_perm <- ext/pm6_mbox_conf
I1025 13:38:28.861713 13643 net.cpp:408] ext/pm6_mbox_conf_perm -> ext/pm6_mbox_conf_perm
I1025 13:38:28.861783 13643 net.cpp:150] Setting up ext/pm6_mbox_conf_perm
I1025 13:38:28.861788 13643 net.cpp:157] Top shape: 1 1 1 48 (48)
I1025 13:38:28.861789 13643 net.cpp:165] Memory required for data: 203454464
I1025 13:38:28.861791 13643 layer_factory.hpp:77] Creating layer ext/pm6_mbox_conf_flat
I1025 13:38:28.861796 13643 net.cpp:100] Creating Layer ext/pm6_mbox_conf_flat
I1025 13:38:28.861799 13643 net.cpp:434] ext/pm6_mbox_conf_flat <- ext/pm6_mbox_conf_perm
I1025 13:38:28.861802 13643 net.cpp:408] ext/pm6_mbox_conf_flat -> ext/pm6_mbox_conf_flat
I1025 13:38:28.861829 13643 net.cpp:150] Setting up ext/pm6_mbox_conf_flat
I1025 13:38:28.861832 13643 net.cpp:157] Top shape: 1 48 (48)
I1025 13:38:28.861835 13643 net.cpp:165] Memory required for data: 203454656
I1025 13:38:28.861835 13643 layer_factory.hpp:77] Creating layer ext/pm6_mbox_priorbox
I1025 13:38:28.861840 13643 net.cpp:100] Creating Layer ext/pm6_mbox_priorbox
I1025 13:38:28.861845 13643 net.cpp:434] ext/pm6_mbox_priorbox <- stage4_tb/ext/pm6/res_stage4_tb/ext/pm6/res/relu_0_split_2
I1025 13:38:28.861847 13643 net.cpp:434] ext/pm6_mbox_priorbox <- data_data_0_split_6
I1025 13:38:28.861851 13643 net.cpp:408] ext/pm6_mbox_priorbox -> ext/pm6_mbox_priorbox
I1025 13:38:28.861867 13643 net.cpp:150] Setting up ext/pm6_mbox_priorbox
I1025 13:38:28.861872 13643 net.cpp:157] Top shape: 1 2 16 (32)
I1025 13:38:28.861874 13643 net.cpp:165] Memory required for data: 203454784
I1025 13:38:28.861876 13643 layer_factory.hpp:77] Creating layer mbox_loc
I1025 13:38:28.861881 13643 net.cpp:100] Creating Layer mbox_loc
I1025 13:38:28.861884 13643 net.cpp:434] mbox_loc <- ext/pm1_mbox_loc_flat
I1025 13:38:28.861887 13643 net.cpp:434] mbox_loc <- ext/pm2_mbox_loc_flat
I1025 13:38:28.861891 13643 net.cpp:434] mbox_loc <- ext/pm3_mbox_loc_flat
I1025 13:38:28.861893 13643 net.cpp:434] mbox_loc <- ext/pm4_mbox_loc_flat
I1025 13:38:28.861896 13643 net.cpp:434] mbox_loc <- ext/pm5_mbox_loc_flat
I1025 13:38:28.861899 13643 net.cpp:434] mbox_loc <- ext/pm6_mbox_loc_flat
I1025 13:38:28.861902 13643 net.cpp:408] mbox_loc -> mbox_loc
I1025 13:38:28.861919 13643 net.cpp:150] Setting up mbox_loc
I1025 13:38:28.861923 13643 net.cpp:157] Top shape: 1 34928 (34928)
I1025 13:38:28.861925 13643 net.cpp:165] Memory required for data: 203594496
I1025 13:38:28.861927 13643 layer_factory.hpp:77] Creating layer mbox_conf
I1025 13:38:28.861930 13643 net.cpp:100] Creating Layer mbox_conf
I1025 13:38:28.861933 13643 net.cpp:434] mbox_conf <- ext/pm1_mbox_conf_flat
I1025 13:38:28.861937 13643 net.cpp:434] mbox_conf <- ext/pm2_mbox_conf_flat
I1025 13:38:28.861939 13643 net.cpp:434] mbox_conf <- ext/pm3_mbox_conf_flat
I1025 13:38:28.861941 13643 net.cpp:434] mbox_conf <- ext/pm4_mbox_conf_flat
I1025 13:38:28.861945 13643 net.cpp:434] mbox_conf <- ext/pm5_mbox_conf_flat
I1025 13:38:28.861948 13643 net.cpp:434] mbox_conf <- ext/pm6_mbox_conf_flat
I1025 13:38:28.861951 13643 net.cpp:408] mbox_conf -> mbox_conf
I1025 13:38:28.861966 13643 net.cpp:150] Setting up mbox_conf
I1025 13:38:28.861970 13643 net.cpp:157] Top shape: 1 104784 (104784)
I1025 13:38:28.861973 13643 net.cpp:165] Memory required for data: 204013632
I1025 13:38:28.861974 13643 layer_factory.hpp:77] Creating layer mbox_priorbox
I1025 13:38:28.861977 13643 net.cpp:100] Creating Layer mbox_priorbox
I1025 13:38:28.861980 13643 net.cpp:434] mbox_priorbox <- ext/pm1_mbox_priorbox
I1025 13:38:28.861982 13643 net.cpp:434] mbox_priorbox <- ext/pm2_mbox_priorbox
I1025 13:38:28.861985 13643 net.cpp:434] mbox_priorbox <- ext/pm3_mbox_priorbox
I1025 13:38:28.861987 13643 net.cpp:434] mbox_priorbox <- ext/pm4_mbox_priorbox
I1025 13:38:28.861990 13643 net.cpp:434] mbox_priorbox <- ext/pm5_mbox_priorbox
I1025 13:38:28.861992 13643 net.cpp:434] mbox_priorbox <- ext/pm6_mbox_priorbox
I1025 13:38:28.861995 13643 net.cpp:408] mbox_priorbox -> mbox_priorbox
I1025 13:38:28.862010 13643 net.cpp:150] Setting up mbox_priorbox
I1025 13:38:28.862013 13643 net.cpp:157] Top shape: 1 2 34928 (69856)
I1025 13:38:28.862015 13643 net.cpp:165] Memory required for data: 204293056
I1025 13:38:28.862017 13643 layer_factory.hpp:77] Creating layer mbox_conf_reshape
I1025 13:38:28.862022 13643 net.cpp:100] Creating Layer mbox_conf_reshape
I1025 13:38:28.862025 13643 net.cpp:434] mbox_conf_reshape <- mbox_conf
I1025 13:38:28.862028 13643 net.cpp:408] mbox_conf_reshape -> mbox_conf_reshape
I1025 13:38:28.862051 13643 net.cpp:150] Setting up mbox_conf_reshape
I1025 13:38:28.862054 13643 net.cpp:157] Top shape: 1 8732 12 (104784)
I1025 13:38:28.862056 13643 net.cpp:165] Memory required for data: 204712192
I1025 13:38:28.862058 13643 layer_factory.hpp:77] Creating layer mbox_conf_softmax
I1025 13:38:28.862068 13643 net.cpp:100] Creating Layer mbox_conf_softmax
I1025 13:38:28.862072 13643 net.cpp:434] mbox_conf_softmax <- mbox_conf_reshape
I1025 13:38:28.862078 13643 net.cpp:408] mbox_conf_softmax -> mbox_conf_softmax
I1025 13:38:28.862524 13643 net.cpp:150] Setting up mbox_conf_softmax
I1025 13:38:28.862531 13643 net.cpp:157] Top shape: 1 8732 12 (104784)
I1025 13:38:28.862534 13643 net.cpp:165] Memory required for data: 205131328
I1025 13:38:28.862537 13643 layer_factory.hpp:77] Creating layer mbox_conf_flatten
I1025 13:38:28.862541 13643 net.cpp:100] Creating Layer mbox_conf_flatten
I1025 13:38:28.862545 13643 net.cpp:434] mbox_conf_flatten <- mbox_conf_softmax
I1025 13:38:28.862548 13643 net.cpp:408] mbox_conf_flatten -> mbox_conf_flatten
I1025 13:38:28.862565 13643 net.cpp:150] Setting up mbox_conf_flatten
I1025 13:38:28.862570 13643 net.cpp:157] Top shape: 1 104784 (104784)
I1025 13:38:28.862571 13643 net.cpp:165] Memory required for data: 205550464
I1025 13:38:28.862572 13643 layer_factory.hpp:77] Creating layer detection_out
I1025 13:38:28.862586 13643 net.cpp:100] Creating Layer detection_out
I1025 13:38:28.862589 13643 net.cpp:434] detection_out <- mbox_loc
I1025 13:38:28.862596 13643 net.cpp:434] detection_out <- mbox_conf_flatten
I1025 13:38:28.862598 13643 net.cpp:434] detection_out <- mbox_priorbox
I1025 13:38:28.862602 13643 net.cpp:408] detection_out -> detection_out
I1025 13:38:28.862653 13643 net.cpp:150] Setting up detection_out
I1025 13:38:28.862658 13643 net.cpp:157] Top shape: 1 1 1 7 (7)
I1025 13:38:28.862659 13643 net.cpp:165] Memory required for data: 205550492
I1025 13:38:28.862663 13643 layer_factory.hpp:77] Creating layer detection_eval
I1025 13:38:28.862666 13643 net.cpp:100] Creating Layer detection_eval
I1025 13:38:28.862669 13643 net.cpp:434] detection_eval <- detection_out
I1025 13:38:28.862673 13643 net.cpp:434] detection_eval <- label
I1025 13:38:28.862677 13643 net.cpp:408] detection_eval -> detection_eval
I1025 13:38:28.862706 13643 net.cpp:150] Setting up detection_eval
I1025 13:38:28.862711 13643 net.cpp:157] Top shape: 1 1 12 5 (60)
I1025 13:38:28.862713 13643 net.cpp:165] Memory required for data: 205550732
I1025 13:38:28.862715 13643 net.cpp:228] detection_eval does not need backward computation.
I1025 13:38:28.862718 13643 net.cpp:228] detection_out does not need backward computation.
I1025 13:38:28.862720 13643 net.cpp:228] mbox_conf_flatten does not need backward computation.
I1025 13:38:28.862723 13643 net.cpp:228] mbox_conf_softmax does not need backward computation.
…
