…
        max_scale: 1
        min_aspect_ratio: 0.5
        max_aspect_ratio: 2
      }
      sample_constraint {
        min_jaccard_overlap: 0.9
      }
      max_sample: 1
      max_trials: 50
    }
    batch_sampler {
      sampler {
        min_scale: 0.3
        max_scale: 1
        min_aspect_ratio: 0.5
        max_aspect_ratio: 2
      }
      sample_constraint {
        max_jaccard_overlap: 1
      }
      max_sample: 1
      max_trials: 50
    }
    label_map_file: "/home/qiao/caffe-ssd/data/create_lmdb/labelmap_double_camera.prototxt"
  }
}
layer {
  name: "stem1"
  type: "Convolution"
  bottom: "data"
  top: "stem1"
  convolution_param {
    num_output: 32
    bias_term: false
    pad: 1
    kernel_size: 3
    stride: 2
    weight_filler {
      type: "xavier"
    }
    bias_filler {
      type: "constant"
    }
  }
}
layer {
  name: "stem1/bn"
  type: "BatchNorm"
  bottom: "stem1"
  top: "stem1"
  batch_norm_param {
    moving_average_fraction: 0.999
    eps: 0.001
  }
}
layer {
  name: "stem1/scale"
  type: "Scale"
  bottom: "stem1"
  top: "stem1"
  scale_param {
    filler {
      value: 1
    }
    bias_term: true
    bias_filler {
      value: 0
    }
  }
}
layer {
  name: "stem1/relu"
  type: "ReLU"
  bottom: "stem1"
  top: "stem1"
}
layer {
  name: "stem2a"
  type: "Convolution"
  bottom: "stem1"
  top: "stem2a"
  convolution_param {
    num_output: 16
    bias_term: false
    pad: 0
    kernel_size: 1
    stride: 1
    weight_filler {
      type: "xavier"
    }
    bias_filler {
      type: "constant"
    }
  }
}
layer {
  name: "stem2a/bn"
  type: "BatchNorm"
  bottom: "stem2a"
  top: "stem2a"
  batch_norm_param {
    moving_average_fraction: 0.999
    eps: 0.001
  }
}
layer {
  name: "stem2a/scale"
  type: "Scale"
  bottom: "stem2a"
  top: "stem2a"
  scale_param {
    filler {
      value: 1
    }
    bias_term: true
    bias_filler {
      value: 0
    }
  }
}
layer {
  name: "stem2a/relu"
  type: "ReLU"
  bottom: "stem2a"
  top: "stem2a"
}
layer {
  name: "stem2b"
  type: "Convolution"
  bottom: "stem2a"
  top: "stem2b"
  convolution_param {
    num_output: 32
    bias_term: false
    pad: 1
    kernel_size: 3
    stride: 2
    weight_filler {
      type: "xavier"
    }
    bias_filler {
      type: "constant"
    }
  }
}
layer {
  name: "stem2b/bn"
  type: "BatchNorm"
  bottom: "stem2b"
  top: "stem2b"
  batch_norm_param {
    moving_average_fraction: 0.999
    eps: 0.001
  }
}
layer {
  name: "stem2b/scale"
  type: "Scale"
  bottom: "stem2b"
  top: "stem2b"
  scale_param {
    filler {
      value: 1
    }
    bias_term: true
    bias_filler {
      value: 0
    }
  }
}
layer {
  name: "stem2b/relu"
  type: "ReLU"
  bottom: "stem2b"
  top: "stem2b"
}
layer {
  name: "stem/pool"
  type: "Pooling"
  bottom: "stem1"
  top: "stem/pool"
  pooling_param {
    pool: MAX
    kernel_size: 2
    stride: 2
  }
}
layer {
  name: "stem/concat"
  type: "Concat"
  bottom: "stem/pool"
  bottom: "stem2b"
  top: "stem/concat"
  concat_param {
    axis: 1
  }
}
layer {
  name: "stem3"
  type: "Convolution"
  bottom: "stem/concat"
  top: "stem3"
  convolution_param {
    num_output: 32
    bias_term: false
    pad: 0
    kernel_size: 1
    stride: 1
    weight_filler {
      type: "xavier"
    }
    bias_filler {
      type: "constant"
    }
  }
}
layer {
  name: "stem3/bn"
  type: "BatchNorm"
  bottom: "stem3"
  top: "stem3"
  batch_norm_param {
    moving_average_fraction: 0.999
    eps: 0.001
  }
}
layer {
  name: "stem3/scale"
  type: "Scale"
  bottom: "stem3"
  top: "stem3"
  scale_param {
    filler {
      value: 1
    }
    bias_term: true
    bias_filler {
      value: 0
    }
  }
}
layer {
  name: "stem3/relu"
  type: "ReLU"
  bottom: "stem3"
  top: "stem3"
}
layer {
  name: "stage1_1/branch1a"
  type: "Convolution"
  bottom: "stem3"
  top: "stage1_1/branch1a"
  convolution_param {
    num_output: 16
    bias_term: false
    pad: 0
    kernel_size: 1
    stride: 1
    weight_filler {
      type: "xavier"
    }
    bias_filler {
      type: "constant"
    }
  }
}
layer {
  name: "stage1_1/branch1a/bn"
  type: "BatchNorm"
  bottom: "stage1_1/branch1a"
  top: "stage1_1/branch1a"
  batch_norm_param {
    moving_average_fraction: 0.999
    eps: 0.001
  }
}
layer {
  name: "stage1_1/branch1a/scale"
  type: "Scale"
  bottom: "stage1_1/branch1a"
  top: "stage1_1/branch1a"
  scale_param {
    filler {
      value: 1
    }
    bias_term: true
    bias_filler {
      value: 0
    }
  }
}
layer {
  name: "stage1_1/branch1a/relu"
  type: "ReLU"
  bottom: "stage1_1/branch1a"
  top: "stage1_1/branch1a"
}
layer {
  name: "stage1_1/branch1b"
  type: "Convolution"
  bottom: "stage1_1/branch1a"
  top: "stage1_1/branch1b"
  convolution_param {
    num_output: 16
    bias_term: false
    pad: 1
    kernel_size: 3
    stride: 1
    weight_filler {
      type: "xavier"
    }
    bias_filler {
      type: "constant"
    }
  }
}
layer {
  name: "stage1_1/branch1b/bn"
  type: "BatchNorm"
  bottom: "stage1_1/branch1b"
  top: "stage1_1/branch1b"
  batch_norm_param {
    moving_average_fraction: 0.999
    eps: 0.001
  }
}
layer {
  name: "stage1_1/branch1b/scale"
  type: "Scale"
  bottom: "stage1_1/branch1b"
  top: "stage1_1/branch1b"
  scale_param {
    filler {
      value: 1
    }
    bias_term: true
    bias_filler {
      value: 0
    }
  }
}
layer {
  name: "stage1_1/branch1b/relu"
  type: "ReLU"
  bottom: "stage1_1/branch1b"
  top: "stage1_1/branch1b"
}
layer {
  name: "stage1_1/branch2a"
  type: "Convolution"
  bottom: "stem3"
  top: "stage1_1/branch2a"
  convolution_param {
    num_output: 16
    bias_term: false
    pad: 0
    kernel_size: 1
    stride: 1
    weight_filler {
      type: "xavier"
    }
    bias_filler {
      type: "constant"
    }
  }
}
layer {
  name: "stage1_1/branch2a/bn"
  type: "BatchNorm"
  bottom: "stage1_1/branch2a"
  top: "stage1_1/branch2a"
  batch_norm_param {
    moving_average_fraction: 0.999
    eps: 0.001
  }
}
layer {
  name: "stage1_1/branch2a/scale"
  type: "Scale"
  bottom: "stage1_1/branch2a"
  top: "stage1_1/branch2a"
  scale_param {
    filler {
      value: 1
    }
    bias_term: true
    bias_filler {
      value: 0
    }
  }
}
layer {
  name: "stage1_1/branch2a/relu"
  type: "ReLU"
  bottom: "stage1_1/branch2a"
  top: "stage1_1/branch2a"
}
layer {
  name: "stage1_1/branch2b"
  type: "Convolution"
  bottom: "stage1_1/branch2a"
  top: "stage1_1/branch2b"
  convolution_param {
    num_output: 16
    bias_term: false
    pad: 1
    kernel_size: 3
    stride: 1
    weight_filler {
      type: "xavier"
    }
    bias_filler {
      type: "constant"
    }
  }
}
layer {
  name: "stage1_1/branch2b/bn"
  type: "BatchNorm"
  bottom: "stage1_1/branch2b"
  top: "stage1_1/branch2b"
  batch_norm_param {
    moving_average_fraction: 0.999
    eps: 0.001
  }
}
layer {
  name: "stage1_1/branch2b/scale"
  type: "Scale"
  bottom: "stage1_1/branch2b"
  top: "stage1_1/branch2b"
  scale_param {
    filler {
      value: 1
    }
    bias_term: true
    bias_filler {
      value: 0
    }
  }
}
layer {
  name: "stage1_1/branch2b/relu"
  type: "ReLU"
  bottom: "stage1_1/branch2b"
  top: "stage1_1/branch2b"
}
layer {
  name: "stage1_1/branch2c"
  type: "Convolution"
  bottom: "stage1_1/branch2b"
  top: "stage1_1/branch2c"
  convolution_param {
    num_output: 16
    bias_term: false
    pad: 1
    kernel_size: 3
    stride: 1
    weight_filler {
      type: "xavier"
    }
    bias_filler {
      type: "constant"
    }
  }
}
layer {
  name: "stage1_1/branch2c/bn"
  type: "BatchNorm"
  bottom: "stage1_1/branch2c"
  top: "stage1_1/branch2c"
  batch_norm_param {
    moving_average_fraction: 0.999
    eps: 0.001
  }
}
layer {
  name: "stage1_1/branch2c/scale"
  type: "Scale"
  bottom: "stage1_1/branch2c"
  top: "stage1_1/branch2c"
  scale_param {
    filler {
      value: 1
    }
    bias_term: true
    bias_filler {
      value: 0
    }
  }
}
layer {
  name: "stage1_1/branch2c/relu"
  type: "ReLU"
  bottom: "stage1_1/branch2c"
  top: "stage1_1/branch2c"
}
layer {
  name: "stage1_1/concat"
  type: "Concat"
  bottom: "stem3"
  bottom: "stage1_1/branch1b"
  bottom: "stage1_1/branch2c"
  top: "stage1_1/concat"
  concat_param {
    axis: 1
  }
}
layer {
  name: "stage1_2/branch1a"
  type: "Convolution"
  bottom: "stage1_1/concat"
  top: "stage1_2/branch1a"
  convolution_param {
    num_output: 16
    bias_term: false
    pad: 0
    kernel_size: 1
    stride: 1
    weight_filler {
      type: "xavier"
    }
    bias_filler {
      type: "constant"
    }
  }
}
layer {
  name: "stage1_2/branch1a/bn"
  type: "BatchNorm"
  bottom: "stage1_2/branch1a"
  top: "stage1_2/branch1a"
  batch_norm_param {
    moving_average_fraction: 0.999
    eps: 0.001
  }
}
layer {
  name: "stage1_2/branch1a/scale"
  type: "Scale"
  bottom: "stage1_2/branch1a"
  top: "stage1_2/branch1a"
  scale_param {
    filler {
      value: 1
    }
    bias_term: true
    bias_filler {
      value: 0
    }
  }
}
layer {
  name: "stage1_2/branch1a/relu"
  type: "ReLU"
  bottom: "stage1_2/branch1a"
  top: "stage1_2/branch1a"
}
layer {
  name: "stage1_2/branch1b"
  type: "Convolution"
  bottom: "stage1_2/branch1a"
  top: "stage1_2/branch1b"
  convolution_param {
    num_output: 16
    bias_term: false
    pad: 1
    kernel_size: 3
    stride: 1
    weight_filler {
      type: "xavier"
    }
    bias_filler {
      type: "constant"
    }
  }
}
layer {
  name: "stage1_2/branch1b/bn"
  type: "BatchNorm"
  bottom: "stage1_2/branch1b"
  top: "stage1_2/branch1b"
  batch_norm_param {
    moving_average_fraction: 0.999
    eps: 0.001
  }
}
layer {
  name: "stage1_2/branch1b/scale"
  type: "Scale"
  bottom: "stage1_2/branch1b"
  top: "stage1_2/branch1b"
  scale_param {
    filler {
      value: 1
    }
    bias_term: true
    bias_filler {
      value: 0
    }
  }
}
layer {
  name: "stage1_2/branch1b/relu"
  type: "ReLU"
  bottom: "stage1_2/branch1b"
  top: "stage1_2/branch1b"
}
layer {
  name: "stage1_2/branch2a"
  type: "Convolution"
  bottom: "stage1_1/concat"
  top: "stage1_2/branch2a"
  convolution_param {
    num_output: 16
    bias_term: false
    pad: 0
    kernel_size: 1
    stride: 1
    weight_filler {
      type: "xavier"
    }
    bias_filler {
      type: "constant"
    }
  }
}
layer {
  name: "stage1_2/branch2a/bn"
  type: "BatchNorm"
  bottom: "stage1_2/branch2a"
  top: "stage1_2/branch2a"
  batch_norm_param {
    moving_average_fraction: 0.999
    eps: 0.001
  }
}
layer {
  name: "stage1_2/branch2a/scale"
  type: "Scale"
  bottom: "stage1_2/branch2a"
  top: "stage1_2/branch2a"
  scale_param {
    filler {
      value: 1
    }
    bias_term: true
    bias_filler {
      value: 0
    }
  }
}
layer {
  name: "stage1_2/branch2a/relu"
  type: "ReLU"
  bottom: "stage1_2/branch2a"
  top: "stage1_2/branch2a"
}
layer {
  name: "stage1_2/branch2b"
  type: "Convolution"
  bottom: "stage1_2/branch2a"
  top: "stage1_2/branch2b"
  convolution_param {
    num_output: 16
    bias_term: false
    pad: 1
    kernel_size: 3
    stride: 1
    weight_filler {
      type: "xavier"
    }
    bias_filler {
      type: "constant"
    }
  }
}
layer {
  name: "stage1_2/branch2b/bn"
  type: "BatchNorm"
  bottom: "stage1_2/branch2b"
  top: "stage1_2/branch2b"
  batch_norm_param {
    moving_average_fraction: 0.999
    eps: 0.001
  }
}
layer {
  name: "stage1_2/branch2b/scale"
  type: "Scale"
  bottom: "stage1_2/branch2b"
  top: "stage1_2/branch2b"
  scale_param {
    filler {
      value: 1
    }
    bias_term: true
    bias_filler {
      value: 0
    }
  }
}
layer {
  name: "stage1_2/branch2b/relu"
  type: "ReLU"
  bottom: "stage1_2/branch2b"
  top: "stage1_2/branch2b"
}
layer {
  name: "stage1_2/branch2c"
  type: "Convolution"
  bottom: "stage1_2/branch2b"
  top: "stage1_2/branch2c"
  convolution_param {
    num_output: 16
    bias_term: false
    pad: 1
    kernel_size: 3
    stride: 1
    weight_filler {
      type: "xavier"
    }
    bias_filler {
      type: "constant"
    }
  }
}
layer {
  name: "stage1_2/branch2c/bn"
  type: "BatchNorm"
  bottom: "stage1_2/branch2c"
  top: "stage1_2/branch2c"
  batch_norm_param {
    moving_average_fraction: 0.999
    eps: 0.001
  }
}
layer {
  name: "stage1_2/branch2c/scale"
  type: "Scale"
  bottom: "stage1_2/branch2c"
  top: "stage1_2/branch2c"
  scale_param {
    filler {
      value: 1
    }
    bias_term: true
    bias_filler {
      value: 0
    }
  }
}
layer {
  name: "stage1_2/branch2c/relu"
  type: "ReLU"
  bottom: "stage1_2/branch2c"
  top: "stage1_2/branch2c"
}
layer {
  name: "stage1_2/concat"
  type: "Concat"
  bottom: "stage1_1/concat"
  bottom: "stage1_2/branch1b"
  bottom: "stage1_2/branch2c"
  top: "stage1_2/concat"
  concat_param {
    axis: 1
  }
}
layer {
  name: "stage1_3/branch1a"
  type: "Convolution"
  bottom: "stage1_2/concat"
  top: "stage1_3/branch1a"
  convolution_param {
    num_output: 16
    bias_term: false
    pad: 0
    kernel_size: 1
    stride: 1
    weight_filler {
      type: "xavier"
    }
    bias_filler {
      type: "constant"
    }
  }
}
layer {
  name: "stage1_3/branch1a/bn"
  type: "BatchNorm"
  bottom: "stage1_3/branch1a"
  top: "stage1_3/branch1a"
  batch_norm_param {
    moving_average_fraction: 0.999
    eps: 0.001
  }
}
layer {
  name: "stage1_3/branch1a/scale"
  type: "Scale"
  bottom: "stage1_3/branch1a"
  top: "stage1_3/branch1a"
  scale_param {
    filler {
      value: 1
    }
    bias_term: true
    bias_filler {
      value: 0
    }
  }
}
layer {
  name: "stage1_3/branch1a/relu"
  type: "ReLU"
  bottom: "stage1_3/branch1a"
  top: "stage1_3/branch1a"
}
layer {
  name: "stage1_3/branch1b"
  type: "Convolution"
  bottom: "stage1_3/branch1a"
  top: "stage1_3/branch1b"
  convolution_param {
    num_output: 16
    bias_term: false
    pad: 1
    kernel_size: 3
    stride: 1
    weight_filler {
      type: "xavier"
    }
    bias_filler {
      type: "constant"
    }
  }
}
layer {
  name: "stage1_3/branch1b/bn"
  type: "BatchNorm"
  bottom: "stage1_3/branch1b"
  top: "stage1_3/branch1b"
  batch_norm_param {
    moving_average_fraction: 0.999
    eps: 0.001
  }
}
layer {
  name: "stage1_3/branch1b/scale"
  type: "Scale"
  bottom: "stage1_3/branch1b"
  top: "stage1_3/branch1b"
  scale_param {
    filler {
      value: 1
    }
    bias_term: true
    bias_filler {
      value: 0
    }
  }
}
layer {
  name: "stage1_3/branch1b/relu"
  type: "ReLU"
  bottom: "stage1_3/branch1b"
  top: "stage1_3/branch1b"
}
layer {
  name: "stage1_3/branch2a"
  type: "Convolution"
  bottom: "stage1_2/concat"
  top: "stage1_3/branch2a"
  convolution_param {
    num_output: 16
    bias_term: false
    pad: 0
    kernel_size: 1
    stride: 1
    weight_filler {
      type: "xavier"
    }
    bias_filler {
      type: "constant"
    }
  }
}
layer {
  name: "stage1_3/branch2a/bn"
  type: "BatchNorm"
  bottom: "stage1_3/branch2a"
  top: "stage1_3/branch2a"
  batch_norm_param {
    moving_average_fraction: 0.999
    eps: 0.001
  }
}
layer {
  name: "stage1_3/branch2a/scale"
  type: "Scale"
  bottom: "stage1_3/branch2a"
  top: "stage1_3/branch2a"
  scale_param {
    filler {
      value: 1
    }
    bias_term: true
    bias_filler {
      value: 0
    }
  }
}
layer {
  name: "stage1_3/branch2a/relu"
  type: "ReLU"
  bottom: "stage1_3/branch2a"
  top: "stage1_3/branch2a"
}
layer {
  name: "stage1_3/branch2b"
  type: "Convolution"
  bottom: "stage1_3/branch2a"
  top: "stage1_3/branch2b"
  convolution_param {
    num_output: 16
    bias_term: false
    pad: 1
    kernel_size: 3
    stride: 1
    weight_filler {
      type: "xavier"
    }
    bias_filler {
      type: "constant"
    }
  }
}
layer {
  name: "stage1_3/branch2b/bn"
  type: "BatchNorm"
  bottom: "stage1_3/branch2b"
  top: "stage1_3/branch2b"
  batch_norm_param {
    moving_average_fraction: 0.999
    eps: 0.001
  }
}
layer {
  name: "stage1_3/branch2b/scale"
  type: "Scale"
  bottom: "stage1_3/branch2b"
  top: "stage1_3/branch2b"
  scale_param {
    filler {
      value: 1
    }
    bias_term: true
    bias_filler {
      value: 0
    }
  }
}
layer {
  name: "stage1_3/branch2b/relu"
  type: "ReLU"
  bottom: "stage1_3/branch2b"
  top: "stage1_3/branch2b"
}
layer {
  name: "stage1_3/branch2c"
  type: "Convolution"
  bottom: "stage1_3/branch2b"
  top: "stage1_3/branch2c"
  convolution_param {
    num_output: 16
    bias_term: false
    pad: 1
    kernel_size: 3
    stride: 1
    weight_filler {
      type: "xavier"
    }
    bias_filler {
      type: "constant"
    }
  }
}
layer {
  name: "stage1_3/branch2c/bn"
  type: "BatchNorm"
  bottom: "stage1_3/branch2c"
  top: "stage1_3/branch2c"
  batch_norm_param {
    moving_average_fraction: 0.999
    eps: 0.001
  }
}
layer {
  name: "stage1_3/branch2c/scale"
  type: "Scale"
  bottom: "stage1_3/branch2c"
  top: "stage1_3/branch2c"
  scale_param {
    filler {
      value: 1
    }
    bias_term: true
    bias_filler {
      value: 0
    }
  }
}
layer {
  name: "stage1_3/branch2c/relu"
  type: "ReLU"
  bottom: "stage1_3/branch2c"
  top: "stage1_3/branch2c"
}
layer {
  name: "stage1_3/concat"
  type: "Concat"
  bottom: "stage1_2/concat"
  bottom: "stage1_3/branch1b"
  bottom: "stage1_3/branch2c"
  top: "stage1_3/concat"
  concat_param {
    axis: 1
  }
}
layer {
  name: "stage1_tb"
  type: "Convolution"
  bottom: "stage1_3/concat"
  top: "stage1_tb"
  convolution_param {
    num_output: 128
    bias_term: false
    pad: 0
    kernel_size: 1
    stride: 1
    weight_filler {
      type: "xavier"
    }
    bias_filler {
      type: "constant"
    }
  }
}
layer {
  name: "stage1_tb/bn"
  type: "BatchNorm"
  bottom: "stage1_tb"
  top: "stage1_tb"
  batch_norm_param {
    moving_average_fraction: 0.999
    eps: 0.001
  }
}
layer {
  name: "stage1_tb/scale"
  type: "Scale"
  bottom: "stage1_tb"
  top: "stage1_tb"
  scale_param {
    filler {
      value: 1
    }
    bias_term: true
    bias_filler {
      value: 0
    }
  }
}
layer {
  name: "stage1_tb/relu"
  type: "ReLU"
  bottom: "stage1_tb"
  top: "stage1_tb"
}
layer {
  name: "stage1_tb/pool"
  type: "Pooling"
  bottom: "stage1_tb"
  top: "stage1_tb/pool"
  pooling_param {
    pool: AVE
    kernel_size: 2
    stride: 2
  }
}
layer {
  name: "stage2_1/branch1a"
  type: "Convolution"
  bottom: "stage1_tb/pool"
  top: "stage2_1/branch1a"
  convolution_param {
    num_output: 32
    bias_term: false
    pad: 0
    kernel_size: 1
    stride: 1
    weight_filler {
      type: "xavier"
    }
    bias_filler {
      type: "constant"
    }
  }
}
layer {
  name: "stage2_1/branch1a/bn"
  type: "BatchNorm"
  bottom: "stage2_1/branch1a"
  top: "stage2_1/branch1a"
  batch_norm_param {
    moving_average_fraction: 0.999
    eps: 0.001
  }
}
layer {
  name: "stage2_1/branch1a/scale"
  type: "Scale"
  bottom: "stage2_1/branch1a"
  top: "stage2_1/branch1a"
  scale_param {
    filler {
      value: 1
    }
    bias_term: true
    bias_filler {
      value: 0
    }
  }
}
layer {
  name: "stage2_1/branch1a/relu"
  type: "ReLU"
  bottom: "stage2_1/branch1a"
  top: "stage2_1/branch1a"
}
layer {
  name: "stage2_1/branch1b"
  type: "Convolution"
  bottom: "stage2_1/branch1a"
  top: "stage2_1/branch1b"
  convolution_param {
    num_output: 16
    bias_term: false
    pad: 1
    kernel_size: 3
    stride: 1
    weight_filler {
      type: "xavier"
    }
    bias_filler {
      type: "constant"
    }
  }
}
layer {
  name: "stage2_1/branch1b/bn"
  type: "BatchNorm"
  bottom: "stage2_1/branch1b"
  top: "stage2_1/branch1b"
  batch_norm_param {
    moving_average_fraction: 0.999
    eps: 0.001
  }
}
layer {
  name: "stage2_1/branch1b/scale"
  type: "Scale"
  bottom: "stage2_1/branch1b"
  top: "stage2_1/branch1b"
  scale_param {
    filler {
      value: 1
    }
    bias_term: true
    bias_filler {
      value: 0
    }
  }
}
layer {
  name: "stage2_1/branch1b/relu"
  type: "ReLU"
  bottom: "stage2_1/branch1b"
  top: "stage2_1/branch1b"
}
layer {
  name: "stage2_1/branch2a"
  type: "Convolution"
  bottom: "stage1_tb/pool"
  top: "stage2_1/branch2a"
  convolution_param {
    num_output: 32
    bias_term: false
    pad: 0
    kernel_size: 1
    stride: 1
    weight_filler {
      type: "xavier"
    }
    bias_filler {
      type: "constant"
    }
  }
}
layer {
  name: "stage2_1/branch2a/bn"
  type: "BatchNorm"
  bottom: "stage2_1/branch2a"
  top: "stage2_1/branch2a"
  batch_norm_param {
    moving_average_fraction: 0.999
    eps: 0.001
  }
}
layer {
  name: "stage2_1/branch2a/scale"
  type: "Scale"
  bottom: "stage2_1/branch2a"
  top: "stage2_1/branch2a"
  scale_param {
    filler {
      value: 1
    }
    bias_term: true
    bias_filler {
      value: 0
    }
  }
}
layer {
  name: "stage2_1/branch2a/relu"
  type: "ReLU"
  bottom: "stage2_1/branch2a"
  top: "stage2_1/branch2a"
}
layer {
  name: "stage2_1/branch2b"
  type: "Convolution"
  bottom: "stage2_1/branch2a"
  top: "stage2_1/branch2b"
  convolution_param {
    num_output: 16
    bias_term: false
    pad: 1
    kernel_size: 3
    stride: 1
    weight_filler {
      type: "xavier"
    }
    bias_filler {
      type: "constant"
    }
  }
}
layer {
  name: "stage2_1/branch2b/bn"
  type: "BatchNorm"
  bottom: "stage2_1/branch2b"
  top: "stage2_1/branch2b"
  batch_norm_param {
    moving_average_fraction: 0.999
    eps: 0.001
  }
}
layer {
  name: "stage2_1/branch2b/scale"
  type: "Scale"
  bottom: "stage2_1/branch2b"
  top: "stage2_1/branch2b"
  scale_param {
    filler {
      value: 1
    }
    bias_term: true
    bias_filler {
      value: 0
    }
  }
}
layer {
  name: "stage2_1/branch2b/relu"
  type: "ReLU"
  bottom: "stage2_1/branch2b"
  top: "stage2_1/branch2b"
}
layer {
  name: "stage2_1/branch2c"
  type: "Convolution"
  bottom: "stage2_1/branch2b"
  top: "stage2_1/branch2c"
  convolution_param {
    num_output: 16
    bias_term: false
    pad: 1
    kernel_size: 3
    stride: 1
    weight_filler {
      type: "xavier"
    }
    bias_filler {
      type: "constant"
    }
  }
}
layer {
  name: "stage2_1/branch2c/bn"
  type: "BatchNorm"
  bottom: "stage2_1/branch2c"
  top: "stage2_1/branch2c"
  batch_norm_param {
    moving_average_fraction: 0.999
    eps: 0.001
  }
}
layer {
  name: "stage2_1/branch2c/scale"
  type: "Scale"
  bottom: "stage2_1/branch2c"
  top: "stage2_1/branch2c"
  scale_param {
    filler {
      value: 1
    }
    bias_term: true
    bias_filler {
      value: 0
    }
  }
}
layer {
  name: "stage2_1/branch2c/relu"
  type: "ReLU"
  bottom: "stage2_1/branch2c"
  top: "stage2_1/branch2c"
}
layer {
  name: "stage2_1/concat"
  type: "Concat"
  bottom: "stage1_tb/pool"
  bottom: "stage2_1/branch1b"
  bottom: "stage2_1/branch2c"
  top: "stage2_1/concat"
  concat_param {
    axis: 1
  }
}
layer {
  name: "stage2_2/branch1a"
  type: "Convolution"
  bottom: "stage2_1/concat"
  top: "stage2_2/branch1a"
  convolution_param {
    num_output: 32
    bias_term: false
    pad: 0
    kernel_size: 1
    stride: 1
    weight_filler {
      type: "xavier"
    }
    bias_filler {
      type: "constant"
    }
  }
}
layer {
  name: "stage2_2/branch1a/bn"
  type: "BatchNorm"
  bottom: "stage2_2/branch1a"
  top: "stage2_2/branch1a"
  batch_norm_param {
    moving_average_fraction: 0.999
    eps: 0.001
  }
}
layer {
  name: "stage2_2/branch1a/scale"
  type: "Scale"
  bottom: "stage2_2/branch1a"
  top: "stage2_2/branch1a"
  scale_param {
    filler {
      value: 1
    }
    bias_term: true
    bias_filler {
      value: 0
    }
  }
}
layer {
  name: "stage2_2/branch1a/relu"
  type: "ReLU"
  bottom: "stage2_2/branch1a"
  top: "stage2_2/branch1a"
}
layer {
  name: "stage2_2/branch1b"
  type: "Convolution"
  bottom: "stage2_2/branch1a"
  top: "stage2_2/branch1b"
  convolution_param {
    num_output: 16
    bias_term: false
    pad: 1
    kernel_size: 3
    stride: 1
    weight_filler {
      type: "xavier"
    }
    bias_filler {
      type: "constant"
    }
  }
}
layer {
  name: "stage2_2/branch1b/bn"
  type: "BatchNorm"
  bottom: "stage2_2/branch1b"
  top: "stage2_2/branch1b"
  batch_norm_param {
    moving_average_fraction: 0.999
    eps: 0.001
  }
}
layer {
  name: "stage2_2/branch1b/scale"
  type: "Scale"
  bottom: "stage2_2/branch1b"
  top: "stage2_2/branch1b"
  scale_param {
    filler {
      value: 1
    }
    bias_term: true
    bias_filler {
      value: 0
    }
  }
}
layer {
  name: "stage2_2/branch1b/relu"
  type: "ReLU"
  bottom: "stage2_2/branch1b"
  top: "stage2_2/branch1b"
}
layer {
  name: "stage2_2/branch2a"
  type: "Convolution"
  bottom: "stage2_1/concat"
  top: "stage2_2/branch2a"
  convolution_param {
    num_output: 32
    bias_term: false
    pad: 0
    kernel_size: 1
    stride: 1
    weight_filler {
      type: "xavier"
    }
    bias_filler {
      type: "constant"
    }
  }
}
layer {
  name: "stage2_2/branch2a/bn"
  type: "BatchNorm"
  bottom: "stage2_2/branch2a"
  top: "stage2_2/branch2a"
  batch_norm_param {
    moving_average_fraction: 0.999
    eps: 0.001
  }
}
layer {
  name: "stage2_2/branch2a/scale"
  type: "Scale"
  bottom: "stage2_2/branch2a"
  top: "stage2_2/branch2a"
  scale_param {
    filler {
      value: 1
    }
    bias_term: true
    bias_filler {
      value: 0
    }
  }
}
layer {
  name: "stage2_2/branch2a/relu"
  type: "ReLU"
  bottom: "stage2_2/branch2a"
  top: "stage2_2/branch2a"
}
layer {
  name: "stage2_2/branch2b"
  type: "Convolution"
  bottom: "stage2_2/branch2a"
  top: "stage2_2/branch2b"
  convolution_param {
    num_output: 16
    bias_term: false
    pad: 1
    kernel_size: 3
    stride: 1
    weight_filler {
      type: "xavier"
    }
    bias_filler {
      type: "constant"
    }
  }
}
layer {
  name: "stage2_2/branch2b/bn"
  type: "BatchNorm"
  bottom: "stage2_2/branch2b"
  top: "stage2_2/branch2b"
  batch_norm_param {
    moving_average_fraction: 0.999
    eps: 0.001
  }
}
layer {
  name: "stage2_2/branch2b/scale"
  type: "Scale"
  bottom: "stage2_2/branch2b"
  top: "stage2_2/branch2b"
  scale_param {
    filler {
      value: 1
    }
    bias_term: true
    bias_filler {
      value: 0
    }
  }
}
layer {
  name: "stage2_2/branch2b/relu"
  type: "ReLU"
  bottom: "stage2_2/branch2b"
  top: "stage2_2/branch2b"
}
layer {
  name: "stage2_2/branch2c"
  type: "Convolution"
  bottom: "stage2_2/branch2b"
  top: "stage2_2/branch2c"
  convolution_param {
    num_output: 16
    bias_term: false
    pad: 1
    kernel_size: 3
    stride: 1
    weight_filler {
      type: "xavier"
    }
    bias_filler {
      type: "constant"
    }
  }
}
layer {
  name: "stage2_2/branch2c/bn"
  type: "BatchNorm"
  bottom: "stage2_2/branch2c"
  top: "stage2_2/branch2c"
  batch_norm_param {
    moving_average_fraction: 0.999
    eps: 0.001
  }
}
layer {
  name: "stage2_2/branch2c/scale"
  type: "Scale"
  bottom: "stage2_2/branch2c"
  top: "stage2_2/branch2c"
  scale_param {
    filler {
      value: 1
    }
    bias_term: true
    bias_filler {
      value: 0
    }
  }
}
layer {
  name: "stage2_2/branch2c/relu"
  type: "ReLU"
  bottom: "stage2_2/branch2c"
  top: "stage2_2/branch2c"
}
layer {
  name: "stage2_2/concat"
  type: "Concat"
  bottom: "stage2_1/concat"
  bottom: "stage2_2/branch1b"
  bottom: "stage2_2/branch2c"
  top: "stage2_2/concat"
  concat_param {
    axis: 1
  }
}
layer {
  name: "stage2_3/branch1a"
  type: "Convolution"
  bottom: "stage2_2/concat"
  top: "stage2_3/branch1a"
  convolution_param {
    num_output: 32
    bias_term: false
    pad: 0
    kernel_size: 1
    stride: 1
    weight_filler {
      type: "xavier"
    }
    bias_filler {
      type: "constant"
    }
  }
}
layer {
  name: "stage2_3/branch1a/bn"
  type: "BatchNorm"
  bottom: "stage2_3/branch1a"
  top: "stage2_3/branch1a"
  batch_norm_param {
    moving_average_fraction: 0.999
    eps: 0.001
  }
}
layer {
  name: "stage2_3/branch1a/scale"
  type: "Scale"
  bottom: "stage2_3/branch1a"
  top: "stage2_3/branch1a"
  scale_param {
    filler {
      value: 1
    }
    bias_term: true
    bias_filler {
      value: 0
    }
  }
}
layer {
  name: "stage2_3/branch1a/relu"
  type: "ReLU"
  bottom: "stage2_3/branch1a"
  top: "stage2_3/branch1a"
}
layer {
  name: "stage2_3/branch1b"
  type: "Convolution"
  bottom: "stage2_3/branch1a"
  top: "stage2_3/branch1b"
  convolution_param {
    num_output: 16
    bias_term: false
    pa
I1025 13:39:55.433928 13868 layer_factory.hpp:77] Creating layer data
I1025 13:39:55.434326 13868 net.cpp:100] Creating Layer data
I1025 13:39:55.434336 13868 net.cpp:408] data -> data
I1025 13:39:55.434360 13868 net.cpp:408] data -> label
I1025 13:39:55.435061 13875 db_lmdb.cpp:35] Opened lmdb /home/qiao/caffe-ssd/data/create_lmdb/lmdb/double_camera_trainval_lmdb
I1025 13:39:55.443390 13868 annotated_data_layer.cpp:62] output data size: 16,3,300,300
I1025 13:39:55.462805 13868 net.cpp:150] Setting up data
I1025 13:39:55.462828 13868 net.cpp:157] Top shape: 16 3 300 300 (4320000)
I1025 13:39:55.462832 13868 net.cpp:157] Top shape: 1 1 13 8 (104)
I1025 13:39:55.462834 13868 net.cpp:165] Memory required for data: 17280416
I1025 13:39:55.462846 13868 layer_factory.hpp:77] Creating layer data_data_0_split
I1025 13:39:55.462857 13868 net.cpp:100] Creating Layer data_data_0_split
I1025 13:39:55.462862 13868 net.cpp:434] data_data_0_split <- data
I1025 13:39:55.462873 13868 net.cpp:408] data_data_0_split -> data_data_0_split_0
I1025 13:39:55.462880 13868 net.cpp:408] data_data_0_split -> data_data_0_split_1
I1025 13:39:55.462886 13868 net.cpp:408] data_data_0_split -> data_data_0_split_2
I1025 13:39:55.462890 13868 net.cpp:408] data_data_0_split -> data_data_0_split_3
I1025 13:39:55.462894 13868 net.cpp:408] data_data_0_split -> data_data_0_split_4
I1025 13:39:55.462918 13868 net.cpp:408] data_data_0_split -> data_data_0_split_5
I1025 13:39:55.462924 13868 net.cpp:408] data_data_0_split -> data_data_0_split_6
I1025 13:39:55.463004 13868 net.cpp:150] Setting up data_data_0_split
I1025 13:39:55.463011 13868 net.cpp:157] Top shape: 16 3 300 300 (4320000)
I1025 13:39:55.463013 13868 net.cpp:157] Top shape: 16 3 300 300 (4320000)
I1025 13:39:55.463016 13868 net.cpp:157] Top shape: 16 3 300 300 (4320000)
I1025 13:39:55.463018 13868 net.cpp:157] Top shape: 16 3 300 300 (4320000)
I1025 13:39:55.463021 13868 net.cpp:157] Top shape: 16 3 300 300 (4320000)
I1025 13:39:55.463023 13868 net.cpp:157] Top shape: 16 3 300 300 (4320000)
I1025 13:39:55.463026 13868 net.cpp:157] Top shape: 16 3 300 300 (4320000)
I1025 13:39:55.463027 13868 net.cpp:165] Memory required for data: 138240416
I1025 13:39:55.463030 13868 layer_factory.hpp:77] Creating layer stem1
I1025 13:39:55.463047 13868 net.cpp:100] Creating Layer stem1
I1025 13:39:55.463049 13868 net.cpp:434] stem1 <- data_data_0_split_0
I1025 13:39:55.463053 13868 net.cpp:408] stem1 -> stem1
I1025 13:39:56.320425 13868 net.cpp:150] Setting up stem1
I1025 13:39:56.320446 13868 net.cpp:157] Top shape: 16 32 150 150 (11520000)
I1025 13:39:56.320447 13868 net.cpp:165] Memory required for data: 184320416
I1025 13:39:56.320458 13868 layer_factory.hpp:77] Creating layer stem1/bn
I1025 13:39:56.320468 13868 net.cpp:100] Creating Layer stem1/bn
I1025 13:39:56.320472 13868 net.cpp:434] stem1/bn <- stem1
I1025 13:39:56.320477 13868 net.cpp:395] stem1/bn -> stem1 (in-place)
I1025 13:39:56.320598 13868 net.cpp:150] Setting up stem1/bn
I1025 13:39:56.320605 13868 net.cpp:157] Top shape: 16 32 150 150 (11520000)
I1025 13:39:56.320606 13868 net.cpp:165] Memory required for data: 230400416
I1025 13:39:56.320614 13868 layer_factory.hpp:77] Creating layer stem1/scale
I1025 13:39:56.320621 13868 net.cpp:100] Creating Layer stem1/scale
I1025 13:39:56.320622 13868 net.cpp:434] stem1/scale <- stem1
I1025 13:39:56.320626 13868 net.cpp:395] stem1/scale -> stem1 (in-place)
I1025 13:39:56.320652 13868 layer_factory.hpp:77] Creating layer stem1/scale
I1025 13:39:56.320731 13868 net.cpp:150] Setting up stem1/scale
I1025 13:39:56.320735 13868 net.cpp:157] Top shape: 16 32 150 150 (11520000)
I1025 13:39:56.320739 13868 net.cpp:165] Memory required for data: 276480416
I1025 13:39:56.320742 13868 layer_factory.hpp:77] Creating layer stem1/relu
I1025 13:39:56.320747 13868 net.cpp:100] Creating Layer stem1/relu
I1025 13:39:56.320749 13868 net.cpp:434] stem1/relu <- stem1
I1025 13:39:56.320752 13868 net.cpp:395] stem1/relu -> stem1 (in-place)
I1025 13:39:56.321133 13868 net.cpp:150] Setting up stem1/relu
I1025 13:39:56.321142 13868 net.cpp:157] Top shape: 16 32 150 150 (11520000)
I1025 13:39:56.321144 13868 net.cpp:165] Memory required for data: 322560416
I1025 13:39:56.321147 13868 layer_factory.hpp:77] Creating layer stem1_stem1/relu_0_split
I1025 13:39:56.321151 13868 net.cpp:100] Creating Layer stem1_stem1/relu_0_split
I1025 13:39:56.321154 13868 net.cpp:434] stem1_stem1/relu_0_split <- stem1
I1025 13:39:56.321158 13868 net.cpp:408] stem1_stem1/relu_0_split -> stem1_stem1/relu_0_split_0
I1025 13:39:56.321162 13868 net.cpp:408] stem1_stem1/relu_0_split -> stem1_stem1/relu_0_split_1
I1025 13:39:56.321185 13868 net.cpp:150] Setting up stem1_stem1/relu_0_split
I1025 13:39:56.321189 13868 net.cpp:157] Top shape: 16 32 150 150 (11520000)
I1025 13:39:56.321192 13868 net.cpp:157] Top shape: 16 32 150 150 (11520000)
I1025 13:39:56.321194 13868 net.cpp:165] Memory required for data: 414720416
I1025 13:39:56.321197 13868 layer_factory.hpp:77] Creating layer stem2a
I1025 13:39:56.321203 13868 net.cpp:100] Creating Layer stem2a
I1025 13:39:56.321207 13868 net.cpp:434] stem2a <- stem1_stem1/relu_0_split_0
I1025 13:39:56.321210 13868 net.cpp:408] stem2a -> stem2a
I1025 13:39:56.322669 13868 net.cpp:150] Setting up stem2a
I1025 13:39:56.322676 13868 net.cpp:157] Top shape: 16 16 150 150 (5760000)
I1025 13:39:56.322679 13868 net.cpp:165] Memory required for data: 437760416
I1025 13:39:56.322695 13868 layer_factory.hpp:77] Creating layer stem2a/bn
I1025 13:39:56.322702 13868 net.cpp:100] Creating Layer stem2a/bn
I1025 13:39:56.322705 13868 net.cpp:434] stem2a/bn <- stem2a
I1025 13:39:56.322707 13868 net.cpp:395] stem2a/bn -> stem2a (in-place)
I1025 13:39:56.322820 13868 net.cpp:150] Setting up stem2a/bn
I1025 13:39:56.322824 13868 net.cpp:157] Top shape: 16 16 150 150 (5760000)
I1025 13:39:56.322826 13868 net.cpp:165] Memory required for data: 460800416
I1025 13:39:56.322834 13868 layer_factory.hpp:77] Creating layer stem2a/scale
I1025 13:39:56.322837 13868 net.cpp:100] Creating Layer stem2a/scale
I1025 13:39:56.322839 13868 net.cpp:434] stem2a/scale <- stem2a
I1025 13:39:56.322842 13868 net.cpp:395] stem2a/scale -> stem2a (in-place)
I1025 13:39:56.322863 13868 layer_factory.hpp:77] Creating layer stem2a/scale
I1025 13:39:56.322935 13868 net.cpp:150] Setting up stem2a/scale
I1025 13:39:56.322940 13868 net.cpp:157] Top shape: 16 16 150 150 (5760000)
I1025 13:39:56.322942 13868 net.cpp:165] Memory required for data: 483840416
I1025 13:39:56.322945 13868 layer_factory.hpp:77] Creating layer stem2a/relu
I1025 13:39:56.322948 13868 net.cpp:100] Creating Layer stem2a/relu
I1025 13:39:56.322950 13868 net.cpp:434] stem2a/relu <- stem2a
I1025 13:39:56.322954 13868 net.cpp:395] stem2a/relu -> stem2a (in-place)
I1025 13:39:56.323240 13868 net.cpp:150] Setting up stem2a/relu
I1025 13:39:56.323246 13868 net.cpp:157] Top shape: 16 16 150 150 (5760000)
I1025 13:39:56.323248 13868 net.cpp:165] Memory required for data: 506880416
I1025 13:39:56.323251 13868 layer_factory.hpp:77] Creating layer stem2b
I1025 13:39:56.323256 13868 net.cpp:100] Creating Layer stem2b
I1025 13:39:56.323259 13868 net.cpp:434] stem2b <- stem2a
I1025 13:39:56.323264 13868 net.cpp:408] stem2b -> stem2b
I1025 13:39:56.325357 13868 net.cpp:150] Setting up stem2b
I1025 13:39:56.325366 13868 net.cpp:157] Top shape: 16 32 75 75 (2880000)
I1025 13:39:56.325369 13868 net.cpp:165] Memory required for data: 518400416
I1025 13:39:56.325372 13868 layer_factory.hpp:77] Creating layer stem2b/bn
I1025 13:39:56.325376 13868 net.cpp:100] Creating Layer stem2b/bn
I1025 13:39:56.325379 13868 net.cpp:434] stem2b/bn <- stem2b
I1025 13:39:56.325384 13868 net.cpp:395] stem2b/bn -> stem2b (in-place)
I1025 13:39:56.325490 13868 net.cpp:150] Setting up stem2b/bn
I1025 13:39:56.325495 13868 net.cpp:157] Top shape: 16 32 75 75 (2880000)
I1025 13:39:56.325496 13868 net.cpp:165] Memory required for data: 529920416
I1025 13:39:56.325501 13868 layer_factory.hpp:77] Creating layer stem2b/scale
I1025 13:39:56.325506 13868 net.cpp:100] Creating Layer stem2b/scale
I1025 13:39:56.325508 13868 net.cpp:434] stem2b/scale <- stem2b
I1025 13:39:56.325511 13868 net.cpp:395] stem2b/scale -> stem2b (in-place)
I1025 13:39:56.325532 13868 layer_factory.hpp:77] Creating layer stem2b/scale
I1025 13:39:56.325595 13868 net.cpp:150] Setting up stem2b/scale
I1025 13:39:56.325599 13868 net.cpp:157] Top shape: 16 32 75 75 (2880000)
I1025 13:39:56.325601 13868 net.cpp:165] Memory required for data: 541440416
I1025 13:39:56.325608 13868 layer_factory.hpp:77] Creating layer stem2b/relu
I1025 13:39:56.325613 13868 net.cpp:100] Creating Layer stem2b/relu
I1025 13:39:56.325614 13868 net.cpp:434] stem2b/relu <- stem2b
I1025 13:39:56.325619 13868 net.cpp:395] stem2b/relu -> stem2b (in-place)
I1025 13:39:56.325989 13868 net.cpp:150] Setting up stem2b/relu
I1025 13:39:56.325996 13868 net.cpp:157] Top shape: 16 32 75 75 (2880000)
I1025 13:39:56.325999 13868 net.cpp:165] Memory required for data: 552960416
I1025 13:39:56.326002 13868 layer_factory.hpp:77] Creating layer stem/pool
I1025 13:39:56.326007 13868 net.cpp:100] Creating Layer stem/pool
I1025 13:39:56.326009 13868 net.cpp:434] stem/pool <- stem1_stem1/relu_0_split_1
I1025 13:39:56.326014 13868 net.cpp:408] stem/pool -> stem/pool
I1025 13:39:56.326045 13868 net.cpp:150] Setting up stem/pool
I1025 13:39:56.326050 13868 net.cpp:157] Top shape: 16 32 75 75 (2880000)
I1025 13:39:56.326052 13868 net.cpp:165] Memory required for data: 564480416
I1025 13:39:56.326063 13868 layer_factory.hpp:77] Creating layer stem/concat
I1025 13:39:56.326071 13868 net.cpp:100] Creating Layer stem/concat
I1025 13:39:56.326073 13868 net.cpp:434] stem/concat <- stem/pool
I1025 13:39:56.326076 13868 net.cpp:434] stem/concat <- stem2b
I1025 13:39:56.326081 13868 net.cpp:408] stem/concat -> stem/concat
I1025 13:39:56.326097 13868 net.cpp:150] Setting up stem/concat
I1025 13:39:56.326100 13868 net.cpp:157] Top shape: 16 64 75 75 (5760000)
I1025 13:39:56.326102 13868 net.cpp:165] Memory required for data: 587520416
I1025 13:39:56.326104 13868 layer_factory.hpp:77] Creating layer stem3
I1025 13:39:56.326110 13868 net.cpp:100] Creating Layer stem3
I1025 13:39:56.326113 13868 net.cpp:434] stem3 <- stem/concat
I1025 13:39:56.326118 13868 net.cpp:408] stem3 -> stem3
I1025 13:39:56.327484 13868 net.cpp:150] Setting up stem3
I1025 13:39:56.327493 13868 net.cpp:157] Top shape: 16 32 75 75 (2880000)
I1025 13:39:56.327497 13868 net.cpp:165] Memory required for data: 599040416
I1025 13:39:56.327500 13868 layer_factory.hpp:77] Creating layer stem3/bn
I1025 13:39:56.327505 13868 net.cpp:100] Creating Layer stem3/bn
I1025 13:39:56.327508 13868 net.cpp:434] stem3/bn <- stem3
I1025 13:39:56.327513 13868 net.cpp:395] stem3/bn -> stem3 (in-place)
I1025 13:39:56.327618 13868 net.cpp:150] Setting up stem3/bn
I1025 13:39:56.327623 13868 net.cpp:157] Top shape: 16 32 75 75 (2880000)
I1025 13:39:56.327625 13868 net.cpp:165] Memory required for data: 610560416
I1025 13:39:56.327630 13868 layer_factory.hpp:77] Creating layer stem3/scale
I1025 13:39:56.327636 13868 net.cpp:100] Creating Layer stem3/scale
I1025 13:39:56.327637 13868 net.cpp:434] stem3/scale <- stem3
I1025 13:39:56.327641 13868 net.cpp:395] stem3/scale -> stem3 (in-place)
I1025 13:39:56.327661 13868 layer_factory.hpp:77] Creating layer stem3/scale
I1025 13:39:56.327723 13868 net.cpp:150] Setting up stem3/scale
I1025 13:39:56.327728 13868 net.cpp:157] Top shape: 16 32 75 75 (2880000)
I1025 13:39:56.327730 13868 net.cpp:165] Memory required for data: 622080416
I1025 13:39:56.327734 13868 layer_factory.hpp:77] Creating layer stem3/relu
I1025 13:39:56.327738 13868 net.cpp:100] Creating Layer stem3/relu
I1025 13:39:56.327739 13868 net.cpp:434] stem3/relu <- stem3
I1025 13:39:56.327742 13868 net.cpp:395] stem3/relu -> stem3 (in-place)
I1025 13:39:56.328203 13868 net.cpp:150] Setting up stem3/relu
I1025 13:39:56.328210 13868 net.cpp:157] Top shape: 16 32 75 75 (2880000)
I1025 13:39:56.328213 13868 net.cpp:165] Memory required for data: 633600416
I1025 13:39:56.328215 13868 layer_factory.hpp:77] Creating layer stem3_stem3/relu_0_split
I1025 13:39:56.328222 13868 net.cpp:100] Creating Layer stem3_stem3/relu_0_split
I1025 13:39:56.328224 13868 net.cpp:434] stem3_stem3/relu_0_split <- stem3
I1025 13:39:56.328227 13868 net.cpp:408] stem3_stem3/relu_0_split -> stem3_stem3/relu_0_split_0
I1025 13:39:56.328233 13868 net.cpp:408] stem3_stem3/relu_0_split -> stem3_stem3/relu_0_split_1
I1025 13:39:56.328238 13868 net.cpp:408] stem3_stem3/relu_0_split -> stem3_stem3/relu_0_split_2
I1025 13:39:56.328269 13868 net.cpp:150] Setting up stem3_stem3/relu_0_split
I1025 13:39:56.328274 13868 net.cpp:157] Top shape: 16 32 75 75 (2880000)
I1025 13:39:56.328277 13868 net.cpp:157] Top shape: 16 32 75 75 (2880000)
I1025 13:39:56.328281 13868 net.cpp:157] Top shape: 16 32 75 75 (2880000)
I1025 13:39:56.328282 13868 net.cpp:165] Memory required for data: 668160416
I1025 13:39:56.328285 13868 layer_factory.hpp:77] Creating layer stage1_1/branch1a
I1025 13:39:56.328291 13868 net.cpp:100] Creating Layer stage1_1/branch1a
I1025 13:39:56.328295 13868 net.cpp:434] stage1_1/branch1a <- stem3_stem3/relu_0_split_0
I1025 13:39:56.328299 13868 net.cpp:408] stage1_1/branch1a -> stage1_1/branch1a
I1025 13:39:56.329663 13868 net.cpp:150] Setting up stage1_1/branch1a
I1025 13:39:56.329671 13868 net.cpp:157] Top shape: 16 16 75 75 (1440000)
I1025 13:39:56.329675 13868 net.cpp:165] Memory required for data: 673920416
I1025 13:39:56.329679 13868 layer_factory.hpp:77] Creating layer stage1_1/branch1a/bn
I1025 13:39:56.329692 13868 net.cpp:100] Creating Layer stage1_1/branch1a/bn
I1025 13:39:56.329695 13868 net.cpp:434] stage1_1/branch1a/bn <- stage1_1/branch1a
I1025 13:39:56.329700 13868 net.cpp:395] stage1_1/branch1a/bn -> stage1_1/branch1a (in-place)
I1025 13:39:56.329808 13868 net.cpp:150] Setting up stage1_1/branch1a/bn
I1025 13:39:56.329813 13868 net.cpp:157] Top shape: 16 16 75 75 (1440000)
I1025 13:39:56.329814 13868 net.cpp:165] Memory required for data: 679680416
I1025 13:39:56.329819 13868 layer_factory.hpp:77] Creating layer stage1_1/branch1a/scale
I1025 13:39:56.329823 13868 net.cpp:100] Creating Layer stage1_1/branch1a/scale
I1025 13:39:56.329826 13868 net.cpp:434] stage1_1/branch1a/scale <- stage1_1/branch1a
I1025 13:39:56.329829 13868 net.cpp:395] stage1_1/branch1a/scale -> stage1_1/branch1a (in-place)
I1025 13:39:56.329851 13868 layer_factory.hpp:77] Creating layer stage1_1/branch1a/scale
I1025 13:39:56.329915 13868 net.cpp:150] Setting up stage1_1/branch1a/scale
I1025 13:39:56.329921 13868 net.cpp:157] Top shape: 16 16 75 75 (1440000)
I1025 13:39:56.329922 13868 net.cpp:165] Memory required for data: 685440416
I1025 13:39:56.329926 13868 layer_factory.hpp:77] Creating layer stage1_1/branch1a/relu
I1025 13:39:56.329931 13868 net.cpp:100] Creating Layer stage1_1/branch1a/relu
I1025 13:39:56.329932 13868 net.cpp:434] stage1_1/branch1a/relu <- stage1_1/branch1a
I1025 13:39:56.329936 13868 net.cpp:395] stage1_1/branch1a/relu -> stage1_1/branch1a (in-place)
I1025 13:39:56.330955 13868 net.cpp:150] Setting up stage1_1/branch1a/relu
I1025 13:39:56.330965 13868 net.cpp:157] Top shape: 16 16 75 75 (1440000)
I1025 13:39:56.330967 13868 net.cpp:165] Memory required for data: 691200416
I1025 13:39:56.330971 13868 layer_factory.hpp:77] Creating layer stage1_1/branch1b
I1025 13:39:56.330977 13868 net.cpp:100] Creating Layer stage1_1/branch1b
I1025 13:39:56.330981 13868 net.cpp:434] stage1_1/branch1b <- stage1_1/branch1a
I1025 13:39:56.330986 13868 net.cpp:408] stage1_1/branch1b -> stage1_1/branch1b
I1025 13:39:56.332350 13868 net.cpp:150] Setting up stage1_1/branch1b
I1025 13:39:56.332361 13868 net.cpp:157] Top shape: 16 16 75 75 (1440000)
I1025 13:39:56.332365 13868 net.cpp:165] Memory required for data: 696960416
I1025 13:39:56.332367 13868 layer_factory.hpp:77] Creating layer stage1_1/branch1b/bn
I1025 13:39:56.332372 13868 net.cpp:100] Creating Layer stage1_1/branch1b/bn
I1025 13:39:56.332376 13868 net.cpp:434] stage1_1/branch1b/bn <- stage1_1/branch1b
I1025 13:39:56.332379 13868 net.cpp:395] stage1_1/branch1b/bn -> stage1_1/branch1b (in-place)
I1025 13:39:56.332490 13868 net.cpp:150] Setting up stage1_1/branch1b/bn
I1025 13:39:56.332494 13868 net.cpp:157] Top shape: 16 16 75 75 (1440000)
I1025 13:39:56.332497 13868 net.cpp:165] Memory required for data: 702720416
I1025 13:39:56.332504 13868 layer_factory.hpp:77] Creating layer stage1_1/branch1b/scale
I1025 13:39:56.332509 13868 net.cpp:100] Creating Layer stage1_1/branch1b/scale
I1025 13:39:56.332512 13868 net.cpp:434] stage1_1/branch1b/scale <- stage1_1/branch1b
I1025 13:39:56.332515 13868 net.cpp:395] stage1_1/branch1b/scale -> stage1_1/branch1b (in-place)
I1025 13:39:56.332536 13868 layer_factory.hpp:77] Creating layer stage1_1/branch1b/scale
I1025 13:39:56.332600 13868 net.cpp:150] Setting up stage1_1/branch1b/scale
I1025 13:39:56.332605 13868 net.cpp:157] Top shape: 16 16 75 75 (1440000)
I1025 13:39:56.332607 13868 net.cpp:165] Memory required for data: 708480416
I1025 13:39:56.332610 13868 layer_factory.hpp:77] Creating layer stage1_1/branch1b/relu
I1025 13:39:56.332614 13868 net.cpp:100] Creating Layer stage1_1/branch1b/relu
I1025 13:39:56.332617 13868 net.cpp:434] stage1_1/branch1b/relu <- stage1_1/branch1b
I1025 13:39:56.332620 13868 net.cpp:395] stage1_1/branch1b/relu -> stage1_1/branch1b (in-place)
I1025 13:39:56.332986 13868 net.cpp:150] Setting up stage1_1/branch1b/relu
I1025 13:39:56.332994 13868 net.cpp:157] Top shape: 16 16 75 75 (1440000)
I1025 13:39:56.332998 13868 net.cpp:165] Memory required for data: 714240416
I1025 13:39:56.333000 13868 layer_factory.hpp:77] Creating layer stage1_1/branch2a
I1025 13:39:56.333015 13868 net.cpp:100] Creating Layer stage1_1/branch2a
I1025 13:39:56.333019 13868 net.cpp:434] stage1_1/branch2a <- stem3_stem3/relu_0_split_1
I1025 13:39:56.333024 13868 net.cpp:408] stage1_1/branch2a -> stage1_1/branch2a
I1025 13:39:56.334462 13868 net.cpp:150] Setting up stage1_1/branch2a
I1025 13:39:56.334470 13868 net.cpp:157] Top shape: 16 16 75 75 (1440000)
I1025 13:39:56.334473 13868 net.cpp:165] Memory required for data: 720000416
I1025 13:39:56.334477 13868 layer_factory.hpp:77] Creating layer stage1_1/branch2a/bn
I1025 13:39:56.334482 13868 net.cpp:100] Creating Layer stage1_1/branch2a/bn
I1025 13:39:56.334486 13868 net.cpp:434] stage1_1/branch2a/bn <- stage1_1/branch2a
I1025 13:39:56.334491 13868 net.cpp:395] stage1_1/branch2a/bn -> stage1_1/branch2a (in-place)
I1025 13:39:56.334602 13868 net.cpp:150] Setting up stage1_1/branch2a/bn
I1025 13:39:56.334609 13868 net.cpp:157] Top shape: 16 16 75 75 (1440000)
I1025 13:39:56.334610 13868 net.cpp:165] Memory required for data: 725760416
I1025 13:39:56.334614 13868 layer_factory.hpp:77] Creating layer stage1_1/branch2a/scale
I1025 13:39:56.334622 13868 net.cpp:100] Creating Layer stage1_1/branch2a/scale
I1025 13:39:56.334625 13868 net.cpp:434] stage1_1/branch2a/scale <- stage1_1/branch2a
I1025 13:39:56.334628 13868 net.cpp:395] stage1_1/branch2a/scale -> stage1_1/branch2a (in-place)
I1025 13:39:56.334652 13868 layer_factory.hpp:77] Creating layer stage1_1/branch2a/scale
I1025 13:39:56.334717 13868 net.cpp:150] Setting up stage1_1/branch2a/scale
I1025 13:39:56.334723 13868 net.cpp:157] Top shape: 16 16 75 75 (1440000)
I1025 13:39:56.334724 13868 net.cpp:165] Memory required for data: 731520416
I1025 13:39:56.334728 13868 layer_factory.hpp:77] Creating layer stage1_1/branch2a/relu
I1025 13:39:56.334733 13868 net.cpp:100] Creating Layer stage1_1/branch2a/relu
I1025 13:39:56.334736 13868 net.cpp:434] stage1_1/branch2a/relu <- stage1_1/branch2a
I1025 13:39:56.334738 13868 net.cpp:395] stage1_1/branch2a/relu -> stage1_1/branch2a (in-place)
I1025 13:39:56.335019 13868 net.cpp:150] Setting up stage1_1/branch2a/relu
I1025 13:39:56.335026 13868 net.cpp:157] Top shape: 16 16 75 75 (1440000)
I1025 13:39:56.335031 13868 net.cpp:165] Memory required for data: 737280416
I1025 13:39:56.335032 13868 layer_factory.hpp:77] Creating layer stage1_1/branch2b
I1025 13:39:56.335038 13868 net.cpp:100] Creating Layer stage1_1/branch2b
I1025 13:39:56.335041 13868 net.cpp:434] stage1_1/branch2b <- stage1_1/branch2a
I1025 13:39:56.335045 13868 net.cpp:408] stage1_1/branch2b -> stage1_1/branch2b
I1025 13:39:56.337198 13868 net.cpp:150] Setting up stage1_1/branch2b
I1025 13:39:56.337206 13868 net.cpp:157] Top shape: 16 16 75 75 (1440000)
I1025 13:39:56.337208 13868 net.cpp:165] Memory required for data: 743040416
I1025 13:39:56.337213 13868 layer_factory.hpp:77] Creating layer stage1_1/branch2b/bn
I1025 13:39:56.337220 13868 net.cpp:100] Creating Layer stage1_1/branch2b/bn
I1025 13:39:56.337224 13868 net.cpp:434] stage1_1/branch2b/bn <- stage1_1/branch2b
I1025 13:39:56.337227 13868 net.cpp:395] stage1_1/branch2b/bn -> stage1_1/branch2b (in-place)
I1025 13:39:56.337338 13868 net.cpp:150] Setting up stage1_1/branch2b/bn
I1025 13:39:56.337342 13868 net.cpp:157] Top shape: 16 16 75 75 (1440000)
I1025 13:39:56.337344 13868 net.cpp:165] Memory required for data: 748800416
I1025 13:39:56.337349 13868 layer_factory.hpp:77] Creating layer stage1_1/branch2b/scale
I1025 13:39:56.337355 13868 net.cpp:100] Creating Layer stage1_1/branch2b/scale
I1025 13:39:56.337357 13868 net.cpp:434] stage1_1/branch2b/scale <- stage1_1/branch2b
I1025 13:39:56.337360 13868 net.cpp:395] stage1_1/branch2b/scale -> stage1_1/branch2b (in-place)
I1025 13:39:56.337383 13868 layer_factory.hpp:77] Creating layer stage1_1/branch2b/scale
I1025 13:39:56.337447 13868 net.cpp:150] Setting up stage1_1/branch2b/scale
I1025 13:39:56.337451 13868 net.cpp:157] Top shape: 16 16 75 75 (1440000)
I1025 13:39:56.337453 13868 net.cpp:165] Memory required for data: 754560416
I1025 13:39:56.337467 13868 layer_factory.hpp:77] Creating layer stage1_1/branch2b/relu
I1025 13:39:56.337472 13868 net.cpp:100] Creating Layer stage1_1/branch2b/relu
I1025 13:39:56.337474 13868 net.cpp:434] stage1_1/branch2b/relu <- stage1_1/branch2b
I1025 13:39:56.337478 13868 net.cpp:395] stage1_1/branch2b/relu -> stage1_1/branch2b (in-place)
I1025 13:39:56.337764 13868 net.cpp:150] Setting up stage1_1/branch2b/relu
I1025 13:39:56.337771 13868 net.cpp:157] Top shape: 16 16 75 75 (1440000)
I1025 13:39:56.337774 13868 net.cpp:165] Memory required for data: 760320416
I1025 13:39:56.337775 13868 layer_factory.hpp:77] Creating layer stage1_1/branch2c
I1025 13:39:56.337782 13868 net.cpp:100] Creating Layer stage1_1/branch2c
I1025 13:39:56.337785 13868 net.cpp:434] stage1_1/branch2c <- stage1_1/branch2b
I1025 13:39:56.337790 13868 net.cpp:408] stage1_1/branch2c -> stage1_1/branch2c
I1025 13:39:56.339391 13868 net.cpp:150] Setting up stage1_1/branch2c
I1025 13:39:56.339402 13868 net.cpp:157] Top shape: 16 16 75 75 (1440000)
I1025 13:39:56.339406 13868 net.cpp:165] Memory required for data: 766080416
I1025 13:39:56.339411 13868 layer_factory.hpp:77] Creating layer stage1_1/branch2c/bn
I1025 13:39:56.339418 13868 net.cpp:100] Creating Layer stage1_1/branch2c/bn
I1025 13:39:56.339422 13868 net.cpp:434] stage1_1/branch2c/bn <- stage1_1/branch2c
I1025 13:39:56.339429 13868 net.cpp:395] stage1_1/branch2c/bn -> stage1_1/branch2c (in-place)
I1025 13:39:56.339579 13868 net.cpp:150] Setting up stage1_1/branch2c/bn
I1025 13:39:56.339586 13868 net.cpp:157] Top shape: 16 16 75 75 (1440000)
I1025 13:39:56.339588 13868 net.cpp:165] Memory required for data: 771840416
I1025 13:39:56.339596 13868 layer_factory.hpp:77] Creating layer stage1_1/branch2c/scale
I1025 13:39:56.339601 13868 net.cpp:100] Creating Layer stage1_1/branch2c/scale
I1025 13:39:56.339604 13868 net.cpp:434] stage1_1/branch2c/scale <- stage1_1/branch2c
I1025 13:39:56.339610 13868 net.cpp:395] stage1_1/branch2c/scale -> stage1_1/branch2c (in-place)
I1025 13:39:56.339639 13868 layer_factory.hpp:77] Creating layer stage1_1/branch2c/scale
I1025 13:39:56.339727 13868 net.cpp:150] Setting up stage1_1/branch2c/scale
I1025 13:39:56.339735 13868 net.cpp:157] Top shape: 16 16 75 75 (1440000)
I1025 13:39:56.339738 13868 net.cpp:165] Memory required for data: 777600416
I1025 13:39:56.339745 13868 layer_factory.hpp:77] Creating layer stage1_1/branch2c/relu
I1025 13:39:56.339751 13868 net.cpp:100] Creating Layer stage1_1/branch2c/relu
I1025 13:39:56.339754 13868 net.cpp:434] stage1_1/branch2c/relu <- stage1_1/branch2c
I1025 13:39:56.339758 13868 net.cpp:395] stage1_1/branch2c/relu -> stage1_1/branch2c (in-place)
I1025 13:39:56.340225 13868 net.cpp:150] Setting up stage1_1/branch2c/relu
I1025 13:39:56.340234 13868 net.cpp:157] Top shape: 16 16 75 75 (1440000)
I1025 13:39:56.340235 13868 net.cpp:165] Memory required for data: 783360416
I1025 13:39:56.340239 13868 layer_factory.hpp:77] Creating layer stage1_1/concat
I1025 13:39:56.340243 13868 net.cpp:100] Creating Layer stage1_1/concat
I1025 13:39:56.340247 13868 net.cpp:434] stage1_1/concat <- stem3_stem3/relu_0_split_2
I1025 13:39:56.340250 13868 net.cpp:434] stage1_1/concat <- stage1_1/branch1b
I1025 13:39:56.340253 13868 net.cpp:434] stage1_1/concat <- stage1_1/branch2c
I1025 13:39:56.340258 13868 net.cpp:408] stage1_1/concat -> stage1_1/concat
I1025 13:39:56.340276 13868 net.cpp:150] Setting up stage1_1/concat
I1025 13:39:56.340281 13868 net.cpp:157] Top shape: 16 64 75 75 (5760000)
I1025 13:39:56.340283 13868 net.cpp:165] Memory required for data: 806400416
I1025 13:39:56.340286 13868 layer_factory.hpp:77] Creating layer stage1_1/concat_stage1_1/concat_0_split
I1025 13:39:56.340291 13868 net.cpp:100] Creating Layer stage1_1/concat_stage1_1/concat_0_split
I1025 13:39:56.340293 13868 net.cpp:434] stage1_1/concat_stage1_1/concat_0_split <- stage1_1/concat
I1025 13:39:56.340296 13868 net.cpp:408] stage1_1/concat_stage1_1/concat_0_split -> stage1_1/concat_stage1_1/concat_0_split_0
I1025 13:39:56.340302 13868 net.cpp:408] stage1_1/concat_stage1_1/concat_0_split -> stage1_1/concat_stage1_1/concat_0_split_1
I1025 13:39:56.340317 13868 net.cpp:408] stage1_1/concat_stage1_1/concat_0_split -> stage1_1/concat_stage1_1/concat_0_split_2
I1025 13:39:56.340344 13868 net.cpp:150] Setting up stage1_1/concat_stage1_1/concat_0_split
I1025 13:39:56.340349 13868 net.cpp:157] Top shape: 16 64 75 75 (5760000)
I1025 13:39:56.340353 13868 net.cpp:157] Top shape: 16 64 75 75 (5760000)
I1025 13:39:56.340354 13868 net.cpp:157] Top shape: 16 64 75 75 (5760000)
I1025 13:39:56.340356 13868 net.cpp:165] Memory required for data: 875520416
I1025 13:39:56.340358 13868 layer_factory.hpp:77] Creating layer stage1_2/branch1a
I1025 13:39:56.340366 13868 net.cpp:100] Creating Layer stage1_2/branch1a
I1025 13:39:56.340369 13868 net.cpp:434] stage1_2/branch1a <- stage1_1/concat_stage1_1/concat_0_split_0
I1025 13:39:56.340373 13868 net.cpp:408] stage1_2/branch1a -> stage1_2/branch1a
I1025 13:39:56.341881 13868 net.cpp:150] Setting up stage1_2/branch1a
I1025 13:39:56.341890 13868 net.cpp:157] Top shape: 16 16 75 75 (1440000)
I1025 13:39:56.341892 13868 net.cpp:165] Memory required for data: 881280416
I1025 13:39:56.341897 13868 layer_factory.hpp:77] Creating layer stage1_2/branch1a/bn
I1025 13:39:56.341902 13868 net.cpp:100] Creating Layer stage1_2/branch1a/bn
I1025 13:39:56.341907 13868 net.cpp:434] stage1_2/branch1a/bn <- stage1_2/branch1a
I1025 13:39:56.341909 13868 net.cpp:395] stage1_2/branch1a/bn -> stage1_2/branch1a (in-place)
I1025 13:39:56.342020 13868 net.cpp:150] Setting up stage1_2/branch1a/bn
I1025 13:39:56.342025 13868 net.cpp:157] Top shape: 16 16 75 75 (1440000)
I1025 13:39:56.342027 13868 net.cpp:165] Memory required for data: 887040416
I1025 13:39:56.342031 13868 layer_factory.hpp:77] Creating layer stage1_2/branch1a/scale
I1025 13:39:56.342036 13868 net.cpp:100] Creating Layer stage1_2/branch1a/scale
I1025 13:39:56.342038 13868 net.cpp:434] stage1_2/branch1a/scale <- stage1_2/branch1a
I1025 13:39:56.342042 13868 net.cpp:395] stage1_2/branch1a/scale -> stage1_2/branch1a (in-place)
I1025 13:39:56.342063 13868 layer_factory.hpp:77] Creating layer stage1_2/branch1a/scale
I1025 13:39:56.342128 13868 net.cpp:150] Setting up stage1_2/branch1a/scale
I1025 13:39:56.342133 13868 net.cpp:157] Top shape: 16 16 75 75 (1440000)
I1025 13:39:56.342135 13868 net.cpp:165] Memory required for data: 892800416
I1025 13:39:56.342139 13868 layer_factory.hpp:77] Creating layer stage1_2/branch1a/relu
I1025 13:39:56.342141 13868 net.cpp:100] Creating Layer stage1_2/branch1a/relu
I1025 13:39:56.342144 13868 net.cpp:434] stage1_2/branch1a/relu <- stage1_2/branch1a
I1025 13:39:56.342149 13868 net.cpp:395] stage1_2/branch1a/relu -> stage1_2/branch1a (in-place)
I1025 13:39:56.343298 13868 net.cpp:150] Setting up stage1_2/branch1a/relu
I1025 13:39:56.343308 13868 net.cpp:157] Top shape: 16 16 75 75 (1440000)
I1025 13:39:56.343310 13868 net.cpp:165] Memory required for data: 898560416
I1025 13:39:56.343313 13868 layer_factory.hpp:77] Creating layer stage1_2/branch1b
I1025 13:39:56.343320 13868 net.cpp:100] Creating Layer stage1_2/branch1b
I1025 13:39:56.343323 13868 net.cpp:434] stage1_2/branch1b <- stage1_2/branch1a
I1025 13:39:56.343329 13868 net.cpp:408] stage1_2/branch1b -> stage1_2/branch1b
I1025 13:39:56.344715 13868 net.cpp:150] Setting up stage1_2/branch1b
I1025 13:39:56.344724 13868 net.cpp:157] Top shape: 16 16 75 75 (1440000)
I1025 13:39:56.344727 13868 net.cpp:165] Memory required for data: 904320416
I1025 13:39:56.344729 13868 layer_factory.hpp:77] Creating layer stage1_2/branch1b/bn
I1025 13:39:56.344735 13868 net.cpp:100] Creating Layer stage1_2/branch1b/bn
I1025 13:39:56.344738 13868 net.cpp:434] stage1_2/branch1b/bn <- stage1_2/branch1b
I1025 13:39:56.344741 13868 net.cpp:395] stage1_2/branch1b/bn -> stage1_2/branch1b (in-place)
I1025 13:39:56.344851 13868 net.cpp:150] Setting up stage1_2/branch1b/bn
I1025 13:39:56.344856 13868 net.cpp:157] Top shape: 16 16 75 75 (1440000)
I1025 13:39:56.344857 13868 net.cpp:165] Memory required for data: 910080416
I1025 13:39:56.344861 13868 layer_factory.hpp:77] Creating layer stage1_2/branch1b/scale
I1025 13:39:56.344877 13868 net.cpp:100] Creating Layer stage1_2/branch1b/scale
I1025 13:39:56.344880 13868 net.cpp:434] stage1_2/branch1b/scale <- stage1_2/branch1b
I1025 13:39:56.344883 13868 net.cpp:395] stage1_2/branch1b/scale -> stage1_2/branch1b (in-place)
I1025 13:39:56.344905 13868 layer_factory.hpp:77] Creating layer stage1_2/branch1b/scale
I1025 13:39:56.344970 13868 net.cpp:150] Setting up stage1_2/branch1b/scale
I1025 13:39:56.344975 13868 net.cpp:157] Top shape: 16 16 75 75 (1440000)
I1025 13:39:56.344977 13868 net.cpp:165] Memory required for data: 915840416
I1025 13:39:56.344987 13868 layer_factory.hpp:77] Creating layer stage1_2/branch1b/relu
I1025 13:39:56.344991 13868 net.cpp:100] Creating Layer stage1_2/branch1b/relu
I1025 13:39:56.344993 13868 net.cpp:434] stage1_2/branch1b/relu <- stage1_2/branch1b
I1025 13:39:56.344996 13868 net.cpp:395] stage1_2/branch1b/relu -> stage1_2/branch1b (in-place)
I1025 13:39:56.345367 13868 net.cpp:150] Setting up stage1_2/branch1b/relu
I1025 13:39:56.345376 13868 net.cpp:157] Top shape: 16 16 75 75 (1440000)
I1025 13:39:56.345377 13868 net.cpp:165] Memory required for data: 921600416
I1025 13:39:56.345381 13868 layer_factory.hpp:77] Creating layer stage1_2/branch2a
I1025 13:39:56.345386 13868 net.cpp:100] Creating Layer stage1_2/branch2a
I1025 13:39:56.345388 13868 net.cpp:434] stage1_2/branch2a <- stage1_1/concat_stage1_1/concat_0_split_1
I1025 13:39:56.345394 13868 net.cpp:408] stage1_2/branch2a -> stage1_2/branch2a
I1025 13:39:56.346742 13868 net.cpp:150] Setting up stage1_2/branch2a
I1025 13:39:56.346750 13868 net.cpp:157] Top shape: 16 16 75 75 (1440000)
I1025 13:39:56.346752 13868 net.cpp:165] Memory required for data: 927360416
I1025 13:39:56.346756 13868 layer_factory.hpp:77] Creating layer stage1_2/branch2a/bn
I1025 13:39:56.346761 13868 net.cpp:100] Creating Layer stage1_2/branch2a/bn
I1025 13:39:56.346763 13868 net.cpp:434] stage1_2/branch2a/bn <- stage1_2/branch2a
I1025 13:39:56.346768 13868 net.cpp:395] stage1_2/branch2a/bn -> stage1_2/branch2a (in-place)
I1025 13:39:56.346877 13868 net.cpp:150] Setting up stage1_2/branch2a/bn
I1025 13:39:56.346882 13868 net.cpp:157] Top shape: 16 16 75 75 (1440000)
I1025 13:39:56.346884 13868 net.cpp:165] Memory required for data: 933120416
I1025 13:39:56.346889 13868 layer_factory.hpp:77] Creating layer stage1_2/branch2a/scale
I1025 13:39:56.346892 13868 net.cpp:100] Creating Layer stage1_2/branch2a/scale
I1025 13:39:56.346894 13868 net.cpp:434] stage1_2/branch2a/scale <- stage1_2/branch2a
I1025 13:39:56.346899 13868 net.cpp:395] stage1_2/branch2a/scale -> stage1_2/branch2a (in-place)
I1025 13:39:56.346918 13868 layer_factory.hpp:77] Creating layer stage1_2/branch2a/scale
I1025 13:39:56.346984 13868 net.cpp:150] Setting up stage1_2/branch2a/scale
I1025 13:39:56.346989 13868 net.cpp:157] Top shape: 16 16 75 75 (1440000)
I1025 13:39:56.346992 13868 net.cpp:165] Memory required for data: 938880416
I1025 13:39:56.346994 13868 layer_factory.hpp:77] Creating layer stage1_2/branch2a/relu
I1025 13:39:56.346997 13868 net.cpp:100] Creating Layer stage1_2/branch2a/relu
I1025 13:39:56.347000 13868 net.cpp:434] stage1_2/branch2a/relu <- stage1_2/branch2a
I1025 13:39:56.347004 13868 net.cpp:395] stage1_2/branch2a/relu -> stage1_2/branch2a (in-place)
I1025 13:39:56.347370 13868 net.cpp:150] Setting up stage1_2/branch2a/relu
I1025 13:39:56.347380 13868 net.cpp:157] Top shape: 16 16 75 75 (1440000)
I1025 13:39:56.347383 13868 net.cpp:165] Memory required for data: 944640416
I1025 13:39:56.347385 13868 layer_factory.hpp:77] Creating layer stage1_2/branch2b
I1025 13:39:56.347391 13868 net.cpp:100] Creating Layer stage1_2/branch2b
I1025 13:39:56.347393 13868 net.cpp:434] stage1_2/branch2b <- stage1_2/branch2a
I1025 13:39:56.347398 13868 net.cpp:408] stage1_2/branch2b -> stage1_2/branch2b
I1025 13:39:56.349520 13868 net.cpp:150] Setting up stage1_2/branch2b
I1025 13:39:56.349530 13868 net.cpp:157] Top shape: 16 16 75 75 (1440000)
I1025 13:39:56.349532 13868 net.cpp:165] Memory required for data: 950400416
I1025 13:39:56.349545 13868 layer_factory.hpp:77] Creating layer stage1_2/branch2b/bn
I1025 13:39:56.349550 13868 net.cpp:100] Creating Layer stage1_2/branch2b/bn
I1025 13:39:56.349553 13868 net.cpp:434] stage1_2/branch2b/bn <- stage1_2/branch2b
I1025 13:39:56.349556 13868 net.cpp:395] stage1_2/branch2b/bn -> stage1_2/branch2b (in-place)
I1025 13:39:56.349668 13868 net.cpp:150] Setting up stage1_2/branch2b/bn
I1025 13:39:56.349673 13868 net.cpp:157] Top shape: 16 16 75 75 (1440000)
I1025 13:39:56.349675 13868 net.cpp:165] Memory required for data: 956160416
I1025 13:39:56.349679 13868 layer_factory.hpp:77] Creating layer stage1_2/branch2b/scale
I1025 13:39:56.349684 13868 net.cpp:100] Creating Layer stage1_2/branch2b/scale
I1025 13:39:56.349685 13868 net.cpp:434] stage1_2/branch2b/scale <- stage1_2/branch2b
I1025 13:39:56.349689 13868 net.cpp:395] stage1_2/branch2b/scale -> stage1_2/branch2b (in-place)
I1025 13:39:56.349709 13868 layer_factory.hpp:77] Creating layer stage1_2/branch2b/scale
I1025 13:39:56.349776 13868 net.cpp:150] Setting up stage1_2/branch2b/scale
I1025 13:39:56.349779 13868 net.cpp:157] Top shape: 16 16 75 75 (1440000)
I1025 13:39:56.349781 13868 net.cpp:165] Memory required for data: 961920416
I1025 13:39:56.349786 13868 layer_factory.hpp:77] Creating layer stage1_2/branch2b/relu
I1025 13:39:56.349788 13868 net.cpp:100] Creating Layer stage1_2/branch2b/relu
I1025 13:39:56.349790 13868 net.cpp:434] stage1_2/branch2b/relu <- stage1_2/branch2b
I1025 13:39:56.349794 13868 net.cpp:395] stage1_2/branch2b/relu -> stage1_2/branch2b (in-place)
I1025 13:39:56.350072 13868 net.cpp:150] Setting up stage1_2/branch2b/relu
I1025 13:39:56.350080 13868 net.cpp:157] Top shape: 16 16 75 75 (1440000)
I1025 13:39:56.350082 13868 net.cpp:165] Memory required for data: 967680416
I1025 13:39:56.350085 13868 layer_factory.hpp:77] Creating layer stage1_2/branch2c
I1025 13:39:56.350090 13868 net.cpp:100] Creating Layer stage1_2/branch2c
I1025 13:39:56.350093 13868 net.cpp:434] stage1_2/branch2c <- stage1_2/branch2b
I1025 13:39:56.350097 13868 net.cpp:408] stage1_2/branch2c -> stage1_2/branch2c
I1025 13:39:56.351543 13868 net.cpp:150] Setting up stage1_2/branch2c
I1025 13:39:56.351552 13868 net.cpp:157] Top shape: 16 16 75 75 (1440000)
I1025 13:39:56.351554 13868 net.cpp:165] Memory required for data: 973440416
I1025 13:39:56.351558 13868 layer_factory.hpp:77] Creating layer stage1_2/branch2c/bn
I1025 13:39:56.351563 13868 net.cpp:100] Creating Layer stage1_2/branch2c/bn
I1025 13:39:56.351567 13868 net.cpp:434] stage1_2/branch2c/bn <- stage1_2/branch2c
I1025 13:39:56.351572 13868 net.cpp:395] stage1_2/branch2c/bn -> stage1_2/branch2c (in-place)
I1025 13:39:56.351680 13868 net.cpp:150] Setting up stage1_2/branch2c/bn
I1025 13:39:56.351685 13868 net.cpp:157] Top shape: 16 16 75 75 (1440000)
I1025 13:39:56.351686 13868 net.cpp:165] Memory required for data: 979200416
I1025 13:39:56.351691 13868 layer_factory.hpp:77] Creating layer stage1_2/branch2c/scale
I1025 13:39:56.351696 13868 net.cpp:100] Creating Layer stage1_2/branch2c/scale
I1025 13:39:56.351698 13868 net.cpp:434] stage1_2/branch2c/scale <- stage1_2/branch2c
I1025 13:39:56.351701 13868 net.cpp:395] stage1_2/branch2c/scale -> stage1_2/branch2c (in-place)
I1025 13:39:56.351722 13868 layer_factory.hpp:77] Creating layer stage1_2/branch2c/scale
I1025 13:39:56.351788 13868 net.cpp:150] Setting up stage1_2/branch2c/scale
I1025 13:39:56.351791 13868 net.cpp:157] Top shape: 16 16 75 75 (1440000)
I1025 13:39:56.351794 13868 net.cpp:165] Memory required for data: 984960416
I1025 13:39:56.351799 13868 layer_factory.hpp:77] Creating layer stage1_2/branch2c/relu
I1025 13:39:56.351804 13868 net.cpp:100] Creating Layer stage1_2/branch2c/relu
I1025 13:39:56.351806 13868 net.cpp:434] stage1_2/branch2c/relu <- stage1_2/branch2c
I1025 13:39:56.351809 13868 net.cpp:395] stage1_2/branch2c/relu -> stage1_2/branch2c (in-place)
I1025 13:39:56.352174 13868 net.cpp:150] Setting up stage1_2/branch2c/relu
I1025 13:39:56.352185 13868 net.cpp:157] Top shape: 16 16 75 75 (1440000)
I1025 13:39:56.352195 13868 net.cpp:165] Memory required for data: 990720416
I1025 13:39:56.352197 13868 layer_factory.hpp:77] Creating layer stage1_2/concat
I1025 13:39:56.352211 13868 net.cpp:100] Creating Layer stage1_2/concat
I1025 13:39:56.352214 13868 net.cpp:434] stage1_2/concat <- stage1_1/concat_stage1_1/concat_0_split_2
I1025 13:39:56.352217 13868 net.cpp:434] stage1_2/concat <- stage1_2/branch1b
I1025 13:39:56.352219 13868 net.cpp:434] stage1_2/concat <- stage1_2/branch2c
I1025 13:39:56.352223 13868 net.cpp:408] stage1_2/concat -> stage1_2/concat
I1025 13:39:56.352242 13868 net.cpp:150] Setting up stage1_2/concat
I1025 13:39:56.352246 13868 net.cpp:157] Top shape: 16 96 75 75 (8640000)
I1025 13:39:56.352248 13868 net.cpp:165] Memory required for data: 1025280416
I1025 13:39:56.352252 13868 layer_factory.hpp:77] Creating layer stage1_2/concat_stage1_2/concat_0_split
I1025 13:39:56.352257 13868 net.cpp:100] Creating Layer stage1_2/concat_stage1_2/concat_0_split
I1025 13:39:56.352258 13868 net.cpp:434] stage1_2/concat_stage1_2/concat_0_split <- stage1_2/concat
I1025 13:39:56.352262 13868 net.cpp:408] stage1_2/concat_stage1_2/concat_0_split -> stage1_2/concat_stage1_2/concat_0_split_0
I1025 13:39:56.352267 13868 net.cpp:408] stage1_2/concat_stage1_2/concat_0_split -> stage1_2/concat_stage1_2/concat_0_split_1
I1025 13:39:56.352270 13868 net.cpp:408] stage1_2/concat_stage1_2/concat_0_split -> stage1_2/concat_stage1_2/concat_0_split_2
I1025 13:39:56.352296 13868 net.cpp:150] Setting up stage1_2/concat_stage1_2/concat_0_split
I1025 13:39:56.352300 13868 net.cpp:157] Top shape: 16 96 75 75 (8640000)
I1025 13:39:56.352303 13868 net.cpp:157] Top shape: 16 96 75 75 (8640000)
I1025 13:39:56.352305 13868 net.cpp:157] Top shape: 16 96 75 75 (8640000)
I1025 13:39:56.352308 13868 net.cpp:165] Memory required for data: 1128960416
I1025 13:39:56.352309 13868 layer_factory.hpp:77] Creating layer stage1_3/branch1a
I1025 13:39:56.352315 13868 net.cpp:100] Creating Layer stage1_3/branch1a
I1025 13:39:56.352317 13868 net.cpp:434] stage1_3/branch1a <- stage1_2/concat_stage1_2/concat_0_split_0
I1025 13:39:56.352322 13868 net.cpp:408] stage1_3/branch1a -> stage1_3/branch1a
I1025 13:39:56.353688 13868 net.cpp:150] Setting up stage1_3/branch1a
I1025 13:39:56.353696 13868 net.cpp:157] Top shape: 16 16 75 75 (1440000)
I1025 13:39:56.353698 13868 net.cpp:165] Memory required for data: 1134720416
I1025 13:39:56.353701 13868 layer_factory.hpp:77] Creating layer stage1_3/branch1a/bn
I1025 13:39:56.353706 13868 net.cpp:100] Creating Layer stage1_3/branch1a/bn
I1025 13:39:56.353709 13868 net.cpp:434] stage1_3/branch1a/bn <- stage1_3/branch1a
I1025 13:39:56.353714 13868 net.cpp:395] stage1_3/branch1a/bn -> stage1_3/branch1a (in-place)
I1025 13:39:56.353826 13868 net.cpp:150] Setting up stage1_3/branch1a/bn
I1025 13:39:56.353829 13868 net.cpp:157] Top shape: 16 16 75 75 (1440000)
I1025 13:39:56.353832 13868 net.cpp:165] Memory required for data: 1140480416
I1025 13:39:56.353837 13868 layer_factory.hpp:77] Creating layer stage1_3/branch1a/scale
I1025 13:39:56.353842 13868 net.cpp:100] Creating Layer stage1_3/branch1a/scale
I1025 13:39:56.353843 13868 net.cpp:434] stage1_3/branch1a/scale <- stage1_3/branch1a
I1025 13:39:56.353847 13868 net.cpp:395] stage1_3/branch1a/scale -> stage1_3/branch1a (in-place)
I1025 13:39:56.353868 13868 layer_factory.hpp:77] Creating layer stage1_3/branch1a/scale
I1025 13:39:56.353932 13868 net.cpp:150] Setting up stage1_3/branch1a/scale
I1025 13:39:56.353937 13868 net.cpp:157] Top shape: 16 16 75 75 (1440000)
I1025 13:39:56.353940 13868 net.cpp:165] Memory required for data: 1146240416
I1025 13:39:56.353943 13868 layer_factory.hpp:77] Creating layer stage1_3/branch1a/relu
I1025 13:39:56.353947 13868 net.cpp:100] Creating Layer stage1_3/branch1a/relu
I1025 13:39:56.353950 13868 net.cpp:434] stage1_3/branch1a/relu <- stage1_3/branch1a
I1025 13:39:56.353955 13868 net.cpp:395] stage1_3/branch1a/relu -> stage1_3/branch1a (in-place)
I1025 13:39:56.355001 13868 net.cpp:150] Setting up stage1_3/branch1a/relu
I1025 13:39:56.355010 13868 net.cpp:157] Top shape: 16 16 75 75 (1440000)
I1025 13:39:56.355020 13868 net.cpp:165] Memory required for data: 1152000416
I1025 13:39:56.355023 13868 layer_factory.hpp:77] Creating layer stage1_3/branch1b
I1025 13:39:56.355032 13868 net.cpp:100] Creating Layer stage1_3/branch1b
I1025 13:39:56.355036 13868 net.cpp:434] stage1_3/branch1b <- stage1_3/branch1a
I1025 13:39:56.355039 13868 net.cpp:408] stage1_3/branch1b -> stage1_3/branch1b
I1025 13:39:56.356473 13868 net.cpp:150] Setting up stage1_3/branch1b
I1025 13:39:56.356482 13868 net.cpp:157] Top shape: 16 16 75 75 (1440000)
I1025 13:39:56.356485 13868 net.cpp:165] Memory required for data: 1157760416
I1025 13:39:56.356488 13868 layer_factory.hpp:77] Creating layer stage1_3/branch1b/bn
I1025 13:39:56.356495 13868 net.cpp:100] Creating Layer stage1_3/branch1b/bn
I1025 13:39:56.356498 13868 net.cpp:434] stage1_3/branch1b/bn <- stage1_3/branch1b
I1025 13:39:56.356503 13868 net.cpp:395] stage1_3/branch1b/bn -> stage1_3/branch1b (in-place)
I1025 13:39:56.356616 13868 net.cpp:150] Setting up stage1_3/branch1b/bn
I1025 13:39:56.356621 13868 net.cpp:157] Top shape: 16 16 75 75 (1440000)
I1025 13:39:56.356622 13868 net.cpp:165] Memory required for data: 1163520416
I1025 13:39:56.356626 13868 layer_factory.hpp:77] Creating layer stage1_3/branch1b/scale
I1025 13:39:56.356632 13868 net.cpp:100] Creating Layer stage1_3/branch1b/scale
I1025 13:39:56.356636 13868 net.cpp:434] stage1_3/branch1b/scale <- stage1_3/branch1b
I1025 13:39:56.356638 13868 net.cpp:395] stage1_3/branch1b/scale -> stage1_3/branch1b (in-place)
I1025 13:39:56.356662 13868 layer_factory.hpp:77] Creating layer stage1_3/branch1b/scale
I1025 13:39:56.356727 13868 net.cpp:150] Setting up stage1_3/branch1b/scale
I1025 13:39:56.356734 13868 net.cpp:157] Top shape: 16 16 75 75 (1440000)
I1025 13:39:56.356734 13868 net.cpp:165] Memory required for data: 1169280416
I1025 13:39:56.356739 13868 layer_factory.hpp:77] Creating layer stage1_3/branch1b/relu
I1025 13:39:56.356742 13868 net.cpp:100] Creating Layer stage1_3/branch1b/relu
I1025 13:39:56.356745 13868 net.cpp:434] stage1_3/branch1b/relu <- stage1_3/branch1b
I1025 13:39:56.356750 13868 net.cpp:395] stage1_3/branch1b/relu -> stage1_3/branch1b (in-place)
I1025 13:39:56.357116 13868 net.cpp:150] Setting up stage1_3/branch1b/relu
I1025 13:39:56.357123 13868 net.cpp:157] Top shape: 16 16 75 75 (1440000)
I1025 13:39:56.357127 13868 net.cpp:165] Memory required for data: 1175040416
I1025 13:39:56.357129 13868 layer_factory.hpp:77] Creating layer stage1_3/branch2a
I1025 13:39:56.357136 13868 net.cpp:100] Creating Layer stage1_3/branch2a
I1025 13:39:56.357138 13868 net.cpp:434] stage1_3/branch2a <- stage1_2/concat_stage1_2/concat_0_split_1
I1025 13:39:56.357144 13868 net.cpp:408] stage1_3/branch2a -> stage1_3/branch2a
I1025 13:39:56.358515 13868 net.cpp:150] Setting up stage1_3/branch2a
I1025 13:39:56.358525 13868 net.cpp:157] Top shape: 16 16 75 75 (1440000)
I1025 13:39:56.358526 13868 net.cpp:165] Memory required for data: 1180800416
I1025 13:39:56.358531 13868 layer_factory.hpp:77] Creating layer stage1_3/branch2a/bn
I1025 13:39:56.358536 13868 net.cpp:100] Creating Layer stage1_3/branch2a/bn
I1025 13:39:56.358539 13868 net.cpp:434] stage1_3/branch2a/bn <- stage1_3/branch2a
I1025 13:39:56.358544 13868 net.cpp:395] stage1_3/branch2a/bn -> stage1_3/branch2a (in-place)
I1025 13:39:56.358662 13868 net.cpp:150] Setting up stage1_3/branch2a/bn
I1025 13:39:56.358667 13868 net.cpp:157] Top shape: 16 16 75 75 (1440000)
I1025 13:39:56.358669 13868 net.cpp:165] Memory required for data: 1186560416
I1025 13:39:56.358673 13868 layer_factory.hpp:77] Creating layer stage1_3/branch2a/scale
I1025 13:39:56.358678 13868 net.cpp:100] Creating Layer stage1_3/branch2a/scale
I1025 13:39:56.358681 13868 net.cpp:434] stage1_3/branch2a/scale <- stage1_3/branch2a
I1025 13:39:56.358685 13868 net.cpp:395] stage1_3/branch2a/scale -> stage1_3/branch2a (in-place)
I1025 13:39:56.358705 13868 layer_factory.hpp:77] Creating layer stage1_3/branch2a/scale
I1025 13:39:56.358772 13868 net.cpp:150] Setting up stage1_3/branch2a/scale
I1025 13:39:56.358785 13868 net.cpp:157] Top shape: 16 16 75 75 (1440000)
I1025 13:39:56.358788 13868 net.cpp:165] Memory required for data: 1192320416
I1025 13:39:56.358791 13868 layer_factory.hpp:77] Creating layer stage1_3/branch2a/relu
I1025 13:39:56.358795 13868 net.cpp:100] Creating Layer stage1_3/branch2a/relu
I1025 13:39:56.358799 13868 net.cpp:434] stage1_3/branch2a/relu <- stage1_3/branch2a
I1025 13:39:56.358801 13868 net.cpp:395] stage1_3/branch2a/relu -> stage1_3/branch2a (in-place)
I1025 13:39:56.359174 13868 net.cpp:150] Setting up stage1_3/branch2a/relu
I1025 13:39:56.359182 13868 net.cpp:157] Top shape: 16 16 75 75 (1440000)
I1025 13:39:56.359184 13868 net.cpp:165] Memory required for data: 1198080416
I1025 13:39:56.359187 13868 layer_factory.hpp:77] Creating layer stage1_3/branch2b
I1025 13:39:56.359194 13868 net.cpp:100] Creating Layer stage1_3/branch2b
I1025 13:39:56.359199 13868 net.cpp:434] stage1_3/branch2b <- stage1_3/branch2a
I1025 13:39:56.359203 13868 net.cpp:408] stage1_3/branch2b -> stage1_3/branch2b
I1025 13:39:56.361354 13868 net.cpp:150] Setting up stage1_3/branch2b
I1025 13:39:56.361363 13868 net.cpp:157] Top shape: 16 16 75 75 (1440000)
I1025 13:39:56.361366 13868 net.cpp:165] Memory required for data: 1203840416
I1025 13:39:56.361369 13868 layer_factory.hpp:77] Creating layer stage1_3/branch2b/bn
I1025 13:39:56.361374 13868 net.cpp:100] Creating Layer stage1_3/branch2b/bn
I1025 13:39:56.361377 13868 net.cpp:434] stage1_3/branch2b/bn <- stage1_3/branch2b
I1025 13:39:56.361382 13868 net.cpp:395] stage1_3/branch2b/bn -> stage1_3/branch2b (in-place)
I1025 13:39:56.361493 13868 net.cpp:150] Setting up stage1_3/branch2b/bn
I1025 13:39:56.361498 13868 net.cpp:157] Top shape: 16 16 75 75 (1440000)
I1025 13:39:56.361500 13868 net.cpp:165] Memory required for data: 1209600416
I1025 13:39:56.361505 13868 layer_factory.hpp:77] Creating layer stage1_3/branch2b/scale
I1025 13:39:56.361510 13868 net.cpp:100] Creating Layer stage1_3/branch2b/scale
I1025 13:39:56.361512 13868 net.cpp:434] stage1_3/branch2b/scale <- stage1_3/branch2b
I1025 13:39:56.361515 13868 net.cpp:395] stage1_3/branch2b/scale -> stage1_3/branch2b (in-place)
I1025 13:39:56.361537 13868 layer_factory.hpp:77] Creating layer stage1_3/branch2b/scale
I1025 13:39:56.361995 13868 net.cpp:150] Setting up stage1_3/branch2b/scale
I1025 13:39:56.362004 13868 net.cpp:157] Top shape: 16 16 75 75 (1440000)
I1025 13:39:56.362005 13868 net.cpp:165] Memory required for data: 1215360416
I1025 13:39:56.362010 13868 layer_factory.hpp:77] Creating layer stage1_3/branch2b/relu
I1025 13:39:56.362015 13868 net.cpp:100] Creating Layer stage1_3/branch2b/relu
I1025 13:39:56.362017 13868 net.cpp:434] stage1_3/branch2b/relu <- stage1_3/branch2b
I1025 13:39:56.362020 13868 net.cpp:395] stage1_3/branch2b/relu -> stage1_3/branch2b (in-place)
I1025 13:39:56.362306 13868 net.cpp:150] Setting up stage1_3/branch2b/relu
I1025 13:39:56.362313 13868 net.cpp:157] Top shape: 16 16 75 75 (1440000)
I1025 13:39:56.362316 13868 net.cpp:165] Memory required for data: 1221120416
I1025 13:39:56.362318 13868 layer_factory.hpp:77] Creating layer stage1_3/branch2c
I1025 13:39:56.362325 13868 net.cpp:100] Creating Layer stage1_3/branch2c
I1025 13:39:56.362327 13868 net.cpp:434] stage1_3/branch2c <- stage1_3/branch2b
I1025 13:39:56.362331 13868 net.cpp:408] stage1_3/branch2c -> stage1_3/branch2c
I1025 13:39:56.363808 13868 net.cpp:150] Setting up stage1_3/branch2c
I1025 13:39:56.363817 13868 net.cpp:157] Top shape: 16 16 75 75 (1440000)
I1025 13:39:56.363819 13868 net.cpp:165] Memory required for data: 1226880416
I1025 13:39:56.363822 13868 layer_factory.hpp:77] Creating layer stage1_3/branch2c/bn
I1025 13:39:56.363828 13868 net.cpp:100] Creating Layer stage1_3/branch2c/bn
I1025 13:39:56.363831 13868 net.cpp:434] stage1_3/branch2c/bn <- stage1_3/branch2c
I1025 13:39:56.363835 13868 net.cpp:395] stage1_3/branch2c/bn -> stage1_3/branch2c (in-place)
I1025 13:39:56.363950 13868 net.cpp:150] Setting up stage1_3/branch2c/bn
I1025 13:39:56.363955 13868 net.cpp:157] Top shape: 16 16 75 75 (1440000)
I1025 13:39:56.363966 13868 net.cpp:165] Memory required for data: 1232640416
I1025 13:39:56.363971 13868 layer_factory.hpp:77] Creating layer stage1_3/branch2c/scale
I1025 13:39:56.363976 13868 net.cpp:100] Creating Layer stage1_3/branch2c/scale
I1025 13:39:56.363977 13868 net.cpp:434] stage1_3/branch2c/scale <- stage1_3/branch2c
I1025 13:39:56.363981 13868 net.cpp:395] stage1_3/branch2c/scale -> stage1_3/branch2c (in-place)
I1025 13:39:56.364006 13868 layer_factory.hpp:77] Creating layer stage1_3/branch2c/scale
I1025 13:39:56.364074 13868 net.cpp:150] Setting up stage1_3/branch2c/scale
I1025 13:39:56.364079 13868 net.cpp:157] Top shape: 16 16 75 75 (1440000)
I1025 13:39:56.364081 13868 net.cpp:165] Memory required for data: 1238400416
I1025 13:39:56.364084 13868 layer_factory.hpp:77] Creating layer stage1_3/branch2c/relu
I1025 13:39:56.364087 13868 net.cpp:100] Creating Layer stage1_3/branch2c/relu
I1025 13:39:56.364090 13868 net.cpp:434] stage1_3/branch2c/relu <- stage1_3/branch2c
I1025 13:39:56.364094 13868 net.cpp:395] stage1_3/branch2c/relu -> stage1_3/branch2c (in-place)
I1025 13:39:56.364462 13868 net.cpp:150] Setting up stage1_3/branch2c/relu
I1025 13:39:56.364470 13868 net.cpp:157] Top shape: 16 16 75 75 (1440000)
I1025 13:39:56.364471 13868 net.cpp:165] Memory required for data: 1244160416
I1025 13:39:56.364475 13868 layer_factory.hpp:77] Creating layer stage1_3/concat
I1025 13:39:56.364478 13868 net.cpp:100] Creating Layer stage1_3/concat
I1025 13:39:56.364481 13868 net.cpp:434] stage1_3/concat <- stage1_2/concat_stage1_2/concat_0_split_2
I1025 13:39:56.364485 13868 net.cpp:434] stage1_3/concat <- stage1_3/branch1b
I1025 13:39:56.364488 13868 net.cpp:434] stage1_3/concat <- stage1_3/branch2c
I1025 13:39:56.364491 13868 net.cpp:408] stage1_3/concat -> stage1_3/concat
I1025 13:39:56.364509 13868 net.cpp:150] Setting up stage1_3/concat
I1025 13:39:56.364513 13868 net.cpp:157] Top shape: 16 128 75 75 (11520000)
I1025 13:39:56.364516 13868 net.cpp:165] Memory required for data: 1290240416
I1025 13:39:56.364517 13868 layer_factory.hpp:77] Creating layer stage1_tb
I1025 13:39:56.364523 13868 net.cpp:100] Creating Layer stage1_tb
I1025 13:39:56.364526 13868 net.cpp:434] stage1_tb <- stage1_3/concat
I1025 13:39:56.364529 13868 net.cpp:408] stage1_tb -> stage1_tb
I1025 13:39:56.365932 13868 net.cpp:150] Setting up stage1_tb
I1025 13:39:56.365942 13868 net.cpp:157] Top shape: 16 128 75 75 (11520000)
I1025 13:39:56.365943 13868 net.cpp:165] Memory required for data: 1336320416
I1025 13:39:56.365947 13868 layer_factory.hpp:77] Creating layer stage1_tb/bn
I1025 13:39:56.365952 13868 net.cpp:100] Creating Layer stage1_tb/bn
I1025 13:39:56.365954 13868 net.cpp:434] stage1_tb/bn <- stage1_tb
I1025 13:39:56.365959 13868 net.cpp:395] stage1_tb/bn -> stage1_tb (in-place)
I1025 13:39:56.366066 13868 net.cpp:150] Setting up stage1_tb/bn
I1025 13:39:56.366071 13868 net.cpp:157] Top shape: 16 128 75 75 (11520000)
I1025 13:39:56.366073 13868 net.cpp:165] Memory required for data: 1382400416
I1025 13:39:56.366077 13868 layer_factory.hpp:77] Creating layer stage1_tb/scale
I1025 13:39:56.366081 13868 net.cpp:100] Creating Layer stage1_tb/scale
I1025 13:39:56.366083 13868 net.cpp:434] stage1_tb/scale <- stage1_tb
I1025 13:39:56.366086 13868 net.cpp:395] stage1_tb/scale -> stage1_tb (in-place)
I1025 13:39:56.366107 13868 layer_factory.hpp:77] Creating layer stage1_tb/scale
I1025 13:39:56.366170 13868 net.cpp:150] Setting up stage1_tb/scale
I1025 13:39:56.366175 13868 net.cpp:157] Top shape: 16 128 75 75 (11520000)
I1025 13:39:56.366178 13868 net.cpp:165] Memory required for data: 1428480416
I1025 13:39:56.366180 13868 layer_factory.hpp:77] Creating layer stage1_tb/relu
I1025 13:39:56.366183 13868 net.cpp:100] Creating Layer stage1_tb/relu
I1025 13:39:56.366185 13868 net.cpp:434] stage1_tb/relu <- stage1_tb
I1025 13:39:56.366189 13868 net.cpp:395] stage1_tb/relu -> stage1_tb (in-place)
I1025 13:39:56.367305 13868 net.cpp:150] Setting up stage1_tb/relu
I1025 13:39:56.367316 13868 net.cpp:157] Top shape: 16 128 75 75 (11520000)
I1025 13:39:56.367327 13868 net.cpp:165] Memory required for data: 1474560416
I1025 13:39:56.367331 13868 layer_factory.hpp:77] Creating layer stage1_tb/pool
I1025 13:39:56.367336 13868 net.cpp:100] Creating Layer stage1_tb/pool
I1025 13:39:56.367337 13868 net.cpp:434] stage1_tb/pool <- stage1_tb
I1025 13:39:56.367342 13868 net.cpp:408] stage1_tb/pool -> stage1_tb/pool
I1025 13:39:56.367647 13868 net.cpp:150] Setting up stage1_tb/pool
I1025 13:39:56.367655 13868 net.cpp:157] Top shape: 16 128 38 38 (2957312)
I1025 13:39:56.367656 13868 net.cpp:165] Memory required for data: 1486389664
I1025 13:39:56.367660 13868 layer_factory.hpp:77] Creating layer stage1_tb/pool_stage1_tb/pool_0_split
I1025 13:39:56.367664 13868 net.cpp:100] Creating Layer stage1_tb/pool_stage1_tb/pool_0_split
I1025 13:39:56.367666 13868 net.cpp:434] stage1_tb/pool_stage1_tb/pool_0_split <- stage1_tb/pool
I1025 13:39:56.367671 13868 net.cpp:408] stage1_tb/pool_stage1_tb/pool_0_split -> stage1_tb/pool_stage1_tb/pool_0_split_0
I1025 13:39:56.367676 13868 net.cpp:408] stage1_tb/pool_stage1_tb/pool_0_split -> stage1_tb/pool_stage1_tb/pool_0_split_1
I1025 13:39:56.367679 13868 net.cpp:408] stage1_tb/pool_stage1_tb/pool_0_split -> stage1_tb/pool_stage1_tb/pool_0_split_2
I1025 13:39:56.367708 13868 net.cpp:150] Setting up stage1_tb/pool_stage1_tb/pool_0_split
I1025 13:39:56.367713 13868 net.cpp:157] Top shape: 16 128 38 38 (2957312)
I1025 13:39:56.367717 13868 net.cpp:157] Top shape: 16 128 38 38 (2957312)
I1025 13:39:56.367718 13868 net.cpp:157] Top shape: 16 128 38 38 (2957312)
I1025 13:39:56.367720 13868 net.cpp:165] Memory required for data: 1521877408
I1025 13:39:56.367722 13868 layer_factory.hpp:77] Creating layer stage2_1/branch1a
I1025 13:39:56.367728 13868 net.cpp:100] Creating Layer stage2_1/branch1a
I1025 13:39:56.367732 13868 net.cpp:434] stage2_1/branch1a <- stage1_tb/pool_stage1_tb/pool_0_split_0
I1025 13:39:56.367735 13868 net.cpp:408] stage2_1/branch1a -> stage2_1/branch1a
I1025 13:39:56.369191 13868 net.cpp:150] Setting up stage2_1/branch1a
I1025 13:39:56.369199 13868 net.cpp:157] Top shape: 16 32 38 38 (739328)
I1025 13:39:56.369202 13868 net.cpp:165] Memory required for data: 1524834720
I1025 13:39:56.369205 13868 layer_factory.hpp:77] Creating layer stage2_1/branch1a/bn
I1025 13:39:56.369211 13868 net.cpp:100] Creating Layer stage2_1/branch1a/bn
I1025 13:39:56.369215 13868 net.cpp:434] stage2_1/branch1a/bn <- stage2_1/branch1a
I1025 13:39:56.369218 13868 net.cpp:395] stage2_1/branch1a/bn -> stage2_1/branch1a (in-place)
I1025 13:39:56.369343 13868 net.cpp:150] Setting up stage2_1/branch1a/bn
I1025 13:39:56.369346 13868 net.cpp:157] Top shape: 16 32 38 38 (739328)
I1025 13:39:56.369349 13868 net.cpp:165] Memory required for data: 1527792032
I1025 13:39:56.369354 13868 layer_factory.hpp:77] Creating layer stage2_1/branch1a/scale
I1025 13:39:56.369357 13868 net.cpp:100] Creating Layer stage2_1/branch1a/scale
I1025 13:39:56.369360 13868 net.cpp:434] stage2_1/branch1a/scale <- stage2_1/branch1a
I1025 13:39:56.369364 13868 net.cpp:395] stage2_1/branch1a/scale -> stage2_1/branch1a (in-place)
I1025 13:39:56.369386 13868 layer_factory.hpp:77] Creating layer stage2_1/branch1a/scale
I1025 13:39:56.369453 13868 net.cpp:150] Setting up stage2_1/branch1a/scale
I1025 13:39:56.369457 13868 net.cpp:157] Top shape: 16 32 38 38 (739328)
I1025 13:39:56.369460 13868 net.cpp:165] Memory required for data: 1530749344
I1025 13:39:56.369463 13868 layer_factory.hpp:77] Creating layer stage2_1/branch1a/relu
I1025 13:39:56.369467 13868 net.cpp:100] Creating Layer stage2_1/branch1a/relu
I1025 13:39:56.369469 13868 net.cpp:434] stage2_1/branch1a/relu <- stage2_1/branch1a
I1025 13:39:56.369472 13868 net.cpp:395] stage2_1/branch1a/relu -> stage2_1/branch1a (in-place)
I1025 13:39:56.369843 13868 net.cpp:150] Setting up stage2_1/branch1a/relu
I1025 13:39:56.369851 13868 net.cpp:157] Top shape: 16 32 38 38 (739328)
I1025 13:39:56.369853 13868 net.cpp:165] Memory required for data: 1533706656
I1025 13:39:56.369856 13868 layer_factory.hpp:77] Creating layer stage2_1/branch1b
I1025 13:39:56.369870 13868 net.cpp:100] Creating Layer stage2_1/branch1b
I1025 13:39:56.369873 13868 net.cpp:434] stage2_1/branch1b <- stage2_1/branch1a
I1025 13:39:56.369879 13868 net.cpp:408] stage2_1/branch1b -> stage2_1/branch1b
I1025 13:39:56.371327 13868 net.cpp:150] Setting up stage2_1/branch1b
I1025 13:39:56.371336 13868 net.cpp:157] Top shape: 16 16 38 38 (369664)
I1025 13:39:56.371338 13868 net.cpp:165] Memory required for data: 1535185312
I1025 13:39:56.371342 13868 layer_factory.hpp:77] Creating layer stage2_1/branch1b/bn
I1025 13:39:56.371346 13868 net.cpp:100] Creating Layer stage2_1/branch1b/bn
I1025 13:39:56.371349 13868 net.cpp:434] stage2_1/branch1b/bn <- stage2_1/branch1b
I1025 13:39:56.371353 13868 net.cpp:395] stage2_1/branch1b/bn -> stage2_1/branch1b (in-place)
I1025 13:39:56.371470 13868 net.cpp:150] Setting up stage2_1/branch1b/bn
I1025 13:39:56.371475 13868 net.cpp:157] Top shape: 16 16 38 38 (369664)
I1025 13:39:56.371477 13868 net.cpp:165] Memory required for data: 1536663968
I1025 13:39:56.371492 13868 layer_factory.hpp:77] Creating layer stage2_1/branch1b/scale
I1025 13:39:56.371496 13868 net.cpp:100] Creating Layer stage2_1/branch1b/scale
I1025 13:39:56.371500 13868 net.cpp:434] stage2_1/branch1b/scale <- stage2_1/branch1b
I1025 13:39:56.371503 13868 net.cpp:395] stage2_1/branch1b/scale -> stage2_1/branch1b (in-place)
I1025 13:39:56.371526 13868 layer_factory.hpp:77] Creating layer stage2_1/branch1b/scale
I1025 13:39:56.371592 13868 net.cpp:150] Setting up stage2_1/branch1b/scale
I1025 13:39:56.371598 13868 net.cpp:157] Top shape: 16 16 38 38 (369664)
I1025 13:39:56.371599 13868 net.cpp:165] Memory required for data: 1538142624
I1025 13:39:56.371603 13868 layer_factory.hpp:77] Creating layer stage2_1/branch1b/relu
I1025 13:39:56.371606 13868 net.cpp:100] Creating Layer stage2_1/branch1b/relu
I1025 13:39:56.371609 13868 net.cpp:434] stage2_1/branch1b/relu <- stage2_1/branch1b
I1025 13:39:56.371613 13868 net.cpp:395] stage2_1/branch1b/relu -> stage2_1/branch1b (in-place)
I1025 13:39:56.371987 13868 net.cpp:150] Setting up stage2_1/branch1b/relu
I1025 13:39:56.371995 13868 net.cpp:157] Top shape: 16 16 38 38 (369664)
I1025 13:39:56.371999 13868 net.cpp:165] Memory required for data: 1539621280
I1025 13:39:56.372001 13868 layer_factory.hpp:77] Creating layer stage2_1/branch2a
I1025 13:39:56.372009 13868 net.cpp:100] Creating Layer stage2_1/branch2a
I1025 13:39:56.372012 13868 net.cpp:434] stage2_1/branch2a <- stage1_tb/pool_stage1_tb/pool_0_split_1
I1025 13:39:56.372017 13868 net.cpp:408] stage2_1/branch2a -> stage2_1/branch2a
I1025 13:39:56.374400 13868 net.cpp:150] Setting up stage2_1/branch2a
I1025 13:39:56.374411 13868 net.cpp:157] Top shape: 16 32 38 38 (739328)
I1025 13:39:56.374415 13868 net.cpp:165] Memory required for data: 1542578592
I1025 13:39:56.374421 13868 layer_factory.hpp:77] Creating layer stage2_1/branch2a/bn
I1025 13:39:56.374429 13868 net.cpp:100] Creating Layer stage2_1/branch2a/bn
I1025 13:39:56.374433 13868 net.cpp:434] stage2_1/branch2a/bn <- stage2_1/branch2a
I1025 13:39:56.374440 13868 net.cpp:395] stage2_1/branch2a/bn -> stage2_1/branch2a (in-place)
I1025 13:39:56.374616 13868 net.cpp:150] Setting up stage2_1/branch2a/bn
I1025 13:39:56.374624 13868 net.cpp:157] Top shape: 16 32 38 38 (739328)
I1025 13:39:56.374626 13868 net.cpp:165] Memory required for data: 1545535904
I1025 13:39:56.374634 13868 layer_factory.hpp:77] Creating layer stage2_1/branch2a/scale
I1025 13:39:56.374641 13868 net.cpp:100] Creating Layer stage2_1/branch2a/scale
I1025 13:39:56.374645 13868 net.cpp:434] stage2_1/branch2a/scale <- stage2_1/branch2a
I1025 13:39:56.374650 13868 net.cpp:395] stage2_1/branch2a/scale -> stage2_1/branch2a (in-place)
I1025 13:39:56.374683 13868 layer_factory.hpp:77] Creating layer stage2_1/branch2a/scale
I1025 13:39:56.374780 13868 net.cpp:150] Setting up stage2_1/branch2a/scale
I1025 13:39:56.374788 13868 net.cpp:157] Top shape: 16 32 38 38 (739328)
I1025 13:39:56.374790 13868 net.cpp:165] Memory required for data: 1548493216
I1025 13:39:56.374795 13868 layer_factory.hpp:77] Creating layer stage2_1/branch2a/relu
I1025 13:39:56.374816 13868 net.cpp:100] Creating Layer stage2_1/branch2a/relu
I1025 13:39:56.374820 13868 net.cpp:434] stage2_1/branch2a/relu <- stage2_1/branch2a
I1025 13:39:56.374824 13868 net.cpp:395] stage2_1/branch2a/relu -> stage2_1/branch2a (in-place)
I1025 13:39:56.375226 13868 net.cpp:150] Setting up stage2_1/branch2a/relu
I1025 13:39:56.375236 13868 net.cpp:157] Top shape: 16 32 38 38 (739328)
I1025 13:39:56.375239 13868 net.cpp:165] Memory required for data: 1551450528
I1025 13:39:56.375241 13868 layer_factory.hpp:77] Creating layer stage2_1/branch2b
I1025 13:39:56.375248 13868 net.cpp:100] Creating Layer stage2_1/branch2b
I1025 13:39:56.375252 13868 net.cpp:434] stage2_1/branch2b <- stage2_1/branch2a
I1025 13:39:56.375257 13868 net.cpp:408] stage2_1/branch2b -> stage2_1/branch2b
I1025 13:39:56.376719 13868 net.cpp:150] Setting up stage2_1/branch2b
I1025 13:39:56.376730 13868 net.cpp:157] Top shape: 16 16 38 38 (369664)
I1025 13:39:56.376734 13868 net.cpp:165] Memory required for data: 1552929184
I1025 13:39:56.376737 13868 layer_factory.hpp:77] Creating layer stage2_1/branch2b/bn
I1025 13:39:56.376742 13868 net.cpp:100] Creating Layer stage2_1/branch2b/bn
I1025 13:39:56.376744 13868 net.cpp:434] stage2_1/branch2b/bn <- stage2_1/branch2b
I1025 13:39:56.376749 13868 net.cpp:395] stage2_1/branch2b/bn -> stage2_1/branch2b (in-place)
I1025 13:39:56.376869 13868 net.cpp:150] Setting up stage2_1/branch2b/bn
I1025 13:39:56.376874 13868 net.cpp:157] Top shape: 16 16 38 38 (369664)
I1025 13:39:56.376875 13868 net.cpp:165] Memory required for data: 1554407840
I1025 13:39:56.376880 13868 layer_factory.hpp:77] Creating layer stage2_1/branch2b/scale
I1025 13:39:56.376884 13868 net.cpp:100] Creating Layer stage2_1/branch2b/scale
I1025 13:39:56.376888 13868 net.cpp:434] stage2_1/branch2b/scale <- stage2_1/branch2b
I1025 13:39:56.376889 13868 net.cpp:395] stage2_1/branch2b/scale -> stage2_1/branch2b (in-place)
I1025 13:39:56.376914 13868 layer_factory.hpp:77] Creating layer stage2_1/branch2b/scale
I1025 13:39:56.376981 13868 net.cpp:150] Setting up stage2_1/branch2b/scale
I1025 13:39:56.376986 13868 net.cpp:157] Top shape: 16 16 38 38 (369664)
I1025 13:39:56.376987 13868 net.cpp:165] Memory required for data: 1555886496
I1025 13:39:56.376991 13868 layer_factory.hpp:77] Creating layer stage2_1/branch2b/relu
I1025 13:39:56.376996 13868 net.cpp:100] Creating Layer stage2_1/branch2b/relu
I1025 13:39:56.376998 13868 net.cpp:434] stage2_1/branch2b/relu <- stage2_1/branch2b
I1025 13:39:56.377001 13868 net.cpp:395] stage2_1/branch2b/relu -> stage2_1/branch2b (in-place)
I1025 13:39:56.377377 13868 net.cpp:150] Setting up stage2_1/branch2b/relu
I1025 13:39:56.377385 13868 net.cpp:157] Top shape: 16 16 38 38 (369664)
I1025 13:39:56.377388 13868 net.cpp:165] Memory required for data: 1557365152
I1025 13:39:56.377389 13868 layer_factory.hpp:77] Creating layer stage2_1/branch2c
I1025 13:39:56.377398 13868 net.cpp:100] Creating Layer stage2_1/branch2c
I1025 13:39:56.377400 13868 net.cpp:434] stage2_1/branch2c <- stage2_1/branch2b
I1025 13:39:56.377405 13868 net.cpp:408] stage2_1/branch2c -> stage2_1/branch2c
I1025 13:39:56.379621 13868 net.cpp:150] Setting up stage2_1/branch2c
I1025 13:39:56.379631 13868 net.cpp:157] Top shape: 16 16 38 38 (369664)
I1025 13:39:56.379632 13868 net.cpp:165] Memory required for data: 1558843808
I1025 13:39:56.379635 13868 layer_factory.hpp:77] Creating layer stage2_1/branch2c/bn
I1025 13:39:56.379642 13868 net.cpp:100] Creating Layer stage2_1/branch2c/bn
I1025 13:39:56.379647 13868 net.cpp:434] stage2_1/branch2c/bn <- stage2_1/branch2c
I1025 13:39:56.379652 13868 net.cpp:395] stage2_1/branch2c/bn -> stage2_1/branch2c (in-place)
I1025 13:39:56.379770 13868 net.cpp:150] Setting up stage2_1/branch2c/bn
I1025 13:39:56.379773 13868 net.cpp:157] Top shape: 16 16 38 38 (369664)
I1025 13:39:56.379776 13868 net.cpp:165] Memory required for data: 1560322464
I1025 13:39:56.379781 13868 layer_factory.hpp:77] Creating layer stage2_1/branch2c/scale
I1025 13:39:56.379786 13868 net.cpp:100] Creating Layer stage2_1/branch2c/scale
I1025 13:39:56.379799 13868 net.cpp:434] stage2_1/branch2c/scale <- stage2_1/branch2c
I1025 13:39:56.379803 13868 net.cpp:395] stage2_1/branch2c/scale -> stage2_1/branch2c (in-place)
I1025 13:39:56.379827 13868 layer_factory.hpp:77] Creating layer stage2_1/branch2c/scale
I1025 13:39:56.379892 13868 net.cpp:150] Setting up stage2_1/branch2c/scale
I1025 13:39:56.379896 13868 net.cpp:157] Top shape: 16 16 38 38 (369664)
I1025 13:39:56.379899 13868 net.cpp:165] Memory required for data: 1561801120
I1025 13:39:56.379902 13868 layer_factory.hpp:77] Creating layer stage2_1/branch2c/relu
I1025 13:39:56.379909 13868 net.cpp:100] Creating Layer stage2_1/branch2c/relu
I1025 13:39:56.379911 13868 net.cpp:434] stage2_1/branch2c/relu <- stage2_1/branch2c
I1025 13:39:56.379915 13868 net.cpp:395] stage2_1/branch2c/relu -> stage2_1/branch2c (in-place)
I1025 13:39:56.380199 13868 net.cpp:150] Setting up stage2_1/branch2c/relu
I1025 13:39:56.380206 13868 net.cpp:157] Top shape: 16 16 38 38 (369664)
I1025 13:39:56.380208 13868 net.cpp:165] Memory required for data: 1563279776
I1025 13:39:56.380211 13868 layer_factory.hpp:77] Creating layer stage2_1/concat
I1025 13:39:56.380215 13868 net.cpp:100] Creating Layer stage2_1/concat
I1025 13:39:56.380218 13868 net.cpp:434] stage2_1/concat <- stage1_tb/pool_stage1_tb/pool_0_split_2
I1025 13:39:56.380221 13868 net.cpp:434] stage2_1/concat <- stage2_1/branch1b
I1025 13:39:56.380224 13868 net.cpp:434] stage2_1/concat <- stage2_1/branch2c
I1025 13:39:56.380228 13868 net.cpp:408] stage2_1/concat -> stage2_1/concat
I1025 13:39:56.380245 13868 net.cpp:150] Setting up stage2_1/concat
I1025 13:39:56.380250 13868 net.cpp:157] Top shape: 16 160 38 38 (3696640)
I1025 13:39:56.380254 13868 net.cpp:165] Memory required for data: 1578066336
I1025 13:39:56.380256 13868 layer_factory.hpp:77] Creating layer stage2_1/concat_stage2_1/concat_0_split
I1025 13:39:56.380259 13868 net.cpp:100] Creating Layer stage2_1/concat_stage2_1/concat_0_split
I1025 13:39:56.380262 13868 net.cpp:434] stage2_1/concat_stage2_1/concat_0_split <- stage2_1/concat
I1025 13:39:56.380265 13868 net.cpp:408] stage2_1/concat_stage2_1/concat_0_split -> stage2_1/concat_stage2_1/concat_0_split_0
I1025 13:39:56.380271 13868 net.cpp:408] stage2_1/concat_stage2_1/concat_0_split -> stage2_1/concat_stage2_1/concat_0_split_1
I1025 13:39:56.380275 13868 net.cpp:408] stage2_1/concat_stage2_1/concat_0_split -> stage2_1/concat_stage2_1/concat_0_split_2
I1025 13:39:56.380304 13868 net.cpp:150] Setting up stage2_1/concat_stage2_1/concat_0_split
I1025 13:39:56.380311 13868 net.cpp:157] Top shape: 16 160 38 38 (3696640)
I1025 13:39:56.380312 13868 net.cpp:157] Top shape: 16 160 38 38 (3696640)
I1025 13:39:56.380316 13868 net.cpp:157] Top shape: 16 160 38 38 (3696640)
I1025 13:39:56.380316 13868 net.cpp:165] Memory required for data: 1622426016
I1025 13:39:56.380319 13868 layer_factory.hpp:77] Creating layer stage2_2/branch1a
I1025 13:39:56.380326 13868 net.cpp:100] Creating Layer stage2_2/branch1a
I1025 13:39:56.380328 13868 net.cpp:434] stage2_2/branch1a <- stage2_1/concat_stage2_1/concat_0_split_0
I1025 13:39:56.380331 13868 net.cpp:408] stage2_2/branch1a -> stage2_2/branch1a
I1025 13:39:56.381803 13868 net.cpp:150] Setting up stage2_2/branch1a
I1025 13:39:56.381811 13868 net.cpp:157] Top shape: 16 32 38 38 (739328)
I1025 13:39:56.381814 13868 net.cpp:165] Memory required for data: 1625383328
I1025 13:39:56.381817 13868 layer_factory.hpp:77] Creating layer stage2_2/branch1a/bn
I1025 13:39:56.381824 13868 net.cpp:100] Creating Layer stage2_2/branch1a/bn
I1025 13:39:56.381827 13868 net.cpp:434] stage2_2/branch1a/bn <- stage2_2/branch1a
I1025 13:39:56.381830 13868 net.cpp:395] stage2_2/branch1a/bn -> stage2_2/branch1a (in-place)
I1025 13:39:56.381952 13868 net.cpp:150] Setting up stage2_2/branch1a/bn
I1025 13:39:56.381956 13868 net.cpp:157] Top shape: 16 32 38 38 (739328)
I1025 13:39:56.381958 13868 net.cpp:165] Memory required for data: 1628340640
I1025 13:39:56.381963 13868 layer_factory.hpp:77] Creating layer stage2_2/branch1a/scale
I1025 13:39:56.381975 13868 net.cpp:100] Creating Layer stage2_2/branch1a/scale
I1025 13:39:56.381979 13868 net.cpp:434] stage2_2/branch1a/scale <- stage2_2/branch1a
I1025 13:39:56.381983 13868 net.cpp:395] stage2_2/branch1a/scale -> stage2_2/branch1a (in-place)
I1025 13:39:56.382006 13868 layer_factory.hpp:77] Creating layer stage2_2/branch1a/scale
I1025 13:39:56.382076 13868 net.cpp:150] Setting up stage2_2/branch1a/scale
I1025 13:39:56.382081 13868 net.cpp:157] Top shape: 16 32 38 38 (739328)
I1025 13:39:56.382083 13868 net.cpp:165] Memory required for data: 1631297952
I1025 13:39:56.382087 13868 layer_factory.hpp:77] Creating layer stage2_2/branch1a/relu
I1025 13:39:56.382091 13868 net.cpp:100] Creating Layer stage2_2/branch1a/relu
I1025 13:39:56.382094 13868 net.cpp:434] stage2_2/branch1a/relu <- stage2_2/branch1a
I1025 13:39:56.382097 13868 net.cpp:395] stage2_2/branch1a/relu -> stage2_2/branch1a (in-place)
I1025 13:39:56.382472 13868 net.cpp:150] Setting up stage2_2/branch1a/relu
I1025 13:39:56.382479 13868 net.cpp:157] Top shape: 16 32 38 38 (739328)
I1025 13:39:56.382483 13868 net.cpp:165] Memory required for data: 1634255264
I1025 13:39:56.382486 13868 layer_factory.hpp:77] Creating layer stage2_2/branch1b
I1025 13:39:56.382493 13868 net.cpp:100] Creating Layer stage2_2/branch1b
I1025 13:39:56.382495 13868 net.cpp:434] stage2_2/branch1b <- stage2_2/branch1a
I1025 13:39:56.382500 13868 net.cpp:408] stage2_2/branch1b -> stage2_2/branch1b
I1025 13:39:56.383874 13868 net.cpp:150] Setting up stage2_2/branch1b
I1025 13:39:56.383884 13868 net.cpp:157] Top shape: 16 16 38 38 (369664)
I1025 13:39:56.383886 13868 net.cpp:165] Memory required for data: 1635733920
I1025 13:39:56.383891 13868 layer_factory.hpp:77] Creating layer stage2_2/branch1b/bn
I1025 13:39:56.383896 13868 net.cpp:100] Creating Layer stage2_2/branch1b/bn
I1025 13:39:56.383899 13868 net.cpp:434] stage2_2/branch1b/bn <- stage2_2/branch1b
I1025 13:39:56.383903 13868 net.cpp:395] stage2_2/branch1b/bn -> stage2_2/branch1b (in-place)
I1025 13:39:56.384024 13868 net.cpp:150] Setting up stage2_2/branch1b/bn
I1025 13:39:56.384029 13868 net.cpp:157] Top shape: 16 16 38 38 (369664)
I1025 13:39:56.384032 13868 net.cpp:165] Memory required for data: 1637212576
I1025 13:39:56.384035 13868 layer_factory.hpp:77] Creating layer stage2_2/branch1b/scale
I1025 13:39:56.384040 13868 net.cpp:100] Creating Layer stage2_2/branch1b/scale
I1025 13:39:56.384043 13868 net.cpp:434] stage2_2/branch1b/scale <- stage2_2/branch1b
I1025 13:39:56.384045 13868 net.cpp:395] stage2_2/branch1b/scale -> stage2_2/branch1b (in-place)
I1025 13:39:56.384068 13868 layer_factory.hpp:77] Creating layer stage2_2/branch1b/scale
I1025 13:39:56.384136 13868 net.cpp:150] Setting up stage2_2/branch1b/scale
I1025 13:39:56.384141 13868 net.cpp:157] Top shape: 16 16 38 38 (369664)
I1025 13:39:56.384143 13868 net.cpp:165] Memory required for data: 1638691232
I1025 13:39:56.384146 13868 layer_factory.hpp:77] Creating layer stage2_2/branch1b/relu
I1025 13:39:56.384152 13868 net.cpp:100] Creating Layer stage2_2/branch1b/relu
I1025 13:39:56.384155 13868 net.cpp:434] stage2_2/branch1b/relu <- stage2_2/branch1b
I1025 13:39:56.384157 13868 net.cpp:395] stage2_2/branch1b/relu -> stage2_2/branch1b (in-place)
I1025 13:39:56.384526 13868 net.cpp:150] Setting up stage2_2/branch1b/relu
I1025 13:39:56.384536 13868 net.cpp:157] Top shape: 16 16 38 38 (369664)
I1025 13:39:56.384537 13868 net.cpp:165] Memory required for data: 1640169888
I1025 13:39:56.384539 13868 layer_factory.hpp:77] Creating layer stage2_2/branch2a
I1025 13:39:56.384546 13868 net.cpp:100] Creating Layer stage2_2/branch2a
I1025 13:39:56.384548 13868 net.cpp:434] stage2_2/branch2a <- stage2_1/concat_stage2_1/concat_0_split_1
I1025 13:39:56.384553 13868 net.cpp:408] stage2_2/branch2a -> stage2_2/branch2a
I1025 13:39:56.386811 13868 net.cpp:150] Setting up stage2_2/branch2a
I1025 13:39:56.386821 13868 net.cpp:157] Top shape: 16 32 38 38 (739328)
I1025 13:39:56.386823 13868 net.cpp:165] Memory required for data: 1643127200
I1025 13:39:56.386837 13868 layer_factory.hpp:77] Creating layer stage2_2/branch2a/bn
I1025 13:39:56.386842 13868 net.cpp:100] Creating Layer stage2_2/branch2a/bn
I1025 13:39:56.386843 13868 net.cpp:434] stage2_2/branch2a/bn <- stage2_2/branch2a
I1025 13:39:56.386849 13868 net.cpp:395] stage2_2/branch2a/bn -> stage2_2/branch2a (in-place)
I1025 13:39:56.386972 13868 net.cpp:150] Setting up stage2_2/branch2a/bn
I1025 13:39:56.386977 13868 net.cpp:157] Top shape: 16 32 38 38 (739328)
I1025 13:39:56.386978 13868 net.cpp:165] Memory required for data: 1646084512
I1025 13:39:56.386983 13868 layer_factory.hpp:77] Creating layer stage2_2/branch2a/scale
I1025 13:39:56.386987 13868 net.cpp:100] Creating Layer stage2_2/branch2a/scale
I1025 13:39:56.386991 13868 net.cpp:434] stage2_2/branch2a/scale <- stage2_2/branch2a
I1025 13:39:56.386993 13868 net.cpp:395] stage2_2/branch2a/scale -> stage2_2/branch2a (in-place)
I1025 13:39:56.387017 13868 layer_factory.hpp:77] Creating layer stage2_2/branch2a/scale
I1025 13:39:56.387089 13868 net.cpp:150] Setting up stage2_2/branch2a/scale
I1025 13:39:56.387092 13868 net.cpp:157] Top shape: 16 32 38 38 (739328)
I1025 13:39:56.387094 13868 net.cpp:165] Memory required for data: 1649041824
I1025 13:39:56.387099 13868 layer_factory.hpp:77] Creating layer stage2_2/branch2a/relu
I1025 13:39:56.387101 13868 net.cpp:100] Creating Layer stage2_2/branch2a/relu
I1025 13:39:56.387104 13868 net.cpp:434] stage2_2/branch2a/relu <- stage2_2/branch2a
I1025 13:39:56.387109 13868 net.cpp:395] stage2_2/branch2a/relu -> stage2_2/branch2a (in-place)
I1025 13:39:56.387495 13868 net.cpp:150] Setting up stage2_2/branch2a/relu
I1025 13:39:56.387502 13868 net.cpp:157] Top shape: 16 32 38 38 (739328)
I1025 13:39:56.387504 13868 net.cpp:165] Memory required for data: 1651999136
I1025 13:39:56.387507 13868 layer_factory.hpp:77] Creating layer stage2_2/branch2b
I1025 13:39:56.387514 13868 net.cpp:100] Creating Layer stage2_2/branch2b
I1025 13:39:56.387517 13868 net.cpp:434] stage2_2/branch2b <- stage2_2/branch2a
I1025 13:39:56.387522 13868 net.cpp:408] stage2_2/branch2b -> stage2_2/branch2b
I1025 13:39:56.388906 13868 net.cpp:150] Setting up stage2_2/branch2b
I1025 13:39:56.388916 13868 net.cpp:157] Top shape: 16 16 38 38 (369664)
I1025 13:39:56.388917 13868 net.cpp:165] Memory required for data: 1653477792
I1025 13:39:56.388921 13868 layer_factory.hpp:77] Creating layer stage2_2/branch2b/bn
I1025 13:39:56.388947 13868 net.cpp:100] Creating Layer stage2_2/branch2b/bn
I1025 13:39:56.388950 13868 net.cpp:434] stage2_2/branch2b/bn <- stage2_2/branch2b
I1025 13:39:56.388954 13868 net.cpp:395] stage2_2/branch2b/bn -> stage2_2/branch2b (in-place)
I1025 13:39:56.389072 13868 net.cpp:150] Setting up stage2_2/branch2b/bn
I1025 13:39:56.389077 13868 net.cpp:157] Top shape: 16 16 38 38 (369664)
I1025 13:39:56.389080 13868 net.cpp:165] Memory required for data: 1654956448
I1025 13:39:56.389084 13868 layer_factory.hpp:77] Creating layer stage2_2/branch2b/scale
I1025 13:39:56.389088 13868 net.cpp:100] Creating Layer stage2_2/branch2b/scale
I1025 13:39:56.389091 13868 net.cpp:434] stage2_2/branch2b/scale <- stage2_2/branch2b
I1025 13:39:56.389094 13868 net.cpp:395] stage2_2/branch2b/scale -> stage2_2/branch2b (in-place)
I1025 13:39:56.389117 13868 layer_factory.hpp:77] Creating layer stage2_2/branch2b/scale
I1025 13:39:56.389185 13868 net.cpp:150] Setting up stage2_2/branch2b/scale
I1025 13:39:56.389190 13868 net.cpp:157] Top shape: 16 16 38 38 (369664)
I1025 13:39:56.389194 13868 net.cpp:165] Memory required for data: 1656435104
I1025 13:39:56.389196 13868 layer_factory.hpp:77] Creating layer stage2_2/branch2b/relu
I1025 13:39:56.389199 13868 net.cpp:100] Creating Layer stage2_2/branch2b/relu
I1025 13:39:56.389201 13868 net.cpp:434] stage2_2/branch2b/relu <- stage2_2/branch2b
I1025 13:39:56.389205 13868 net.cpp:395] stage2_2/branch2b/relu -> stage2_2/branch2b (in-place)
I1025 13:39:56.389580 13868 net.cpp:150] Setting up stage2_2/branch2b/relu
I1025 13:39:56.389587 13868 net.cpp:157] Top shape: 16 16 38 38 (369664)
I1025 13:39:56.389590 13868 net.cpp:165] Memory required for data: 1657913760
I1025 13:39:56.389600 13868 layer_factory.hpp:77] Creating layer stage2_2/branch2c
I1025 13:39:56.389607 13868 net.cpp:100] Creating Layer stage2_2/branch2c
I1025 13:39:56.389611 13868 net.cpp:434] stage2_2/branch2c <- stage2_2/branch2b
I1025 13:39:56.389616 13868 net.cpp:408] stage2_2/branch2c -> stage2_2/branch2c
I1025 13:39:56.391867 13868 net.cpp:150] Setting up stage2_2/branch2c
I1025 13:39:56.391877 13868 net.cpp:157] Top shape: 16 16 38 38 (369664)
I1025 13:39:56.391880 13868 net.cpp:165] Memory required for data: 1659392416
I1025 13:39:56.391883 13868 layer_factory.hpp:77] Creating layer stage2_2/branch2c/bn
I1025 13:39:56.391888 13868 net.cpp:100] Creating Layer stage2_2/branch2c/bn
I1025 13:39:56.391891 13868 net.cpp:434] stage2_2/branch2c/bn <- stage2_2/branch2c
I1025 13:39:56.391896 13868 net.cpp:395] stage2_2/branch2c/bn -> stage2_2/branch2c (in-place)
I1025 13:39:56.392017 13868 net.cpp:150] Setting up stage2_2/branch2c/bn
I1025 13:39:56.392022 13868 net.cpp:157] Top shape: 16 16 38 38 (369664)
I1025 13:39:56.392024 13868 net.cpp:165] Memory required for data: 1660871072
I1025 13:39:56.392029 13868 layer_factory.hpp:77] Creating layer stage2_2/branch2c/scale
I1025 13:39:56.392033 13868 net.cpp:100] Creating Layer stage2_2/branch2c/scale
I1025 13:39:56.392036 13868 net.cpp:434] stage2_2/branch2c/scale <- stage2_2/branch2c
I1025 13:39:56.392040 13868 net.cpp:395] stage2_2/branch2c/scale -> stage2_2/branch2c (in-place)
I1025 13:39:56.392061 13868 layer_factory.hpp:77] Creating layer stage2_2/branch2c/scale
I1025 13:39:56.392127 13868 net.cpp:150] Setting up stage2_2/branch2c/scale
I1025 13:39:56.392133 13868 net.cpp:157] Top shape: 16 16 38 38 (369664)
I1025 13:39:56.392134 13868 net.cpp:165] Memory required for data: 1662349728
I1025 13:39:56.392138 13868 layer_factory.hpp:77] Creating layer stage2_2/branch2c/relu
I1025 13:39:56.392143 13868 net.cpp:100] Creating Layer stage2_2/branch2c/relu
I1025 13:39:56.392145 13868 net.cpp:434] stage2_2/branch2c/relu <- stage2_2/branch2c
I1025 13:39:56.392148 13868 net.cpp:395] stage2_2/branch2c/relu -> stage2_2/branch2c (in-place)
I1025 13:39:56.392433 13868 net.cpp:150] Setting up stage2_2/branch2c/relu
I1025 13:39:56.392441 13868 net.cpp:157] Top shape: 16 16 38 38 (369664)
I1025 13:39:56.392442 13868 net.cpp:165] Memory required for data: 1663828384
I1025 13:39:56.392444 13868 layer_factory.hpp:77] Creating layer stage2_2/concat
I1025 13:39:56.392448 13868 net.cpp:100] Creating Layer stage2_2/concat
I1025 13:39:56.392452 13868 net.cpp:434] stage2_2/concat <- stage2_1/concat_stage2_1/concat_0_split_2
I1025 13:39:56.392454 13868 net.cpp:434] stage2_2/concat <- stage2_2/branch1b
I1025 13:39:56.392457 13868 net.cpp:434] stage2_2/concat <- stage2_2/branch2c
I1025 13:39:56.392462 13868 net.cpp:408] stage2_2/concat -> stage2_2/concat
I1025 13:39:56.392479 13868 net.cpp:150] Setting up stage2_2/concat
I1025 13:39:56.392484 13868 net.cpp:157] Top shape: 16 192 38 38 (4435968)
I1025 13:39:56.392485 13868 net.cpp:165] Memory required for data: 1681572256
I1025 13:39:56.392488 13868 layer_factory.hpp:77] Creating layer stage2_2/concat_stage2_2/concat_0_split
I1025 13:39:56.392491 13868 net.cpp:100] Creating Layer stage2_2/concat_stage2_2/concat_0_split
I1025 13:39:56.392494 13868 net.cpp:434] stage2_2/concat_stage2_2/concat_0_split <- stage2_2/concat
I1025 13:39:56.392498 13868 net.cpp:408] stage2_2/concat_stage2_2/concat_0_split -> stage2_2/concat_stage2_2/concat_0_split_0
I1025 13:39:56.392513 13868 net.cpp:408] stage2_2/concat_stage2_2/concat_0_split -> stage2_2/concat_stage2_2/concat_0_split_1
I1025 13:39:56.392516 13868 net.cpp:408] stage2_2/concat_stage2_2/concat_0_split -> stage2_2/concat_stage2_2/concat_0_split_2
I1025 13:39:56.392545 13868 net.cpp:150] Setting up stage2_2/concat_stage2_2/concat_0_split
I1025 13:39:56.392550 13868 net.cpp:157] Top shape: 16 192 38 38 (4435968)
I1025 13:39:56.392554 13868 net.cpp:157] Top shape: 16 192 38 38 (4435968)
I1025 13:39:56.392555 13868 net.cpp:157] Top shape: 16 192 38 38 (4435968)
I1025 13:39:56.392565 13868 net.cpp:165] Memory required for data: 1734803872
I1025 13:39:56.392567 13868 layer_factory.hpp:77] Creating layer stage2_3/branch1a
I1025 13:39:56.392575 13868 net.cpp:100] Creating Layer stage2_3/branch1a
I1025 13:39:56.392576 13868 net.cpp:434] stage2_3/branch1a <- stage2_2/concat_stage2_2/concat_0_split_0
I1025 13:39:56.392580 13868 net.cpp:408] stage2_3/branch1a -> stage2_3/branch1a
I1025 13:39:56.394068 13868 net.cpp:150] Setting up stage2_3/branch1a
I1025 13:39:56.394076 13868 net.cpp:157] Top shape: 16 32 38 38 (739328)
I1025 13:39:56.394078 13868 net.cpp:165] Memory required for data: 1737761184
I1025 13:39:56.394083 13868 layer_factory.hpp:77] Creating layer stage2_3/branch1a/bn
I1025 13:39:56.394086 13868 net.cpp:100] Creating Layer stage2_3/branch1a/bn
I1025 13:39:56.394089 13868 net.cpp:434] stage2_3/branch1a/bn <- stage2_3/branch1a
I1025 13:39:56.394093 13868 net.cpp:395] stage2_3/branch1a/bn -> stage2_3/branch1a (in-place)
I1025 13:39:56.394217 13868 net.cpp:150] Setting up stage2_3/branch1a/bn
I1025 13:39:56.394222 13868 net.cpp:157] Top shape: 16 32 38 38 (739328)
I1025 13:39:56.394223 13868 net.cpp:165] Memory required for data: 1740718496
I1025 13:39:56.394227 13868 layer_factory.hpp:77] Creating layer stage2_3/branch1a/scale
I1025 13:39:56.394232 13868 net.cpp:100] Creating Layer stage2_3/branch1a/scale
I1025 13:39:56.394234 13868 net.cpp:434] stage2_3/branch1a/scale <- stage2_3/branch1a
I1025 13:39:56.394237 13868 net.cpp:395] stage2_3/branch1a/scale -> stage2_3/branch1a (in-place)
I1025 13:39:56.394261 13868 layer_factory.hpp:77] Creating layer stage2_3/branch1a/scale
I1025 13:39:56.394330 13868 net.cpp:150] Setting up stage2_3/branch1a/scale
I1025 13:39:56.394335 13868 net.cpp:157] Top shape: 16 32 38 38 (739328)
I1025 13:39:56.394337 13868 net.cpp:165] Memory required for data: 1743675808
I1025 13:39:56.394340 13868 layer_factory.hpp:77] Creating layer stage2_3/branch1a/relu
I1025 13:39:56.394345 13868 net.cpp:100] Creating Layer stage2_3/branch1a/relu
I1025 13:39:56.394348 13868 net.cpp:434] stage2_3/branch1a/relu <- stage2_3/branch1a
I1025 13:39:56.394352 13868 net.cpp:395] stage2_3/branch1a/relu -> stage2_3/branch1a (in-place)
I1025 13:39:56.394731 13868 net.cpp:150] Setting up stage2_3/branch1a/relu
I1025 13:39:56.394739 13868 net.cpp:157] Top shape: 16 32 38 38 (739328)
I1025 13:39:56.394742 13868 net.cpp:165] Memory required for data: 1746633120
I1025 13:39:56.394744 13868 layer_factory.hpp:77] Creating layer stage2_3/branch1b
I1025 13:39:56.394752 13868 net.cpp:100] Creating Layer stage2_3/branch1b
I1025 13:39:56.394754 13868 net.cpp:434] stage2_3/branch1b <- stage2_3/branch1a
I1025 13:39:56.394758 13868 net.cpp:408] stage2_3/branch1b -> stage2_3/branch1b
I1025 13:39:56.396142 13868 net.cpp:150] Setting up stage2_3/branch1b
I1025 13:39:56.396152 13868 net.cpp:157] Top shape: 16 16 38 38 (369664)
I1025 13:39:56.396155 13868 net.cpp:165] Memory required for data: 1748111776
I1025 13:39:56.396158 13868 layer_factory.hpp:77] Creating layer stage2_3/branch1b/bn
I1025 13:39:56.396162 13868 net.cpp:100] Creating Layer stage2_3/branch1b/bn
I1025 13:39:56.396164 13868 net.cpp:434] stage2_3/branch1b/bn <- stage2_3/branch1b
I1025 13:39:56.396168 13868 net.cpp:395] stage2_3/branch1b/bn -> stage2_3/branch1b (in-place)
I1025 13:39:56.396291 13868 net.cpp:150] Setting up stage2_3/branch1b/bn
I1025 13:39:56.396296 13868 net.cpp:157] Top shape: 16 16 38 38 (369664)
I1025 13:39:56.396297 13868 net.cpp:165] Memory required for data: 1749590432
I1025 13:39:56.396302 13868 layer_factory.hpp:77] Creating layer stage2_3/branch1b/scale
I1025 13:39:56.396306 13868 net.cpp:100] Creating Layer stage2_3/branch1b/scale
I1025 13:39:56.396307 13868 net.cpp:434] stage2_3/branch1b/scale <- stage2_3/branch1b
I1025 13:39:56.396311 13868 net.cpp:395] stage2_3/branch1b/scale -> stage2_3/branch1b (in-place)
I1025 13:39:56.396334 13868 layer_factory.hpp:77] Creating layer stage2_3/branch1b/scale
I1025 13:39:56.396401 13868 net.cpp:150] Setting up stage2_3/branch1b/scale
I1025 13:39:56.396405 13868 net.cpp:157] Top shape: 16 16 38 38 (369664)
I1025 13:39:56.396415 13868 net.cpp:165] Memory required for data: 1751069088
I1025 13:39:56.396420 13868 layer_factory.hpp:77] Creating layer stage2_3/branch1b/relu
I1025 13:39:56.396423 13868 net.cpp:100] Creating Layer stage2_3/branch1b/relu
I1025 13:39:56.396426 13868 net.cpp:434] stage2_3/branch1b/relu <- stage2_3/branch1b
I1025 13:39:56.396428 13868 net.cpp:395] stage2_3/branch1b/relu -> stage2_3/branch1b (in-place)
I1025 13:39:56.396803 13868 net.cpp:150] Setting up stage2_3/branch1b/relu
I1025 13:39:56.396811 13868 net.cpp:157] Top shape: 16 16 38 38 (369664)
I1025 13:39:56.396813 13868 net.cpp:165] Memory required for data: 1752547744
I1025 13:39:56.396816 13868 layer_factory.hpp:77] Creating layer stage2_3/branch2a
I1025 13:39:56.396822 13868 net.cpp:100] Creating Layer stage2_3/branch2a
I1025 13:39:56.396824 13868 net.cpp:434] stage2_3/branch2a <- stage2_2/concat_stage2_2/concat_0_split_1
I1025 13:39:56.396829 13868 net.cpp:408] stage2_3/branch2a -> stage2_3/branch2a
I1025 13:39:56.398998 13868 net.cpp:150] Setting up stage2_3/branch2a
I1025 13:39:56.399008 13868 net.cpp:157] Top shape: 16 32 38 38 (739328)
I1025 13:39:56.399010 13868 net.cpp:165] Memory required for data: 1755505056
I1025 13:39:56.399013 13868 layer_factory.hpp:77] Creating layer stage2_3/branch2a/bn
I1025 13:39:56.399017 13868 net.cpp:100] Creating Layer stage2_3/branch2a/bn
I1025 13:39:56.399021 13868 net.cpp:434] stage2_3/branch2a/bn <- stage2_3/branch2a
I1025 13:39:56.399025 13868 net.cpp:395] stage2_3/branch2a/bn -> stage2_3/branch2a (in-place)
I1025 13:39:56.399147 13868 net.cpp:150] Setting up stage2_3/branch2a/bn
I1025 13:39:56.399152 13868 net.cpp:157] Top shape: 16 32 38 38 (739328)
I1025 13:39:56.399154 13868 net.cpp:165] Memory required for data: 1758462368
I1025 13:39:56.399158 13868 layer_factory.hpp:77] Creating layer stage2_3/branch2a/scale
I1025 13:39:56.399163 13868 net.cpp:100] Creating Layer stage2_3/branch2a/scale
I1025 13:39:56.399165 13868 net.cpp:434] stage2_3/branch2a/scale <- stage2_3/branch2a
I1025 13:39:56.399169 13868 net.cpp:395] stage2_3/branch2a/scale -> stage2_3/branch2a (in-place)
I1025 13:39:56.399192 13868 layer_factory.hpp:77] Creating layer stage2_3/branch2a/scale
I1025 13:39:56.399260 13868 net.cpp:150] Setting up stage2_3/branch2a/scale
I1025 13:39:56.399266 13868 net.cpp:157] Top shape: 16 32 38 38 (739328)
I1025 13:39:56.399267 13868 net.cpp:165] Memory required for data: 1761419680
I1025 13:39:56.399271 13868 layer_factory.hpp:77] Creating layer stage2_3/branch2a/relu
I1025 13:39:56.399276 13868 net.cpp:100] Creating Layer stage2_3/branch2a/relu
I1025 13:39:56.399278 13868 net.cpp:434] stage2_3/branch2a/relu <- stage2_3/branch2a
I1025 13:39:56.399283 13868 net.cpp:395] stage2_3/branch2a/relu -> stage2_3/branch2a (in-place)
I1025 13:39:56.399670 13868 net.cpp:150] Setting up stage2_3/branch2a/relu
I1025 13:39:56.399678 13868 net.cpp:157] Top shape: 16 32 38 38 (739328)
I1025 13:39:56.399682 13868 net.cpp:165] Memory required for data: 1764376992
I1025 13:39:56.399683 13868 layer_factory.hpp:77] Creating layer stage2_3/branch2b
I1025 13:39:56.399690 13868 net.cpp:100] Creating Layer stage2_3/branch2b
I1025 13:39:56.399693 13868 net.cpp:434] stage2_3/branch2b <- stage2_3/branch2a
I1025 13:39:56.399698 13868 net.cpp:408] stage2_3/branch2b -> stage2_3/branch2b
I1025 13:39:56.401156 13868 net.cpp:150] Setting up stage2_3/branch2b
I1025 13:39:56.401165 13868 net.cpp:157] Top shape: 16 16 38 38 (369664)
I1025 13:39:56.401167 13868 net.cpp:165] Memory required for data: 1765855648
I1025 13:39:56.401170 13868 layer_factory.hpp:77] Creating layer stage2_3/branch2b/bn
I1025 13:39:56.401176 13868 net.cpp:100] Creating Layer stage2_3/branch2b/bn
I1025 13:39:56.401178 13868 net.cpp:434] stage2_3/branch2b/bn <- stage2_3/branch2b
I1025 13:39:56.401182 13868 net.cpp:395] stage2_3/branch2b/bn -> stage2_3/branch2b (in-place)
I1025 13:39:56.401300 13868 net.cpp:150] Setting up stage2_3/branch2b/bn
I1025 13:39:56.401306 13868 net.cpp:157] Top shape: 16 16 38 38 (369664)
I1025 13:39:56.401316 13868 net.cpp:165] Memory required for data: 1767334304
I1025 13:39:56.401321 13868 layer_factory.hpp:77] Creating layer stage2_3/branch2b/scale
I1025 13:39:56.401326 13868 net.cpp:100] Creating Layer stage2_3/branch2b/scale
I1025 13:39:56.401329 13868 net.cpp:434] stage2_3/branch2b/scale <- stage2_3/branch2b
I1025 13:39:56.401332 13868 net.cpp:395] stage2_3/branch2b/scale -> stage2_3/branch2b (in-place)
I1025 13:39:56.401355 13868 layer_factory.hpp:77] Creating layer stage2_3/branch2b/scale
I1025 13:39:56.401424 13868 net.cpp:150] Setting up stage2_3/branch2b/scale
I1025 13:39:56.401429 13868 net.cpp:157] Top shape: 16 16 38 38 (369664)
I1025 13:39:56.401432 13868 net.cpp:165] Memory required for data: 1768812960
I1025 13:39:56.401435 13868 layer_factory.hpp:77] Creating layer stage2_3/branch2b/relu
I1025 13:39:56.401439 13868 net.cpp:100] Creating Layer stage2_3/branch2b/relu
I1025 13:39:56.401441 13868 net.cpp:434] stage2_3/branch2b/relu <- stage2_3/branch2b
I1025 13:39:56.401444 13868 net.cpp:395] stage2_3/branch2b/relu -> stage2_3/branch2b (in-place)
I1025 13:39:56.401820 13868 net.cpp:150] Setting up stage2_3/branch2b/relu
I1025 13:39:56.401829 13868 net.cpp:157] Top shape: 16 16 38 38 (369664)
I1025 13:39:56.401831 13868 net.cpp:165] Memory required for data: 1770291616
I1025 13:39:56.401834 13868 layer_factory.hpp:77] Creating layer stage2_3/branch2c
I1025 13:39:56.401839 13868 net.cpp:100] Creating Layer stage2_3/branch2c
I1025 13:39:56.401842 13868 net.cpp:434] stage2_3/branch2c <- stage2_3/branch2b
I1025 13:39:56.401847 13868 net.cpp:408] stage2_3/branch2c -> stage2_3/branch2c
I1025 13:39:56.404127 13868 net.cpp:150] Setting up stage2_3/branch2c
I1025 13:39:56.404136 13868 net.cpp:157] Top shape: 16 16 38 38 (369664)
I1025 13:39:56.404139 13868 net.cpp:165] Memory required for data: 1771770272
I1025 13:39:56.404143 13868 layer_factory.hpp:77] Creating layer stage2_3/branch2c/bn
I1025 13:39:56.404147 13868 net.cpp:100] Creating Layer stage2_3/branch2c/bn
I1025 13:39:56.404150 13868 net.cpp:434] stage2_3/branch2c/bn <- stage2_3/branch2c
I1025 13:39:56.404155 13868 net.cpp:395] stage2_3/branch2c/bn -> stage2_3/branch2c (in-place)
I1025 13:39:56.404275 13868 net.cpp:150] Setting up stage2_3/branch2c/bn
I1025 13:39:56.404280 13868 net.cpp:157] Top shape: 16 16 38 38 (369664)
I1025 13:39:56.404283 13868 net.cpp:165] Memory required for data: 1773248928
I1025 13:39:56.404286 13868 layer_factory.hpp:77] Creating layer stage2_3/branch2c/scale
I1025 13:39:56.404291 13868 net.cpp:100] Creating Layer stage2_3/branch2c/scale
I1025 13:39:56.404294 13868 net.cpp:434] stage2_3/branch2c/scale <- stage2_3/branch2c
I1025 13:39:56.404297 13868 net.cpp:395] stage2_3/branch2c/scale -> stage2_3/branch2c (in-place)
I1025 13:39:56.404319 13868 layer_factory.hpp:77] Creating layer stage2_3/branch2c/scale
I1025 13:39:56.404386 13868 net.cpp:150] Setting up stage2_3/branch2c/scale
I1025 13:39:56.404392 13868 net.cpp:157] Top shape: 16 16 38 38 (369664)
I1025 13:39:56.404392 13868 net.cpp:165] Memory required for data: 1774727584
I1025 13:39:56.404397 13868 layer_factory.hpp:77] Creating layer stage2_3/branch2c/relu
I1025 13:39:56.404400 13868 net.cpp:100] Creating Layer stage2_3/branch2c/relu
I1025 13:39:56.404402 13868 net.cpp:434] stage2_3/branch2c/relu <- stage2_3/branch2c
I1025 13:39:56.404405 13868 net.cpp:395] stage2_3/branch2c/relu -> stage2_3/branch2c (in-place)
I1025 13:39:56.404690 13868 net.cpp:150] Setting up stage2_3/branch2c/relu
I1025 13:39:56.404696 13868 net.cpp:157] Top shape: 16 16 38 38 (369664)
I1025 13:39:56.404698 13868 net.cpp:165] Memory required for data: 1776206240
I1025 13:39:56.404700 13868 layer_factory.hpp:77] Creating layer stage2_3/concat
I1025 13:39:56.404705 13868 net.cpp:100] Creating Layer stage2_3/concat
I1025 13:39:56.404707 13868 net.cpp:434] stage2_3/concat <- stage2_2/concat_stage2_2/concat_0_split_2
I1025 13:39:56.404711 13868 net.cpp:434] stage2_3/concat <- stage2_3/branch1b
I1025 13:39:56.404714 13868 net.cpp:434] stage2_3/concat <- stage2_3/branch2c
I1025 13:39:56.404717 13868 net.cpp:408] stage2_3/concat -> stage2_3/concat
I1025 13:39:56.404745 13868 net.cpp:150] Setting up stage2_3/concat
I1025 13:39:56.404749 13868 net.cpp:157] Top shape: 16 224 38 38 (5175296)
I1025 13:39:56.404750 13868 net.cpp:165] Memory required for data: 1796907424
I1025 13:39:56.404752 13868 layer_factory.hpp:77] Creating layer stage2_3/concat_stage2_3/concat_0_split
I1025 13:39:56.404757 13868 net.cpp:100] Creating Layer stage2_3/concat_stage2_3/concat_0_split
I1025 13:39:56.404759 13868 net.cpp:434] stage2_3/concat_stage2_3/concat_0_split <- stage2_3/concat
I1025 13:39:56.404763 13868 net.cpp:408] stage2_3/concat_stage2_3/concat_0_split -> stage2_3/concat_stage2_3/concat_0_split_0
I1025 13:39:56.404767 13868 net.cpp:408] stage2_3/concat_stage2_3/concat_0_split -> stage2_3/concat_stage2_3/concat_0_split_1
I1025 13:39:56.404772 13868 net.cpp:408] stage2_3/concat_stage2_3/concat_0_split -> stage2_3/concat_stage2_3/concat_0_split_2
I1025 13:39:56.404800 13868 net.cpp:150] Setting up stage2_3/concat_stage2_3/concat_0_split
I1025 13:39:56.404804 13868 net.cpp:157] Top shape: 16 224 38 38 (5175296)
I1025 13:39:56.404808 13868 net.cpp:157] Top shape: 16 224 38 38 (5175296)
I1025 13:39:56.404810 13868 net.cpp:157] Top shape: 16 224 38 38 (5175296)
I1025 13:39:56.404811 13868 net.cpp:165] Memory required for data: 1859010976
I1025 13:39:56.404814 13868 layer_factory.hpp:77] Creating layer stage2_4/branch1a
I1025 13:39:56.404819 13868 net.cpp:100] Creating Layer stage2_4/branch1a
I1025 13:39:56.404822 13868 net.cpp:434] stage2_4/branch1a <- stage2_3/concat_stage2_3/concat_0_split_0
I1025 13:39:56.404826 13868 net.cpp:408] stage2_4/branch1a -> stage2_4/branch1a
I1025 13:39:56.406308 13868 net.cpp:150] Setting up stage2_4/branch1a
I1025 13:39:56.406316 13868 net.cpp:157] Top shape: 16 32 38 38 (739328)
I1025 13:39:56.406319 13868 net.cpp:165] Memory required for data: 1861968288
I1025 13:39:56.406323 13868 layer_factory.hpp:77] Creating layer stage2_4/branch1a/bn
I1025 13:39:56.406329 13868 net.cpp:100] Creating Layer stage2_4/branch1a/bn
I1025 13:39:56.406333 13868 net.cpp:434] stage2_4/branch1a/bn <- stage2_4/branch1a
I1025 13:39:56.406337 13868 net.cpp:395] stage2_4/branch1a/bn -> stage2_4/branch1a (in-place)
I1025 13:39:56.406461 13868 net.cpp:150] Setting up stage2_4/branch1a/bn
I1025 13:39:56.406466 13868 net.cpp:157] Top shape: 16 32 38 38 (739328)
I1025 13:39:56.406467 13868 net.cpp:165] Memory required for data: 1864925600
I1025 13:39:56.406472 13868 layer_factory.hpp:77] Creating layer stage2_4/branch1a/scale
I1025 13:39:56.406476 13868 net.cpp:100] Creating Layer stage2_4/branch1a/scale
I1025 13:39:56.406478 13868 net.cpp:434] stage2_4/branch1a/scale <- stage2_4/branch1a
I1025 13:39:56.406482 13868 net.cpp:395] stage2_4/branch1a/scale -> stage2_4/branch1a (in-place)
I1025 13:39:56.406505 13868 layer_factory.hpp:77] Creating layer stage2_4/branch1a/scale
I1025 13:39:56.406574 13868 net.cpp:150] Setting up stage2_4/branch1a/scale
I1025 13:39:56.406579 13868 net.cpp:157] Top shape: 16 32 38 38 (739328)
I1025 13:39:56.406580 13868 net.cpp:165] Memory required for data: 1867882912
I1025 13:39:56.406584 13868 layer_factory.hpp:77] Creating layer stage2_4/branch1a/relu
I1025 13:39:56.406587 13868 net.cpp:100] Creating Layer stage2_4/branch1a/relu
I1025 13:39:56.406589 13868 net.cpp:434] stage2_4/branch1a/relu <- stage2_4/branch1a
I1025 13:39:56.406596 13868 net.cpp:395] stage2_4/branch1a/relu -> stage2_4/branch1a (in-place)
I1025 13:39:56.406903 13868 net.cpp:150] Setting up stage2_4/branch1a/relu
I1025 13:39:56.406910 13868 net.cpp:157] Top shape: 16 32 38 38 (739328)
I1025 13:39:56.406913 13868 net.cpp:165] Memory required for data: 1870840224
I1025 13:39:56.406914 13868 layer_factory.hpp:77] Creating layer stage2_4/branch1b
I1025 13:39:56.406922 13868 net.cpp:100] Creating Layer stage2_4/branch1b
I1025 13:39:56.406926 13868 net.cpp:434] stage2_4/branch1b <- stage2_4/branch1a
I1025 13:39:56.406931 13868 net.cpp:408] stage2_4/branch1b -> stage2_4/branch1b
I1025 13:39:56.409059 13868 net.cpp:150] Setting up stage2_4/branch1b
I1025 13:39:56.409080 13868 net.cpp:157] Top shape: 16 16 38 38 (369664)
I1025 13:39:56.409083 13868 net.cpp:165] Memory required for data: 1872318880
I1025 13:39:56.409086 13868 layer_factory.hpp:77] Creating layer stage2_4/branch1b/bn
I1025 13:39:56.409091 13868 net.cpp:100] Creating Layer stage2_4/branch1b/bn
I1025 13:39:56.409094 13868 net.cpp:434] stage2_4/branch1b/bn <- stage2_4/branch1b
I1025 13:39:56.409099 13868 net.cpp:395] stage2_4/branch1b/bn -> stage2_4/branch1b (in-place)
I1025 13:39:56.409224 13868 net.cpp:150] Setting up stage2_4/branch1b/bn
I1025 13:39:56.409229 13868 net.cpp:157] Top shape: 16 16 38 38 (369664)
I1025 13:39:56.409231 13868 net.cpp:165] Memory required for data: 1873797536
I1025 13:39:56.409235 13868 layer_factory.hpp:77] Creating layer stage2_4/branch1b/scale
I1025 13:39:56.409240 13868 net.cpp:100] Creating Layer stage2_4/branch1b/scale
I1025 13:39:56.409242 13868 net.cpp:434] stage2_4/branch1b/scale <- stage2_4/branch1b
I1025 13:39:56.409246 13868 net.cpp:395] stage2_4/branch1b/scale -> stage2_4/branch1b (in-place)
I1025 13:39:56.409272 13868 layer_factory.hpp:77] Creating layer stage2_4/branch1b/scale
I1025 13:39:56.409366 13868 net.cpp:150] Setting up stage2_4/branch1b/scale
I1025 13:39:56.409373 13868 net.cpp:157] Top shape: 16 16 38 38 (369664)
I1025 13:39:56.409374 13868 net.cpp:165] Memory required for data: 1875276192
I1025 13:39:56.409379 13868 layer_factory.hpp:77] Creating layer stage2_4/branch1b/relu
I1025 13:39:56.409381 13868 net.cpp:100] Creating Layer stage2_4/branch1b/relu
I1025 13:39:56.409384 13868 net.cpp:434] stage2_4/branch1b/relu <- stage2_4/branch1b
I1025 13:39:56.409389 13868 net.cpp:395] stage2_4/branch1b/relu -> stage2_4/branch1b (in-place)
I1025 13:39:56.409788 13868 net.cpp:150] Setting up stage2_4/branch1b/relu
I1025 13:39:56.409796 13868 net.cpp:157] Top shape: 16 16 38 38 (369664)
I1025 13:39:56.409798 13868 net.cpp:165] Memory required for data: 1876754848
I1025 13:39:56.409801 13868 layer_factory.hpp:77] Creating layer stage2_4/branch2a
I1025 13:39:56.409808 13868 net.cpp:100] Creating Layer stage2_4/branch2a
I1025 13:39:56.409811 13868 net.cpp:434] stage2_4/branch2a <- stage2_3/concat_stage2_3/concat_0_split_1
I1025 13:39:56.409816 13868 net.cpp:408] stage2_4/branch2a -> stage2_4/branch2a
I1025 13:39:56.412087 13868 net.cpp:150] Setting up stage2_4/branch2a
I1025 13:39:56.412098 13868 net.cpp:157] Top shape: 16 32 38 38 (739328)
I1025 13:39:56.412101 13868 net.cpp:165] Memory required for data: 1879712160
I1025 13:39:56.412104 13868 layer_factory.hpp:77] Creating layer stage2_4/branch2a/bn
I1025 13:39:56.412111 13868 net.cpp:100] Creating Layer stage2_4/branch2a/bn
I1025 13:39:56.412114 13868 net.cpp:434] stage2_4/branch2a/bn <- stage2_4/branch2a
I1025 13:39:56.412118 13868 net.cpp:395] stage2_4/branch2a/bn -> stage2_4/branch2a (in-place)
I1025 13:39:56.412245 13868 net.cpp:150] Setting up stage2_4/branch2a/bn
I1025 13:39:56.412250 13868 net.cpp:157] Top shape: 16 32 38 38 (739328)
I1025 13:39:56.412252 13868 net.cpp:165] Memory required for data: 1882669472
I1025 13:39:56.412256 13868 layer_factory.hpp:77] Creating layer stage2_4/branch2a/scale
I1025 13:39:56.412261 13868 net.cpp:100] Creating Layer stage2_4/branch2a/scale
I1025 13:39:56.412264 13868 net.cpp:434] stage2_4/branch2a/scale <- stage2_4/branch2a
I1025 13:39:56.412267 13868 net.cpp:395] stage2_4/branch2a/scale -> stage2_4/branch2a (in-place)
I1025 13:39:56.412292 13868 layer_factory.hpp:77] Creating layer stage2_4/branch2a/scale
I1025 13:39:56.412360 13868 net.cpp:150] Setting up stage2_4/branch2a/scale
I1025 13:39:56.412365 13868 net.cpp:157] Top shape: 16 32 38 38 (739328)
I1025 13:39:56.412367 13868 net.cpp:165] Memory required for data: 1885626784
I1025 13:39:56.412371 13868 layer_factory.hpp:77] Creating layer stage2_4/branch2a/relu
I1025 13:39:56.412375 13868 net.cpp:100] Creating Layer stage2_4/branch2a/relu
I1025 13:39:56.412379 13868 net.cpp:434] stage2_4/branch2a/relu <- stage2_4/branch2a
I1025 13:39:56.412380 13868 net.cpp:395] stage2_4/branch2a/relu -> stage2_4/branch2a (in-place)
I1025 13:39:56.412765 13868 net.cpp:150] Setting up stage2_4/branch2a/relu
I1025 13:39:56.412772 13868 net.cpp:157] Top shape: 16 32 38 38 (739328)
I1025 13:39:56.412775 13868 net.cpp:165] Memory required for data: 1888584096
I1025 13:39:56.412777 13868 layer_factory.hpp:77] Creating layer stage2_4/branch2b
I1025 13:39:56.412783 13868 net.cpp:100] Creating Layer stage2_4/branch2b
I1025 13:39:56.412786 13868 net.cpp:434] stage2_4/branch2b <- stage2_4/branch2a
I1025 13:39:56.412792 13868 net.cpp:408] stage2_4/branch2b -> stage2_4/branch2b
I1025 13:39:56.414173 13868 net.cpp:150] Setting up stage2_4/branch2b
I1025 13:39:56.414181 13868 net.cpp:157] Top shape: 16 16 38 38 (369664)
I1025 13:39:56.414183 13868 net.cpp:165] Memory required for data: 1890062752
I1025 13:39:56.414187 13868 layer_factory.hpp:77] Creating layer stage2_4/branch2b/bn
I1025 13:39:56.414193 13868 net.cpp:100] Creating Layer stage2_4/branch2b/bn
I1025 13:39:56.414196 13868 net.cpp:434] stage2_4/branch2b/bn <- stage2_4/branch2b
I1025 13:39:56.414198 13868 net.cpp:395] stage2_4/branch2b/bn -> stage2_4/branch2b (in-place)
I1025 13:39:56.414319 13868 net.cpp:150] Setting up stage2_4/branch2b/bn
I1025 13:39:56.414324 13868 net.cpp:157] Top shape: 16 16 38 38 (369664)
I1025 13:39:56.414325 13868 net.cpp:165] Memory required for data: 1891541408
I1025 13:39:56.414330 13868 layer_factory.hpp:77] Creating layer stage2_4/branch2b/scale
I1025 13:39:56.414333 13868 net.cpp:100] Creating Layer stage2_4/branch2b/scale
I1025 13:39:56.414335 13868 net.cpp:434] stage2_4/branch2b/scale <- stage2_4/branch2b
I1025 13:39:56.414338 13868 net.cpp:395] stage2_4/branch2b/scale -> stage2_4/branch2b (in-place)
I1025 13:39:56.414361 13868 layer_factory.hpp:77] Creating layer stage2_4/branch2b/scale
I1025 13:39:56.414428 13868 net.cpp:150] Setting up stage2_4/branch2b/scale
I1025 13:39:56.414433 13868 net.cpp:157] Top shape: 16 16 38 38 (369664)
I1025 13:39:56.414434 13868 net.cpp:165] Memory required for data: 1893020064
I1025 13:39:56.414438 13868 layer_factory.hpp:77] Creating layer stage2_4/branch2b/relu
I1025 13:39:56.414441 13868 net.cpp:100] Creating Layer stage2_4/branch2b/relu
I1025 13:39:56.414443 13868 net.cpp:434] stage2_4/branch2b/relu <- stage2_4/branch2b
I1025 13:39:56.414448 13868 net.cpp:395] stage2_4/branch2b/relu -> stage2_4/branch2b (in-place)
I1025 13:39:56.414826 13868 net.cpp:150] Setting up stage2_4/branch2b/relu
I1025 13:39:56.414834 13868 net.cpp:157] Top shape: 16 16 38 38 (369664)
I1025 13:39:56.414836 13868 net.cpp:165] Memory required for data: 1894498720
I1025 13:39:56.414839 13868 layer_factory.hpp:77] Creating layer stage2_4/branch2c
I1025 13:39:56.414844 13868 net.cpp:100] Creating Layer stage2_4/branch2c
I1025 13:39:56.414849 13868 net.cpp:434] stage2_4/branch2c <- stage2_4/branch2b
I1025 13:39:56.414852 13868 net.cpp:408] stage2_4/branch2c -> stage2_4/branch2c
I1025 13:39:56.416301 13868 net.cpp:150] Setting up stage2_4/branch2c
I1025 13:39:56.416308 13868 net.cpp:157] Top shape: 16 16 38 38 (369664)
I1025 13:39:56.416311 13868 net.cpp:165] Memory required for data: 1895977376
I1025 13:39:56.416316 13868 layer_factory.hpp:77] Creating layer stage2_4/branch2c/bn
I1025 13:39:56.416319 13868 net.cpp:100] Creating Layer stage2_4/branch2c/bn
I1025 13:39:56.416321 13868 net.cpp:434] stage2_4/branch2c/bn <- stage2_4/branch2c
I1025 13:39:56.416327 13868 net.cpp:395] stage2_4/branch2c/bn -> stage2_4/branch2c (in-place)
I1025 13:39:56.416443 13868 net.cpp:150] Setting up stage2_4/branch2c/bn
I1025 13:39:56.416448 13868 net.cpp:157] Top shape: 16 16 38 38 (369664)
I1025 13:39:56.416450 13868 net.cpp:165] Memory required for data: 1897456032
I1025 13:39:56.416455 13868 layer_factory.hpp:77] Creating layer stage2_4/branch2c/scale
I1025 13:39:56.416460 13868 net.cpp:100] Creating Layer stage2_4/branch2c/scale
I1025 13:39:56.416462 13868 net.cpp:434] stage2_4/branch2c/scale <- stage2_4/branch2c
I1025 13:39:56.416465 13868 net.cpp:395] stage2_4/branch2c/scale -> stage2_4/branch2c (in-place)
I1025 13:39:56.416487 13868 layer_factory.hpp:77] Creating layer stage2_4/branch2c/scale
I1025 13:39:56.416565 13868 net.cpp:150] Setting up stage2_4/branch2c/scale
I1025 13:39:56.416569 13868 net.cpp:157] Top shape: 16 16 38 38 (369664)
I1025 13:39:56.416571 13868 net.cpp:165] Memory required for data: 1898934688
I1025 13:39:56.416575 13868 layer_factory.hpp:77] Creating layer stage2_4/branch2c/relu
I1025 13:39:56.416579 13868 net.cpp:100] Creating Layer stage2_4/branch2c/relu
I1025 13:39:56.416581 13868 net.cpp:434] stage2_4/branch2c/relu <- stage2_4/branch2c
I1025 13:39:56.416584 13868 net.cpp:395] stage2_4/branch2c/relu -> stage2_4/branch2c (in-place)
I1025 13:39:56.418045 13868 net.cpp:150] Setting up stage2_4/branch2c/relu
I1025 13:39:56.418054 13868 net.cpp:157] Top shape: 16 16 38 38 (369664)
I1025 13:39:56.418057 13868 net.cpp:165] Memory required for data: 1900413344
I1025 13:39:56.418059 13868 layer_factory.hpp:77] Creating layer stage2_4/concat
I1025 13:39:56.418064 13868 net.cpp:100] Creating Layer stage2_4/concat
I1025 13:39:56.418067 13868 net.cpp:434] stage2_4/concat <- stage2_3/concat_stage2_3/concat_0_split_2
I1025 13:39:56.418071 13868 net.cpp:434] stage2_4/concat <- stage2_4/branch1b
I1025 13:39:56.418073 13868 net.cpp:434] stage2_4/concat <- stage2_4/branch2c
I1025 13:39:56.418078 13868 net.cpp:408] stage2_4/concat -> stage2_4/concat
I1025 13:39:56.418099 13868 net.cpp:150] Setting up stage2_4/concat
I1025 13:39:56.418103 13868 net.cpp:157] Top shape: 16 256 38 38 (5914624)
I1025 13:39:56.418105 13868 net.cpp:165] Memory required for data: 1924071840
I1025 13:39:56.418108 13868 layer_factory.hpp:77] Creating layer stage2_tb
I1025 13:39:56.418115 13868 net.cpp:100] Creating Layer stage2_tb
I1025 13:39:56.418118 13868 net.cpp:434] stage2_tb <- stage2_4/concat
I1025 13:39:56.418120 13868 net.cpp:408] stage2_tb -> stage2_tb
I1025 13:39:56.419829 13868 net.cpp:150] Setting up stage2_tb
I1025 13:39:56.419838 13868 net.cpp:157] Top shape: 16 256 38 38 (5914624)
I1025 13:39:56.419840 13868 net.cpp:165] Memory required for data: 1947730336
I1025 13:39:56.419844 13868 layer_factory.hpp:77] Creating layer stage2_tb/bn
I1025 13:39:56.419850 13868 net.cpp:100] Creating Layer stage2_tb/bn
I1025 13:39:56.419852 13868 net.cpp:434] stage2_tb/bn <- stage2_tb
I1025 13:39:56.419857 13868 net.cpp:395] stage2_tb/bn -> stage2_tb (in-place)
I1025 13:39:56.419972 13868 net.cpp:150] Setting up stage2_tb/bn
I1025 13:39:56.419977 13868 net.cpp:157] Top shape: 16 256 38 38 (5914624)
I1025 13:39:56.419979 13868 net.cpp:165] Memory required for data: 1971388832
I1025 13:39:56.419983 13868 layer_factory.hpp:77] Creating layer stage2_tb/scale
I1025 13:39:56.419987 13868 net.cpp:100] Creating Layer stage2_tb/scale
I1025 13:39:56.419989 13868 net.cpp:434] stage2_tb/scale <- stage2_tb
I1025 13:39:56.419993 13868 net.cpp:395] stage2_tb/scale -> stage2_tb (in-place)
I1025 13:39:56.420017 13868 layer_factory.hpp:77] Creating layer stage2_tb/scale
I1025 13:39:56.420075 13868 net.cpp:150] Setting up stage2_tb/scale
I1025 13:39:56.420080 13868 net.cpp:157] Top shape: 16 256 38 38 (5914624)
I1025 13:39:56.420083 13868 net.cpp:165] Memory required for data: 1995047328
I1025 13:39:56.420086 13868 layer_factory.hpp:77] Creating layer stage2_tb/relu
I1025 13:39:56.420089 13868 net.cpp:100] Creating Layer stage2_tb/relu
I1025 13:39:56.420091 13868 net.cpp:434] stage2_tb/relu <- stage2_tb
I1025 13:39:56.420095 13868 net.cpp:395] stage2_tb/relu -> stage2_tb (in-place)
I1025 13:39:56.420380 13868 net.cpp:150] Setting up stage2_tb/relu
I1025 13:39:56.420387 13868 net.cpp:157] Top shape: 16 256 38 38 (5914624)
I1025 13:39:56.420389 13868 net.cpp:165] Memory required for data: 2018705824
I1025 13:39:56.420392 13868 layer_factory.hpp:77] Creating layer stage2_tb_stage2_tb/relu_0_split
I1025 13:39:56.420397 13868 net.cpp:100] Creating Layer stage2_tb_stage2_tb/relu_0_split
I1025 13:39:56.420400 13868 net.cpp:434] stage2_tb_stage2_tb/relu_0_split <- stage2_tb
I1025 13:39:56.420403 13868 net.cpp:408] stage2_tb_stage2_tb/relu_0_split -> stage2_tb_stage2_tb/relu_0_split_0
I1025 13:39:56.420409 13868 net.cpp:408] stage2_tb_stage2_tb/relu_0_split -> stage2_tb_stage2_tb/relu_0_split_1
I1025 13:39:56.420423 13868 net.cpp:408] stage2_tb_stage2_tb/relu_0_split -> stage2_tb_stage2_tb/relu_0_split_2
I1025 13:39:56.420456 13868 net.cpp:150] Setting up stage2_tb_stage2_tb/relu_0_split
I1025 13:39:56.420460 13868 net.cpp:157] Top shape: 16 256 38 38 (5914624)
I1025 13:39:56.420464 13868 net.cpp:157] Top shape: 16 256 38 38 (5914624)
I1025 13:39:56.420465 13868 net.cpp:157] Top shape: 16 256 38 38 (5914624)
I1025 13:39:56.420467 13868 net.cpp:165] Memory required for data: 2089681312
I1025 13:39:56.420469 13868 layer_factory.hpp:77] Creating layer stage4_tb/ext/pm1
I1025 13:39:56.420477 13868 net.cpp:100] Creating Layer stage4_tb/ext/pm1
I1025 13:39:56.420480 13868 net.cpp:434] stage4_tb/ext/pm1 <- stage2_tb_stage2_tb/relu_0_split_0
I1025 13:39:56.420485 13868 net.cpp:408] stage4_tb/ext/pm1 -> stage4_tb/ext/pm1
I1025 13:39:56.422155 13868 net.cpp:150] Setting up stage4_tb/ext/pm1
I1025 13:39:56.422164 13868 net.cpp:157] Top shape: 16 256 38 38 (5914624)
I1025 13:39:56.422166 13868 net.cpp:165] Memory required for data: 2113339808
I1025 13:39:56.422170 13868 layer_factory.hpp:77] Creating layer stage4_tb/ext/pm1/bn
I1025 13:39:56.422174 13868 net.cpp:100] Creating Layer stage4_tb/ext/pm1/bn
I1025 13:39:56.422178 13868 net.cpp:434] stage4_tb/ext/pm1/bn <- stage4_tb/ext/pm1
I1025 13:39:56.422183 13868 net.cpp:395] stage4_tb/ext/pm1/bn -> stage4_tb/ext/pm1 (in-place)
I1025 13:39:56.422299 13868 net.cpp:150] Setting up stage4_tb/ext/pm1/bn
I1025 13:39:56.422303 13868 net.cpp:157] Top shape: 16 256 38 38 (5914624)
I1025 13:39:56.422307 13868 net.cpp:165] Memory required for data: 2136998304
I1025 13:39:56.422310 13868 layer_factory.hpp:77] Creating layer stage4_tb/ext/pm1/scale
I1025 13:39:56.422317 13868 net.cpp:100] Creating Layer stage4_tb/ext/pm1/scale
I1025 13:39:56.422319 13868 net.cpp:434] stage4_tb/ext/pm1/scale <- stage4_tb/ext/pm1
I1025 13:39:56.422322 13868 net.cpp:395] stage4_tb/ext/pm1/scale -> stage4_tb/ext/pm1 (in-place)
I1025 13:39:56.422348 13868 layer_factory.hpp:77] Creating layer stage4_tb/ext/pm1/scale
I1025 13:39:56.422408 13868 net.cpp:150] Setting up stage4_tb/ext/pm1/scale
I1025 13:39:56.422413 13868 net.cpp:157] Top shape: 16 256 38 38 (5914624)
I1025 13:39:56.422416 13868 net.cpp:165] Memory required for data: 2160656800
I1025 13:39:56.422420 13868 layer_factory.hpp:77] Creating layer stage4_tb/ext/pm1/b2a
I1025 13:39:56.422426 13868 net.cpp:100] Creating Layer stage4_tb/ext/pm1/b2a
I1025 13:39:56.422430 13868 net.cpp:434] stage4_tb/ext/pm1/b2a <- stage2_tb_stage2_tb/relu_0_split_1
I1025 13:39:56.422433 13868 net.cpp:408] stage4_tb/ext/pm1/b2a -> stage4_tb/ext/pm1/b2a
I1025 13:39:56.425195 13868 net.cpp:150] Setting up stage4_tb/ext/pm1/b2a
I1025 13:39:56.425205 13868 net.cpp:157] Top shape: 16 128 38 38 (2957312)
I1025 13:39:56.425207 13868 net.cpp:165] Memory required for data: 2172486048
I1025 13:39:56.425212 13868 layer_factory.hpp:77] Creating layer stage4_tb/ext/pm1/b2a/bn
I1025 13:39:56.425218 13868 net.cpp:100] Creating Layer stage4_tb/ext/pm1/b2a/bn
I1025 13:39:56.425222 13868 net.cpp:434] stage4_tb/ext/pm1/b2a/bn <- stage4_tb/ext/pm1/b2a
I1025 13:39:56.425225 13868 net.cpp:395] stage4_tb/ext/pm1/b2a/bn -> stage4_tb/ext/pm1/b2a (in-place)
I1025 13:39:56.425344 13868 net.cpp:150] Setting up stage4_tb/ext/pm1/b2a/bn
I1025 13:39:56.425349 13868 net.cpp:157] Top shape: 16 128 38 38 (2957312)
I1025 13:39:56.425350 13868 net.cpp:165] Memory required for data: 2184315296
I1025 13:39:56.425355 13868 layer_factory.hpp:77] Creating layer stage4_tb/ext/pm1/b2a/scale
I1025 13:39:56.425361 13868 net.cpp:100] Creating Layer stage4_tb/ext/pm1/b2a/scale
I1025 13:39:56.425364 13868 net.cpp:434] stage4_tb/ext/pm1/b2a/scale <- stage4_tb/ext/pm1/b2a
I1025 13:39:56.425367 13868 net.cpp:395] stage4_tb/ext/pm1/b2a/scale -> stage4_tb/ext/pm1/b2a (in-place)
I1025 13:39:56.425395 13868 layer_factory.hpp:77] Creating layer stage4_tb/ext/pm1/b2a/scale
I1025 13:39:56.425458 13868 net.cpp:150] Setting up stage4_tb/ext/pm1/b2a/scale
I1025 13:39:56.425462 13868 net.cpp:157] Top shape: 16 128 38 38 (2957312)
I1025 13:39:56.425477 13868 net.cpp:165] Memory required for data: 2196144544
I1025 13:39:56.425498 13868 layer_factory.hpp:77] Creating layer stage4_tb/ext/pm1/b2a/relu
I1025 13:39:56.425503 13868 net.cpp:100] Creating Layer stage4_tb/ext/pm1/b2a/relu
I1025 13:39:56.425505 13868 net.cpp:434] stage4_tb/ext/pm1/b2a/relu <- stage4_tb/ext/pm1/b2a
I1025 13:39:56.425508 13868 net.cpp:395] stage4_tb/ext/pm1/b2a/relu -> stage4_tb/ext/pm1/b2a (in-place)
I1025 13:39:56.425894 13868 net.cpp:150] Setting up stage4_tb/ext/pm1/b2a/relu
I1025 13:39:56.425902 13868 net.cpp:157] Top shape: 16 128 38 38 (2957312)
I1025 13:39:56.425904 13868 net.cpp:165] Memory required for data: 2207973792
I1025 13:39:56.425907 13868 layer_factory.hpp:77] Creating layer stage4_tb/ext/pm1/b2b
I1025 13:39:56.425913 13868 net.cpp:100] Creating Layer stage4_tb/ext/pm1/b2b
I1025 13:39:56.425917 13868 net.cpp:434] stage4_tb/ext/pm1/b2b <- stage4_tb/ext/pm1/b2a
I1025 13:39:56.425922 13868 net.cpp:408] stage4_tb/ext/pm1/b2b -> stage4_tb/ext/pm1/b2b
I1025 13:39:56.427865 13868 net.cpp:150] Setting up stage4_tb/ext/pm1/b2b
I1025 13:39:56.427875 13868 net.cpp:157] Top shape: 16 128 38 38 (2957312)
I1025 13:39:56.427877 13868 net.cpp:165] Memory required for data: 2219803040
I1025 13:39:56.427881 13868 layer_factory.hpp:77] Creating layer stage4_tb/ext/pm1/b2b/bn
I1025 13:39:56.427886 13868 net.cpp:100] Creating Layer stage4_tb/ext/pm1/b2b/bn
I1025 13:39:56.427889 13868 net.cpp:434] stage4_tb/ext/pm1/b2b/bn <- stage4_tb/ext/pm1/b2b
I1025 13:39:56.427894 13868 net.cpp:395] stage4_tb/ext/pm1/b2b/bn -> stage4_tb/ext/pm1/b2b (in-place)
I1025 13:39:56.428011 13868 net.cpp:150] Setting up stage4_tb/ext/pm1/b2b/bn
I1025 13:39:56.428016 13868 net.cpp:157] Top shape: 16 128 38 38 (2957312)
I1025 13:39:56.428019 13868 net.cpp:165] Memory required for data: 2231632288
I1025 13:39:56.428023 13868 layer_factory.hpp:77] Creating layer stage4_tb/ext/pm1/b2b/scale
I1025 13:39:56.428030 13868 net.cpp:100] Creating Layer stage4_tb/ext/pm1/b2b/scale
I1025 13:39:56.428032 13868 net.cpp:434] stage4_tb/ext/pm1/b2b/scale <- stage4_tb/ext/pm1/b2b
I1025 13:39:56.428035 13868 net.cpp:395] stage4_tb/ext/pm1/b2b/scale -> stage4_tb/ext/pm1/b2b (in-place)
I1025 13:39:56.428063 13868 layer_factory.hpp:77] Creating layer stage4_tb/ext/pm1/b2b/scale
I1025 13:39:56.428139 13868 net.cpp:150] Setting up stage4_tb/ext/pm1/b2b/scale
I1025 13:39:56.428144 13868 net.cpp:157] Top shape: 16 128 38 38 (2957312)
I1025 13:39:56.428146 13868 net.cpp:165] Memory required for data: 2243461536
I1025 13:39:56.428150 13868 layer_factory.hpp:77] Creating layer stage4_tb/ext/pm1/b2b/relu
I1025 13:39:56.428154 13868 net.cpp:100] Creating Layer stage4_tb/ext/pm1/b2b/relu
I1025 13:39:56.428158 13868 net.cpp:434] stage4_tb/ext/pm1/b2b/relu <- stage4_tb/ext/pm1/b2b
I1025 13:39:56.428161 13868 net.cpp:395] stage4_tb/ext/pm1/b2b/relu -> stage4_tb/ext/pm1/b2b (in-place)
I1025 13:39:56.428531 13868 net.cpp:150] Setting up stage4_tb/ext/pm1/b2b/relu
I1025 13:39:56.428539 13868 net.cpp:157] Top shape: 16 128 38 38 (2957312)
I1025 13:39:56.428541 13868 net.cpp:165] Memory required for data: 2255290784
I1025 13:39:56.428544 13868 layer_factory.hpp:77] Creating layer stage4_tb/ext/pm1/b2c
I1025 13:39:56.428550 13868 net.cpp:100] Creating Layer stage4_tb/ext/pm1/b2c
I1025 13:39:56.428555 13868 net.cpp:434] stage4_tb/ext/pm1/b2c <- stage4_tb/ext/pm1/b2b
I1025 13:39:56.428560 13868 net.cpp:408] stage4_tb/ext/pm1/b2c -> stage4_tb/ext/pm1/b2c
I1025 13:39:56.430115 13868 net.cpp:150] Setting up stage4_tb/ext/pm1/b2c
I1025 13:39:56.430124 13868 net.cpp:157] Top shape: 16 256 38 38 (5914624)
I1025 13:39:56.430127 13868 net.cpp:165] Memory required for data: 2278949280
I1025 13:39:56.430131 13868 layer_factory.hpp:77] Creating layer stage4_tb/ext/pm1/b2c/bn
I1025 13:39:56.430136 13868 net.cpp:100] Creating Layer stage4_tb/ext/pm1/b2c/bn
I1025 13:39:56.430140 13868 net.cpp:434] stage4_tb/ext/pm1/b2c/bn <- stage4_tb/ext/pm1/b2c
I1025 13:39:56.430145 13868 net.cpp:395] stage4_tb/ext/pm1/b2c/bn -> stage4_tb/ext/pm1/b2c (in-place)
I1025 13:39:56.430264 13868 net.cpp:150] Setting up stage4_tb/ext/pm1/b2c/bn
I1025 13:39:56.430269 13868 net.cpp:157] Top shape: 16 256 38 38 (5914624)
I1025 13:39:56.430272 13868 net.cpp:165] Memory required for data: 2302607776
I1025 13:39:56.430276 13868 layer_factory.hpp:77] Creating layer stage4_tb/ext/pm1/b2c/scale
I1025 13:39:56.430281 13868 net.cpp:100] Creating Layer stage4_tb/ext/pm1/b2c/scale
I1025 13:39:56.430284 13868 net.cpp:434] stage4_tb/ext/pm1/b2c/scale <- stage4_tb/ext/pm1/b2c
I1025 13:39:56.430289 13868 net.cpp:395] stage4_tb/ext/pm1/b2c/scale -> stage4_tb/ext/pm1/b2c (in-place)
I1025 13:39:56.430313 13868 layer_factory.hpp:77] Creating layer stage4_tb/ext/pm1/b2c/scale
I1025 13:39:56.430374 13868 net.cpp:150] Setting up stage4_tb/ext/pm1/b2c/scale
I1025 13:39:56.430378 13868 net.cpp:157] Top shape: 16 256 38 38 (5914624)
I1025 13:39:56.430382 13868 net.cpp:165] Memory required for data: 2326266272
I1025 13:39:56.430384 13868 layer_factory.hpp:77] Creating layer stage4_tb/ext/pm1/res
I1025 13:39:56.430393 13868 net.cpp:100] Creating Layer stage4_tb/ext/pm1/res
I1025 13:39:56.430397 13868 net.cpp:434] stage4_tb/ext/pm1/res <- stage4_tb/ext/pm1
I1025 13:39:56.430399 13868 net.cpp:434] stage4_tb/ext/pm1/res <- stage4_tb/ext/pm1/b2c
I1025 13:39:56.430404 13868 net.cpp:408] stage4_tb/ext/pm1/res -> stage4_tb/ext/pm1/res
I1025 13:39:56.430420 13868 net.cpp:150] Setting up stage4_tb/ext/pm1/res
I1025 13:39:56.430425 13868 net.cpp:157] Top shape: 16 256 38 38 (5914624)
I1025 13:39:56.430429 13868 net.cpp:165] Memory required for data: 2349924768
I1025 13:39:56.430431 13868 layer_factory.hpp:77] Creating layer stage4_tb/ext/pm1/res/relu
…
I1025 13:39:57.186806 13868 net.cpp:150] Setting up stage4_tb/ext/pm5/b2a
I1025 13:39:57.186815 13868 net.cpp:157] Top shape: 1 128 3 3 (1152)
I1025 13:39:57.186818 13868 net.cpp:165] Memory required for data: 201377472
I1025 13:39:57.186823 13868 layer_factory.hpp:77] Creating layer stage4_tb/ext/pm5/b2a/bn
I1025 13:39:57.186833 13868 net.cpp:100] Creating Layer stage4_tb/ext/pm5/b2a/bn
I1025 13:39:57.186838 13868 net.cpp:434] stage4_tb/ext/pm5/b2a/bn <- stage4_tb/ext/pm5/b2a
I1025 13:39:57.186846 13868 net.cpp:395] stage4_tb/ext/pm5/b2a/bn -> stage4_tb/ext/pm5/b2a (in-place)
I1025 13:39:57.186977 13868 net.cpp:150] Setting up stage4_tb/ext/pm5/b2a/bn
I1025 13:39:57.186985 13868 net.cpp:157] Top shape: 1 128 3 3 (1152)
I1025 13:39:57.186987 13868 net.cpp:165] Memory required for data: 201382080
I1025 13:39:57.186995 13868 layer_factory.hpp:77] Creating layer stage4_tb/ext/pm5/b2a/scale
I1025 13:39:57.187000 13868 net.cpp:100] Creating Layer stage4_tb/ext/pm5/b2a/scale
I1025 13:39:57.187006 13868 net.cpp:434] stage4_tb/ext/pm5/b2a/scale <- stage4_tb/ext/pm5/b2a
I1025 13:39:57.187014 13868 net.cpp:395] stage4_tb/ext/pm5/b2a/scale -> stage4_tb/ext/pm5/b2a (in-place)
I1025 13:39:57.187044 13868 layer_factory.hpp:77] Creating layer stage4_tb/ext/pm5/b2a/scale
I1025 13:39:57.187119 13868 net.cpp:150] Setting up stage4_tb/ext/pm5/b2a/scale
I1025 13:39:57.187126 13868 net.cpp:157] Top shape: 1 128 3 3 (1152)
I1025 13:39:57.187129 13868 net.cpp:165] Memory required for data: 201386688
I1025 13:39:57.187134 13868 layer_factory.hpp:77] Creating layer stage4_tb/ext/pm5/b2a/relu
I1025 13:39:57.187140 13868 net.cpp:100] Creating Layer stage4_tb/ext/pm5/b2a/relu
I1025 13:39:57.187144 13868 net.cpp:434] stage4_tb/ext/pm5/b2a/relu <- stage4_tb/ext/pm5/b2a
I1025 13:39:57.187151 13868 net.cpp:395] stage4_tb/ext/pm5/b2a/relu -> stage4_tb/ext/pm5/b2a (in-place)
I1025 13:39:57.187548 13868 net.cpp:150] Setting up stage4_tb/ext/pm5/b2a/relu
I1025 13:39:57.187556 13868 net.cpp:157] Top shape: 1 128 3 3 (1152)
I1025 13:39:57.187561 13868 net.cpp:165] Memory required for data: 201391296
I1025 13:39:57.187564 13868 layer_factory.hpp:77] Creating layer stage4_tb/ext/pm5/b2b
I1025 13:39:57.187574 13868 net.cpp:100] Creating Layer stage4_tb/ext/pm5/b2b
I1025 13:39:57.187579 13868 net.cpp:434] stage4_tb/ext/pm5/b2b <- stage4_tb/ext/pm5/b2a
I1025 13:39:57.187594 13868 net.cpp:408] stage4_tb/ext/pm5/b2b -> stage4_tb/ext/pm5/b2b
I1025 13:39:57.191643 13868 net.cpp:150] Setting up stage4_tb/ext/pm5/b2b
I1025 13:39:57.191655 13868 net.cpp:157] Top shape: 1 128 3 3 (1152)
I1025 13:39:57.191659 13868 net.cpp:165] Memory required for data: 201395904
I1025 13:39:57.191665 13868 layer_factory.hpp:77] Creating layer stage4_tb/ext/pm5/b2b/bn
I1025 13:39:57.191675 13868 net.cpp:100] Creating Layer stage4_tb/ext/pm5/b2b/bn
I1025 13:39:57.191680 13868 net.cpp:434] stage4_tb/ext/pm5/b2b/bn <- stage4_tb/ext/pm5/b2b
I1025 13:39:57.191689 13868 net.cpp:395] stage4_tb/ext/pm5/b2b/bn -> stage4_tb/ext/pm5/b2b (in-place)
I1025 13:39:57.191820 13868 net.cpp:150] Setting up stage4_tb/ext/pm5/b2b/bn
I1025 13:39:57.191826 13868 net.cpp:157] Top shape: 1 128 3 3 (1152)
I1025 13:39:57.191829 13868 net.cpp:165] Memory required for data: 201400512
I1025 13:39:57.191836 13868 layer_factory.hpp:77] Creating layer stage4_tb/ext/pm5/b2b/scale
I1025 13:39:57.191843 13868 net.cpp:100] Creating Layer stage4_tb/ext/pm5/b2b/scale
I1025 13:39:57.191848 13868 net.cpp:434] stage4_tb/ext/pm5/b2b/scale <- stage4_tb/ext/pm5/b2b
I1025 13:39:57.191854 13868 net.cpp:395] stage4_tb/ext/pm5/b2b/scale -> stage4_tb/ext/pm5/b2b (in-place)
I1025 13:39:57.191885 13868 layer_factory.hpp:77] Creating layer stage4_tb/ext/pm5/b2b/scale
I1025 13:39:57.191962 13868 net.cpp:150] Setting up stage4_tb/ext/pm5/b2b/scale
I1025 13:39:57.191968 13868 net.cpp:157] Top shape: 1 128 3 3 (1152)
I1025 13:39:57.191972 13868 net.cpp:165] Memory required for data: 201405120
I1025 13:39:57.191977 13868 layer_factory.hpp:77] Creating layer stage4_tb/ext/pm5/b2b/relu
I1025 13:39:57.191983 13868 net.cpp:100] Creating Layer stage4_tb/ext/pm5/b2b/relu
I1025 13:39:57.191988 13868 net.cpp:434] stage4_tb/ext/pm5/b2b/relu <- stage4_tb/ext/pm5/b2b
I1025 13:39:57.191992 13868 net.cpp:395] stage4_tb/ext/pm5/b2b/relu -> stage4_tb/ext/pm5/b2b (in-place)
I1025 13:39:57.192394 13868 net.cpp:150] Setting up stage4_tb/ext/pm5/b2b/relu
I1025 13:39:57.192404 13868 net.cpp:157] Top shape: 1 128 3 3 (1152)
I1025 13:39:57.192406 13868 net.cpp:165] Memory required for data: 201409728
I1025 13:39:57.192410 13868 layer_factory.hpp:77] Creating layer stage4_tb/ext/pm5/b2c
I1025 13:39:57.192420 13868 net.cpp:100] Creating Layer stage4_tb/ext/pm5/b2c
I1025 13:39:57.192425 13868 net.cpp:434] stage4_tb/ext/pm5/b2c <- stage4_tb/ext/pm5/b2b
I1025 13:39:57.192432 13868 net.cpp:408] stage4_tb/ext/pm5/b2c -> stage4_tb/ext/pm5/b2c
I1025 13:39:57.194703 13868 net.cpp:150] Setting up stage4_tb/ext/pm5/b2c
I1025 13:39:57.194713 13868 net.cpp:157] Top shape: 1 256 3 3 (2304)
I1025 13:39:57.194717 13868 net.cpp:165] Memory required for data: 201418944
I1025 13:39:57.194723 13868 layer_factory.hpp:77] Creating layer stage4_tb/ext/pm5/b2c/bn
I1025 13:39:57.194731 13868 net.cpp:100] Creating Layer stage4_tb/ext/pm5/b2c/bn
I1025 13:39:57.194737 13868 net.cpp:434] stage4_tb/ext/pm5/b2c/bn <- stage4_tb/ext/pm5/b2c
I1025 13:39:57.194743 13868 net.cpp:395] stage4_tb/ext/pm5/b2c/bn -> stage4_tb/ext/pm5/b2c (in-place)
I1025 13:39:57.194877 13868 net.cpp:150] Setting up stage4_tb/ext/pm5/b2c/bn
I1025 13:39:57.194883 13868 net.cpp:157] Top shape: 1 256 3 3 (2304)
I1025 13:39:57.194886 13868 net.cpp:165] Memory required for data: 201428160
I1025 13:39:57.194893 13868 layer_factory.hpp:77] Creating layer stage4_tb/ext/pm5/b2c/scale
I1025 13:39:57.194902 13868 net.cpp:100] Creating Layer stage4_tb/ext/pm5/b2c/scale
I1025 13:39:57.194907 13868 net.cpp:434] stage4_tb/ext/pm5/b2c/scale <- stage4_tb/ext/pm5/b2c
I1025 13:39:57.194912 13868 net.cpp:395] stage4_tb/ext/pm5/b2c/scale -> stage4_tb/ext/pm5/b2c (in-place)
I1025 13:39:57.194945 13868 layer_factory.hpp:77] Creating layer stage4_tb/ext/pm5/b2c/scale
I1025 13:39:57.195021 13868 net.cpp:150] Setting up stage4_tb/ext/pm5/b2c/scale
I1025 13:39:57.195027 13868 net.cpp:157] Top shape: 1 256 3 3 (2304)
I1025 13:39:57.195030 13868 net.cpp:165] Memory required for data: 201437376
I1025 13:39:57.195036 13868 layer_factory.hpp:77] Creating layer stage4_tb/ext/pm5/res
I1025 13:39:57.195053 13868 net.cpp:100] Creating Layer stage4_tb/ext/pm5/res
I1025 13:39:57.195058 13868 net.cpp:434] stage4_tb/ext/pm5/res <- stage4_tb/ext/pm5
I1025 13:39:57.195063 13868 net.cpp:434] stage4_tb/ext/pm5/res <- stage4_tb/ext/pm5/b2c
I1025 13:39:57.195071 13868 net.cpp:408] stage4_tb/ext/pm5/res -> stage4_tb/ext/pm5/res
I1025 13:39:57.195093 13868 net.cpp:150] Setting up stage4_tb/ext/pm5/res
I1025 13:39:57.195098 13868 net.cpp:157] Top shape: 1 256 3 3 (2304)
I1025 13:39:57.195101 13868 net.cpp:165] Memory required for data: 201446592
I1025 13:39:57.195106 13868 layer_factory.hpp:77] Creating layer stage4_tb/ext/pm5/res/relu
I1025 13:39:57.195109 13868 net.cpp:100] Creating Layer stage4_tb/ext/pm5/res/relu
I1025 13:39:57.195113 13868 net.cpp:434] stage4_tb/ext/pm5/res/relu <- stage4_tb/ext/pm5/res
I1025 13:39:57.195119 13868 net.cpp:395] stage4_tb/ext/pm5/res/relu -> stage4_tb/ext/pm5/res (in-place)
I1025 13:39:57.195600 13868 net.cpp:150] Setting up stage4_tb/ext/pm5/res/relu
I1025 13:39:57.195608 13868 net.cpp:157] Top shape: 1 256 3 3 (2304)
I1025 13:39:57.195611 13868 net.cpp:165] Memory required for data: 201455808
I1025 13:39:57.195614 13868 layer_factory.hpp:77] Creating layer stage4_tb/ext/pm5/res_stage4_tb/ext/pm5/res/relu_0_split
I1025 13:39:57.195624 13868 net.cpp:100] Creating Layer stage4_tb/ext/pm5/res_stage4_tb/ext/pm5/res/relu_0_split
I1025 13:39:57.195629 13868 net.cpp:434] stage4_tb/ext/pm5/res_stage4_tb/ext/pm5/res/relu_0_split <- stage4_tb/ext/pm5/res
I1025 13:39:57.195636 13868 net.cpp:408] stage4_tb/ext/pm5/res_stage4_tb/ext/pm5/res/relu_0_split -> stage4_tb/ext/pm5/res_stage4_tb/ext/pm5/res/relu_0_split_0
I1025 13:39:57.195644 13868 net.cpp:408] stage4_tb/ext/pm5/res_stage4_tb/ext/pm5/res/relu_0_split -> stage4_tb/ext/pm5/res_stage4_tb/ext/pm5/res/relu_0_split_1
I1025 13:39:57.195652 13868 net.cpp:408] stage4_tb/ext/pm5/res_stage4_tb/ext/pm5/res/relu_0_split -> stage4_tb/ext/pm5/res_stage4_tb/ext/pm5/res/relu_0_split_2
I1025 13:39:57.195693 13868 net.cpp:150] Setting up stage4_tb/ext/pm5/res_stage4_tb/ext/pm5/res/relu_0_split
I1025 13:39:57.195699 13868 net.cpp:157] Top shape: 1 256 3 3 (2304)
I1025 13:39:57.195703 13868 net.cpp:157] Top shape: 1 256 3 3 (2304)
I1025 13:39:57.195708 13868 net.cpp:157] Top shape: 1 256 3 3 (2304)
I1025 13:39:57.195710 13868 net.cpp:165] Memory required for data: 201483456
I1025 13:39:57.195713 13868 layer_factory.hpp:77] Creating layer stage4_tb/ext/pm6
I1025 13:39:57.195722 13868 net.cpp:100] Creating Layer stage4_tb/ext/pm6
I1025 13:39:57.195729 13868 net.cpp:434] stage4_tb/ext/pm6 <- ext1/fe3_2_ext1/fe3_2/relu_0_split_0
I1025 13:39:57.195734 13868 net.cpp:408] stage4_tb/ext/pm6 -> stage4_tb/ext/pm6
I1025 13:39:57.199563 13868 net.cpp:150] Setting up stage4_tb/ext/pm6
I1025 13:39:57.199575 13868 net.cpp:157] Top shape: 1 256 1 1 (256)
I1025 13:39:57.199579 13868 net.cpp:165] Memory required for data: 201484480
I1025 13:39:57.199584 13868 layer_factory.hpp:77] Creating layer stage4_tb/ext/pm6/bn
I1025 13:39:57.199592 13868 net.cpp:100] Creating Layer stage4_tb/ext/pm6/bn
I1025 13:39:57.199597 13868 net.cpp:434] stage4_tb/ext/pm6/bn <- stage4_tb/ext/pm6
I1025 13:39:57.199604 13868 net.cpp:395] stage4_tb/ext/pm6/bn -> stage4_tb/ext/pm6 (in-place)
I1025 13:39:57.199736 13868 net.cpp:150] Setting up stage4_tb/ext/pm6/bn
I1025 13:39:57.199743 13868 net.cpp:157] Top shape: 1 256 1 1 (256)
I1025 13:39:57.199745 13868 net.cpp:165] Memory required for data: 201485504
I1025 13:39:57.199753 13868 layer_factory.hpp:77] Creating layer stage4_tb/ext/pm6/scale
I1025 13:39:57.199761 13868 net.cpp:100] Creating Layer stage4_tb/ext/pm6/scale
I1025 13:39:57.199765 13868 net.cpp:434] stage4_tb/ext/pm6/scale <- stage4_tb/ext/pm6
I1025 13:39:57.199770 13868 net.cpp:395] stage4_tb/ext/pm6/scale -> stage4_tb/ext/pm6 (in-place)
I1025 13:39:57.199801 13868 layer_factory.hpp:77] Creating layer stage4_tb/ext/pm6/scale
I1025 13:39:57.199875 13868 net.cpp:150] Setting up stage4_tb/ext/pm6/scale
I1025 13:39:57.199882 13868 net.cpp:157] Top shape: 1 256 1 1 (256)
I1025 13:39:57.199895 13868 net.cpp:165] Memory required for data: 201486528
I1025 13:39:57.199901 13868 layer_factory.hpp:77] Creating layer stage4_tb/ext/pm6/b2a
I1025 13:39:57.199911 13868 net.cpp:100] Creating Layer stage4_tb/ext/pm6/b2a
I1025 13:39:57.199916 13868 net.cpp:434] stage4_tb/ext/pm6/b2a <- ext1/fe3_2_ext1/fe3_2/relu_0_split_1
I1025 13:39:57.199924 13868 net.cpp:408] stage4_tb/ext/pm6/b2a -> stage4_tb/ext/pm6/b2a
I1025 13:39:57.201612 13868 net.cpp:150] Setting up stage4_tb/ext/pm6/b2a
I1025 13:39:57.201622 13868 net.cpp:157] Top shape: 1 128 1 1 (128)
I1025 13:39:57.201624 13868 net.cpp:165] Memory required for data: 201487040
I1025 13:39:57.201629 13868 layer_factory.hpp:77] Creating layer stage4_tb/ext/pm6/b2a/bn
I1025 13:39:57.201638 13868 net.cpp:100] Creating Layer stage4_tb/ext/pm6/b2a/bn
I1025 13:39:57.201643 13868 net.cpp:434] stage4_tb/ext/pm6/b2a/bn <- stage4_tb/ext/pm6/b2a
I1025 13:39:57.201649 13868 net.cpp:395] stage4_tb/ext/pm6/b2a/bn -> stage4_tb/ext/pm6/b2a (in-place)
I1025 13:39:57.201781 13868 net.cpp:150] Setting up stage4_tb/ext/pm6/b2a/bn
I1025 13:39:57.201786 13868 net.cpp:157] Top shape: 1 128 1 1 (128)
I1025 13:39:57.201789 13868 net.cpp:165] Memory required for data: 201487552
I1025 13:39:57.201795 13868 layer_factory.hpp:77] Creating layer stage4_tb/ext/pm6/b2a/scale
I1025 13:39:57.201803 13868 net.cpp:100] Creating Layer stage4_tb/ext/pm6/b2a/scale
I1025 13:39:57.201808 13868 net.cpp:434] stage4_tb/ext/pm6/b2a/scale <- stage4_tb/ext/pm6/b2a
I1025 13:39:57.201813 13868 net.cpp:395] stage4_tb/ext/pm6/b2a/scale -> stage4_tb/ext/pm6/b2a (in-place)
I1025 13:39:57.201844 13868 layer_factory.hpp:77] Creating layer stage4_tb/ext/pm6/b2a/scale
I1025 13:39:57.201920 13868 net.cpp:150] Setting up stage4_tb/ext/pm6/b2a/scale
I1025 13:39:57.201925 13868 net.cpp:157] Top shape: 1 128 1 1 (128)
I1025 13:39:57.201928 13868 net.cpp:165] Memory required for data: 201488064
I1025 13:39:57.201933 13868 layer_factory.hpp:77] Creating layer stage4_tb/ext/pm6/b2a/relu
I1025 13:39:57.201941 13868 net.cpp:100] Creating Layer stage4_tb/ext/pm6/b2a/relu
I1025 13:39:57.201944 13868 net.cpp:434] stage4_tb/ext/pm6/b2a/relu <- stage4_tb/ext/pm6/b2a
I1025 13:39:57.201951 13868 net.cpp:395] stage4_tb/ext/pm6/b2a/relu -> stage4_tb/ext/pm6/b2a (in-place)
I1025 13:39:57.202363 13868 net.cpp:150] Setting up stage4_tb/ext/pm6/b2a/relu
I1025 13:39:57.202373 13868 net.cpp:157] Top shape: 1 128 1 1 (128)
I1025 13:39:57.202375 13868 net.cpp:165] Memory required for data: 201488576
I1025 13:39:57.202379 13868 layer_factory.hpp:77] Creating layer stage4_tb/ext/pm6/b2b
I1025 13:39:57.202389 13868 net.cpp:100] Creating Layer stage4_tb/ext/pm6/b2b
I1025 13:39:57.202392 13868 net.cpp:434] stage4_tb/ext/pm6/b2b <- stage4_tb/ext/pm6/b2a
I1025 13:39:57.202400 13868 net.cpp:408] stage4_tb/ext/pm6/b2b -> stage4_tb/ext/pm6/b2b
I1025 13:39:57.204424 13868 net.cpp:150] Setting up stage4_tb/ext/pm6/b2b
I1025 13:39:57.204435 13868 net.cpp:157] Top shape: 1 128 1 1 (128)
I1025 13:39:57.204438 13868 net.cpp:165] Memory required for data: 201489088
I1025 13:39:57.204443 13868 layer_factory.hpp:77] Creating layer stage4_tb/ext/pm6/b2b/bn
I1025 13:39:57.204452 13868 net.cpp:100] Creating Layer stage4_tb/ext/pm6/b2b/bn
I1025 13:39:57.204457 13868 net.cpp:434] stage4_tb/ext/pm6/b2b/bn <- stage4_tb/ext/pm6/b2b
I1025 13:39:57.204463 13868 net.cpp:395] stage4_tb/ext/pm6/b2b/bn -> stage4_tb/ext/pm6/b2b (in-place)
I1025 13:39:57.204596 13868 net.cpp:150] Setting up stage4_tb/ext/pm6/b2b/bn
I1025 13:39:57.204602 13868 net.cpp:157] Top shape: 1 128 1 1 (128)
I1025 13:39:57.204604 13868 net.cpp:165] Memory required for data: 201489600
I1025 13:39:57.204612 13868 layer_factory.hpp:77] Creating layer stage4_tb/ext/pm6/b2b/scale
I1025 13:39:57.204619 13868 net.cpp:100] Creating Layer stage4_tb/ext/pm6/b2b/scale
I1025 13:39:57.204624 13868 net.cpp:434] stage4_tb/ext/pm6/b2b/scale <- stage4_tb/ext/pm6/b2b
I1025 13:39:57.204630 13868 net.cpp:395] stage4_tb/ext/pm6/b2b/scale -> stage4_tb/ext/pm6/b2b (in-place)
I1025 13:39:57.204663 13868 layer_factory.hpp:77] Creating layer stage4_tb/ext/pm6/b2b/scale
I1025 13:39:57.204746 13868 net.cpp:150] Setting up stage4_tb/ext/pm6/b2b/scale
I1025 13:39:57.204751 13868 net.cpp:157] Top shape: 1 128 1 1 (128)
I1025 13:39:57.204754 13868 net.cpp:165] Memory required for data: 201490112
I1025 13:39:57.204759 13868 layer_factory.hpp:77] Creating layer stage4_tb/ext/pm6/b2b/relu
I1025 13:39:57.204764 13868 net.cpp:100] Creating Layer stage4_tb/ext/pm6/b2b/relu
I1025 13:39:57.204769 13868 net.cpp:434] stage4_tb/ext/pm6/b2b/relu <- stage4_tb/ext/pm6/b2b
I1025 13:39:57.204775 13868 net.cpp:395] stage4_tb/ext/pm6/b2b/relu -> stage4_tb/ext/pm6/b2b (in-place)
I1025 13:39:57.205175 13868 net.cpp:150] Setting up stage4_tb/ext/pm6/b2b/relu
I1025 13:39:57.205184 13868 net.cpp:157] Top shape: 1 128 1 1 (128)
I1025 13:39:57.205188 13868 net.cpp:165] Memory required for data: 201490624
I1025 13:39:57.205191 13868 layer_factory.hpp:77] Creating layer stage4_tb/ext/pm6/b2c
I1025 13:39:57.205200 13868 net.cpp:100] Creating Layer stage4_tb/ext/pm6/b2c
I1025 13:39:57.205205 13868 net.cpp:434] stage4_tb/ext/pm6/b2c <- stage4_tb/ext/pm6/b2b
I1025 13:39:57.205212 13868 net.cpp:408] stage4_tb/ext/pm6/b2c -> stage4_tb/ext/pm6/b2c
I1025 13:39:57.208791 13868 net.cpp:150] Setting up stage4_tb/ext/pm6/b2c
I1025 13:39:57.208802 13868 net.cpp:157] Top shape: 1 256 1 1 (256)
I1025 13:39:57.208806 13868 net.cpp:165] Memory required for data: 201491648
I1025 13:39:57.208811 13868 layer_factory.hpp:77] Creating layer stage4_tb/ext/pm6/b2c/bn
I1025 13:39:57.208822 13868 net.cpp:100] Creating Layer stage4_tb/ext/pm6/b2c/bn
I1025 13:39:57.208827 13868 net.cpp:434] stage4_tb/ext/pm6/b2c/bn <- stage4_tb/ext/pm6/b2c
I1025 13:39:57.208833 13868 net.cpp:395] stage4_tb/ext/pm6/b2c/bn -> stage4_tb/ext/pm6/b2c (in-place)
I1025 13:39:57.208962 13868 net.cpp:150] Setting up stage4_tb/ext/pm6/b2c/bn
I1025 13:39:57.208968 13868 net.cpp:157] Top shape: 1 256 1 1 (256)
I1025 13:39:57.208971 13868 net.cpp:165] Memory required for data: 201492672
I1025 13:39:57.208977 13868 layer_factory.hpp:77] Creating layer stage4_tb/ext/pm6/b2c/scale
I1025 13:39:57.208984 13868 net.cpp:100] Creating Layer stage4_tb/ext/pm6/b2c/scale
I1025 13:39:57.208988 13868 net.cpp:434] stage4_tb/ext/pm6/b2c/scale <- stage4_tb/ext/pm6/b2c
I1025 13:39:57.208997 13868 net.cpp:395] stage4_tb/ext/pm6/b2c/scale -> stage4_tb/ext/pm6/b2c (in-place)
I1025 13:39:57.209025 13868 layer_factory.hpp:77] Creating layer stage4_tb/ext/pm6/b2c/scale
I1025 13:39:57.209100 13868 net.cpp:150] Setting up stage4_tb/ext/pm6/b2c/scale
I1025 13:39:57.209106 13868 net.cpp:157] Top shape: 1 256 1 1 (256)
I1025 13:39:57.209110 13868 net.cpp:165] Memory required for data: 201493696
I1025 13:39:57.209115 13868 layer_factory.hpp:77] Creating layer stage4_tb/ext/pm6/res
I1025 13:39:57.209121 13868 net.cpp:100] Creating Layer stage4_tb/ext/pm6/res
I1025 13:39:57.209125 13868 net.cpp:434] stage4_tb/ext/pm6/res <- stage4_tb/ext/pm6
I1025 13:39:57.209129 13868 net.cpp:434] stage4_tb/ext/pm6/res <- stage4_tb/ext/pm6/b2c
I1025 13:39:57.209136 13868 net.cpp:408] stage4_tb/ext/pm6/res -> stage4_tb/ext/pm6/res
I1025 13:39:57.209156 13868 net.cpp:150] Setting up stage4_tb/ext/pm6/res
I1025 13:39:57.209161 13868 net.cpp:157] Top shape: 1 256 1 1 (256)
I1025 13:39:57.209164 13868 net.cpp:165] Memory required for data: 201494720
I1025 13:39:57.209167 13868 layer_factory.hpp:77] Creating layer stage4_tb/ext/pm6/res/relu
I1025 13:39:57.209172 13868 net.cpp:100] Creating Layer stage4_tb/ext/pm6/res/relu
I1025 13:39:57.209177 13868 net.cpp:434] stage4_tb/ext/pm6/res/relu <- stage4_tb/ext/pm6/res
I1025 13:39:57.209182 13868 net.cpp:395] stage4_tb/ext/pm6/res/relu -> stage4_tb/ext/pm6/res (in-place)
I1025 13:39:57.209591 13868 net.cpp:150] Setting up stage4_tb/ext/pm6/res/relu
I1025 13:39:57.209600 13868 net.cpp:157] Top shape: 1 256 1 1 (256)
I1025 13:39:57.209604 13868 net.cpp:165] Memory required for data: 201495744
I1025 13:39:57.209607 13868 layer_factory.hpp:77] Creating layer stage4_tb/ext/pm6/res_stage4_tb/ext/pm6/res/relu_0_split
I1025 13:39:57.209623 13868 net.cpp:100] Creating Layer stage4_tb/ext/pm6/res_stage4_tb/ext/pm6/res/relu_0_split
I1025 13:39:57.209628 13868 net.cpp:434] stage4_tb/ext/pm6/res_stage4_tb/ext/pm6/res/relu_0_split <- stage4_tb/ext/pm6/res
I1025 13:39:57.209637 13868 net.cpp:408] stage4_tb/ext/pm6/res_stage4_tb/ext/pm6/res/relu_0_split -> stage4_tb/ext/pm6/res_stage4_tb/ext/pm6/res/relu_0_split_0
I1025 13:39:57.209645 13868 net.cpp:408] stage4_tb/ext/pm6/res_stage4_tb/ext/pm6/res/relu_0_split -> stage4_tb/ext/pm6/res_stage4_tb/ext/pm6/res/relu_0_split_1
I1025 13:39:57.209655 13868 net.cpp:408] stage4_tb/ext/pm6/res_stage4_tb/ext/pm6/res/relu_0_split -> stage4_tb/ext/pm6/res_stage4_tb/ext/pm6/res/relu_0_split_2
I1025 13:39:57.209697 13868 net.cpp:150] Setting up stage4_tb/ext/pm6/res_stage4_tb/ext/pm6/res/relu_0_split
I1025 13:39:57.209702 13868 net.cpp:157] Top shape: 1 256 1 1 (256)
I1025 13:39:57.209707 13868 net.cpp:157] Top shape: 1 256 1 1 (256)
I1025 13:39:57.209709 13868 net.cpp:157] Top shape: 1 256 1 1 (256)
I1025 13:39:57.209713 13868 net.cpp:165] Memory required for data: 201498816
I1025 13:39:57.209717 13868 layer_factory.hpp:77] Creating layer ext/pm1_mbox_loc
I1025 13:39:57.209728 13868 net.cpp:100] Creating Layer ext/pm1_mbox_loc
I1025 13:39:57.209731 13868 net.cpp:434] ext/pm1_mbox_loc <- stage4_tb/ext/pm1/res_stage4_tb/ext/pm1/res/relu_0_split_0
I1025 13:39:57.209741 13868 net.cpp:408] ext/pm1_mbox_loc -> ext/pm1_mbox_loc
I1025 13:39:57.211371 13868 net.cpp:150] Setting up ext/pm1_mbox_loc
I1025 13:39:57.211381 13868 net.cpp:157] Top shape: 1 16 38 38 (23104)
I1025 13:39:57.211385 13868 net.cpp:165] Memory required for data: 201591232
I1025 13:39:57.211391 13868 layer_factory.hpp:77] Creating layer ext/pm1_mbox_loc_perm
I1025 13:39:57.211400 13868 net.cpp:100] Creating Layer ext/pm1_mbox_loc_perm
I1025 13:39:57.211405 13868 net.cpp:434] ext/pm1_mbox_loc_perm <- ext/pm1_mbox_loc
I1025 13:39:57.211411 13868 net.cpp:408] ext/pm1_mbox_loc_perm -> ext/pm1_mbox_loc_perm
I1025 13:39:57.211489 13868 net.cpp:150] Setting up ext/pm1_mbox_loc_perm
I1025 13:39:57.211498 13868 net.cpp:157] Top shape: 1 38 38 16 (23104)
I1025 13:39:57.211501 13868 net.cpp:165] Memory required for data: 201683648
I1025 13:39:57.211504 13868 layer_factory.hpp:77] Creating layer ext/pm1_mbox_loc_flat
I1025 13:39:57.211511 13868 net.cpp:100] Creating Layer ext/pm1_mbox_loc_flat
I1025 13:39:57.211515 13868 net.cpp:434] ext/pm1_mbox_loc_flat <- ext/pm1_mbox_loc_perm
I1025 13:39:57.211522 13868 net.cpp:408] ext/pm1_mbox_loc_flat -> ext/pm1_mbox_loc_flat
I1025 13:39:57.211540 13868 net.cpp:150] Setting up ext/pm1_mbox_loc_flat
I1025 13:39:57.211547 13868 net.cpp:157] Top shape: 1 23104 (23104)
I1025 13:39:57.211550 13868 net.cpp:165] Memory required for data: 201776064
I1025 13:39:57.211553 13868 layer_factory.hpp:77] Creating layer ext/pm1_mbox_conf
I1025 13:39:57.211561 13868 net.cpp:100] Creating Layer ext/pm1_mbox_conf
I1025 13:39:57.211566 13868 net.cpp:434] ext/pm1_mbox_conf <- stage4_tb/ext/pm1/res_stage4_tb/ext/pm1/res/relu_0_split_1
I1025 13:39:57.211572 13868 net.cpp:408] ext/pm1_mbox_conf -> ext/pm1_mbox_conf
I1025 13:39:57.213096 13868 net.cpp:150] Setting up ext/pm1_mbox_conf
I1025 13:39:57.213105 13868 net.cpp:157] Top shape: 1 48 38 38 (69312)
I1025 13:39:57.213109 13868 net.cpp:165] Memory required for data: 202053312
I1025 13:39:57.213115 13868 layer_factory.hpp:77] Creating layer ext/pm1_mbox_conf_perm
I1025 13:39:57.213122 13868 net.cpp:100] Creating Layer ext/pm1_mbox_conf_perm
I1025 13:39:57.213127 13868 net.cpp:434] ext/pm1_mbox_conf_perm <- ext/pm1_mbox_conf
I1025 13:39:57.213136 13868 net.cpp:408] ext/pm1_mbox_conf_perm -> ext/pm1_mbox_conf_perm
I1025 13:39:57.213210 13868 net.cpp:150] Setting up ext/pm1_mbox_conf_perm
I1025 13:39:57.213217 13868 net.cpp:157] Top shape: 1 38 38 48 (69312)
I1025 13:39:57.213220 13868 net.cpp:165] Memory required for data: 202330560
I1025 13:39:57.213225 13868 layer_factory.hpp:77] Creating layer ext/pm1_mbox_conf_flat
I1025 13:39:57.213232 13868 net.cpp:100] Creating Layer ext/pm1_mbox_conf_flat
I1025 13:39:57.213244 13868 net.cpp:434] ext/pm1_mbox_conf_flat <- ext/pm1_mbox_conf_perm
I1025 13:39:57.213250 13868 net.cpp:408] ext/pm1_mbox_conf_flat -> ext/pm1_mbox_conf_flat
I1025 13:39:57.213271 13868 net.cpp:150] Setting up ext/pm1_mbox_conf_flat
I1025 13:39:57.213276 13868 net.cpp:157] Top shape: 1 69312 (69312)
I1025 13:39:57.213279 13868 net.cpp:165] Memory required for data: 202607808
I1025 13:39:57.213282 13868 layer_factory.hpp:77] Creating layer ext/pm1_mbox_priorbox
I1025 13:39:57.213290 13868 net.cpp:100] Creating Layer ext/pm1_mbox_priorbox
I1025 13:39:57.213295 13868 net.cpp:434] ext/pm1_mbox_priorbox <- stage4_tb/ext/pm1/res_stage4_tb/ext/pm1/res/relu_0_split_2
I1025 13:39:57.213299 13868 net.cpp:434] ext/pm1_mbox_priorbox <- data_data_0_split_1
I1025 13:39:57.213305 13868 net.cpp:408] ext/pm1_mbox_priorbox -> ext/pm1_mbox_priorbox
I1025 13:39:57.213327 13868 net.cpp:150] Setting up ext/pm1_mbox_priorbox
I1025 13:39:57.213335 13868 net.cpp:157] Top shape: 1 2 23104 (46208)
I1025 13:39:57.213338 13868 net.cpp:165] Memory required for data: 202792640
I1025 13:39:57.213341 13868 layer_factory.hpp:77] Creating layer ext/pm2_mbox_loc
I1025 13:39:57.213349 13868 net.cpp:100] Creating Layer ext/pm2_mbox_loc
I1025 13:39:57.213353 13868 net.cpp:434] ext/pm2_mbox_loc <- stage4_tb/ext/pm2/res_stage4_tb/ext/pm2/res/relu_0_split_0
I1025 13:39:57.213361 13868 net.cpp:408] ext/pm2_mbox_loc -> ext/pm2_mbox_loc
I1025 13:39:57.216912 13868 net.cpp:150] Setting up ext/pm2_mbox_loc
I1025 13:39:57.216922 13868 net.cpp:157] Top shape: 1 24 19 19 (8664)
I1025 13:39:57.216926 13868 net.cpp:165] Memory required for data: 202827296
I1025 13:39:57.216933 13868 layer_factory.hpp:77] Creating layer ext/pm2_mbox_loc_perm
I1025 13:39:57.216939 13868 net.cpp:100] Creating Layer ext/pm2_mbox_loc_perm
I1025 13:39:57.216944 13868 net.cpp:434] ext/pm2_mbox_loc_perm <- ext/pm2_mbox_loc
I1025 13:39:57.216953 13868 net.cpp:408] ext/pm2_mbox_loc_perm -> ext/pm2_mbox_loc_perm
I1025 13:39:57.217027 13868 net.cpp:150] Setting up ext/pm2_mbox_loc_perm
I1025 13:39:57.217033 13868 net.cpp:157] Top shape: 1 19 19 24 (8664)
I1025 13:39:57.217037 13868 net.cpp:165] Memory required for data: 202861952
I1025 13:39:57.217041 13868 layer_factory.hpp:77] Creating layer ext/pm2_mbox_loc_flat
I1025 13:39:57.217046 13868 net.cpp:100] Creating Layer ext/pm2_mbox_loc_flat
I1025 13:39:57.217051 13868 net.cpp:434] ext/pm2_mbox_loc_flat <- ext/pm2_mbox_loc_perm
I1025 13:39:57.217058 13868 net.cpp:408] ext/pm2_mbox_loc_flat -> ext/pm2_mbox_loc_flat
I1025 13:39:57.217077 13868 net.cpp:150] Setting up ext/pm2_mbox_loc_flat
I1025 13:39:57.217082 13868 net.cpp:157] Top shape: 1 8664 (8664)
I1025 13:39:57.217085 13868 net.cpp:165] Memory required for data: 202896608
I1025 13:39:57.217088 13868 layer_factory.hpp:77] Creating layer ext/pm2_mbox_conf
I1025 13:39:57.217100 13868 net.cpp:100] Creating Layer ext/pm2_mbox_conf
I1025 13:39:57.217104 13868 net.cpp:434] ext/pm2_mbox_conf <- stage4_tb/ext/pm2/res_stage4_tb/ext/pm2/res/relu_0_split_1
I1025 13:39:57.217110 13868 net.cpp:408] ext/pm2_mbox_conf -> ext/pm2_mbox_conf
I1025 13:39:57.218770 13868 net.cpp:150] Setting up ext/pm2_mbox_conf
I1025 13:39:57.218780 13868 net.cpp:157] Top shape: 1 72 19 19 (25992)
I1025 13:39:57.218783 13868 net.cpp:165] Memory required for data: 203000576
I1025 13:39:57.218789 13868 layer_factory.hpp:77] Creating layer ext/pm2_mbox_conf_perm
I1025 13:39:57.218798 13868 net.cpp:100] Creating Layer ext/pm2_mbox_conf_perm
I1025 13:39:57.218803 13868 net.cpp:434] ext/pm2_mbox_conf_perm <- ext/pm2_mbox_conf
I1025 13:39:57.218809 13868 net.cpp:408] ext/pm2_mbox_conf_perm -> ext/pm2_mbox_conf_perm
I1025 13:39:57.218881 13868 net.cpp:150] Setting up ext/pm2_mbox_conf_perm
I1025 13:39:57.218888 13868 net.cpp:157] Top shape: 1 19 19 72 (25992)
I1025 13:39:57.218891 13868 net.cpp:165] Memory required for data: 203104544
I1025 13:39:57.218894 13868 layer_factory.hpp:77] Creating layer ext/pm2_mbox_conf_flat
I1025 13:39:57.218899 13868 net.cpp:100] Creating Layer ext/pm2_mbox_conf_flat
I1025 13:39:57.218904 13868 net.cpp:434] ext/pm2_mbox_conf_flat <- ext/pm2_mbox_conf_perm
I1025 13:39:57.218920 13868 net.cpp:408] ext/pm2_mbox_conf_flat -> ext/pm2_mbox_conf_flat
I1025 13:39:57.218941 13868 net.cpp:150] Setting up ext/pm2_mbox_conf_flat
I1025 13:39:57.218946 13868 net.cpp:157] Top shape: 1 25992 (25992)
I1025 13:39:57.218950 13868 net.cpp:165] Memory required for data: 203208512
I1025 13:39:57.218953 13868 layer_factory.hpp:77] Creating layer ext/pm2_mbox_priorbox
I1025 13:39:57.218958 13868 net.cpp:100] Creating Layer ext/pm2_mbox_priorbox
I1025 13:39:57.218962 13868 net.cpp:434] ext/pm2_mbox_priorbox <- stage4_tb/ext/pm2/res_stage4_tb/ext/pm2/res/relu_0_split_2
I1025 13:39:57.218968 13868 net.cpp:434] ext/pm2_mbox_priorbox <- data_data_0_split_2
I1025 13:39:57.218976 13868 net.cpp:408] ext/pm2_mbox_priorbox -> ext/pm2_mbox_priorbox
I1025 13:39:57.218999 13868 net.cpp:150] Setting up ext/pm2_mbox_priorbox
I1025 13:39:57.219004 13868 net.cpp:157] Top shape: 1 2 8664 (17328)
I1025 13:39:57.219008 13868 net.cpp:165] Memory required for data: 203277824
I1025 13:39:57.219012 13868 layer_factory.hpp:77] Creating layer ext/pm3_mbox_loc
I1025 13:39:57.219019 13868 net.cpp:100] Creating Layer ext/pm3_mbox_loc
I1025 13:39:57.219024 13868 net.cpp:434] ext/pm3_mbox_loc <- stage4_tb/ext/pm3/res_stage4_tb/ext/pm3/res/relu_0_split_0
I1025 13:39:57.219033 13868 net.cpp:408] ext/pm3_mbox_loc -> ext/pm3_mbox_loc
I1025 13:39:57.220526 13868 net.cpp:150] Setting up ext/pm3_mbox_loc
I1025 13:39:57.220535 13868 net.cpp:157] Top shape: 1 24 10 10 (2400)
I1025 13:39:57.220538 13868 net.cpp:165] Memory required for data: 203287424
I1025 13:39:57.220546 13868 layer_factory.hpp:77] Creating layer ext/pm3_mbox_loc_perm
I1025 13:39:57.220553 13868 net.cpp:100] Creating Layer ext/pm3_mbox_loc_perm
I1025 13:39:57.220558 13868 net.cpp:434] ext/pm3_mbox_loc_perm <- ext/pm3_mbox_loc
I1025 13:39:57.220564 13868 net.cpp:408] ext/pm3_mbox_loc_perm -> ext/pm3_mbox_loc_perm
I1025 13:39:57.220636 13868 net.cpp:150] Setting up ext/pm3_mbox_loc_perm
I1025 13:39:57.220643 13868 net.cpp:157] Top shape: 1 10 10 24 (2400)
I1025 13:39:57.220645 13868 net.cpp:165] Memory required for data: 203297024
I1025 13:39:57.220649 13868 layer_factory.hpp:77] Creating layer ext/pm3_mbox_loc_flat
I1025 13:39:57.220654 13868 net.cpp:100] Creating Layer ext/pm3_mbox_loc_flat
I1025 13:39:57.220657 13868 net.cpp:434] ext/pm3_mbox_loc_flat <- ext/pm3_mbox_loc_perm
I1025 13:39:57.220664 13868 net.cpp:408] ext/pm3_mbox_loc_flat -> ext/pm3_mbox_loc_flat
I1025 13:39:57.220683 13868 net.cpp:150] Setting up ext/pm3_mbox_loc_flat
I1025 13:39:57.220690 13868 net.cpp:157] Top shape: 1 2400 (2400)
I1025 13:39:57.220691 13868 net.cpp:165] Memory required for data: 203306624
I1025 13:39:57.220695 13868 layer_factory.hpp:77] Creating layer ext/pm3_mbox_conf
I1025 13:39:57.220705 13868 net.cpp:100] Creating Layer ext/pm3_mbox_conf
I1025 13:39:57.220710 13868 net.cpp:434] ext/pm3_mbox_conf <- stage4_tb/ext/pm3/res_stage4_tb/ext/pm3/res/relu_0_split_1
I1025 13:39:57.220716 13868 net.cpp:408] ext/pm3_mbox_conf -> ext/pm3_mbox_conf
I1025 13:39:57.224426 13868 net.cpp:150] Setting up ext/pm3_mbox_conf
I1025 13:39:57.224436 13868 net.cpp:157] Top shape: 1 72 10 10 (7200)
I1025 13:39:57.224440 13868 net.cpp:165] Memory required for data: 203335424
I1025 13:39:57.224447 13868 layer_factory.hpp:77] Creating layer ext/pm3_mbox_conf_perm
I1025 13:39:57.224455 13868 net.cpp:100] Creating Layer ext/pm3_mbox_conf_perm
I1025 13:39:57.224460 13868 net.cpp:434] ext/pm3_mbox_conf_perm <- ext/pm3_mbox_conf
I1025 13:39:57.224469 13868 net.cpp:408] ext/pm3_mbox_conf_perm -> ext/pm3_mbox_conf_perm
I1025 13:39:57.224543 13868 net.cpp:150] Setting up ext/pm3_mbox_conf_perm
I1025 13:39:57.224550 13868 net.cpp:157] Top shape: 1 10 10 72 (7200)
I1025 13:39:57.224552 13868 net.cpp:165] Memory required for data: 203364224
I1025 13:39:57.224556 13868 layer_factory.hpp:77] Creating layer ext/pm3_mbox_conf_flat
I1025 13:39:57.224562 13868 net.cpp:100] Creating Layer ext/pm3_mbox_conf_flat
I1025 13:39:57.224567 13868 net.cpp:434] ext/pm3_mbox_conf_flat <- ext/pm3_mbox_conf_perm
I1025 13:39:57.224583 13868 net.cpp:408] ext/pm3_mbox_conf_flat -> ext/pm3_mbox_conf_flat
I1025 13:39:57.224606 13868 net.cpp:150] Setting up ext/pm3_mbox_conf_flat
I1025 13:39:57.224611 13868 net.cpp:157] Top shape: 1 7200 (7200)
I1025 13:39:57.224613 13868 net.cpp:165] Memory required for data: 203393024
I1025 13:39:57.224617 13868 layer_factory.hpp:77] Creating layer ext/pm3_mbox_priorbox
I1025 13:39:57.224624 13868 net.cpp:100] Creating Layer ext/pm3_mbox_priorbox
I1025 13:39:57.224629 13868 net.cpp:434] ext/pm3_mbox_priorbox <- stage4_tb/ext/pm3/res_stage4_tb/ext/pm3/res/relu_0_split_2
I1025 13:39:57.224633 13868 net.cpp:434] ext/pm3_mbox_priorbox <- data_data_0_split_3
I1025 13:39:57.224640 13868 net.cpp:408] ext/pm3_mbox_priorbox -> ext/pm3_mbox_priorbox
I1025 13:39:57.224663 13868 net.cpp:150] Setting up ext/pm3_mbox_priorbox
I1025 13:39:57.224668 13868 net.cpp:157] Top shape: 1 2 2400 (4800)
I1025 13:39:57.224671 13868 net.cpp:165] Memory required for data: 203412224
I1025 13:39:57.224674 13868 layer_factory.hpp:77] Creating layer ext/pm4_mbox_loc
I1025 13:39:57.224684 13868 net.cpp:100] Creating Layer ext/pm4_mbox_loc
I1025 13:39:57.224689 13868 net.cpp:434] ext/pm4_mbox_loc <- stage4_tb/ext/pm4/res_stage4_tb/ext/pm4/res/relu_0_split_0
I1025 13:39:57.224695 13868 net.cpp:408] ext/pm4_mbox_loc -> ext/pm4_mbox_loc
I1025 13:39:57.226322 13868 net.cpp:150] Setting up ext/pm4_mbox_loc
I1025 13:39:57.226332 13868 net.cpp:157] Top shape: 1 24 5 5 (600)
I1025 13:39:57.226336 13868 net.cpp:165] Memory required for data: 203414624
I1025 13:39:57.226341 13868 layer_factory.hpp:77] Creating layer ext/pm4_mbox_loc_perm
I1025 13:39:57.226351 13868 net.cpp:100] Creating Layer ext/pm4_mbox_loc_perm
I1025 13:39:57.226356 13868 net.cpp:434] ext/pm4_mbox_loc_perm <- ext/pm4_mbox_loc
I1025 13:39:57.226362 13868 net.cpp:408] ext/pm4_mbox_loc_perm -> ext/pm4_mbox_loc_perm
I1025 13:39:57.226436 13868 net.cpp:150] Setting up ext/pm4_mbox_loc_perm
I1025 13:39:57.226442 13868 net.cpp:157] Top shape: 1 5 5 24 (600)
I1025 13:39:57.226445 13868 net.cpp:165] Memory required for data: 203417024
I1025 13:39:57.226449 13868 layer_factory.hpp:77] Creating layer ext/pm4_mbox_loc_flat
I1025 13:39:57.226455 13868 net.cpp:100] Creating Layer ext/pm4_mbox_loc_flat
I1025 13:39:57.226460 13868 net.cpp:434] ext/pm4_mbox_loc_flat <- ext/pm4_mbox_loc_perm
I1025 13:39:57.226466 13868 net.cpp:408] ext/pm4_mbox_loc_flat -> ext/pm4_mbox_loc_flat
I1025 13:39:57.226486 13868 net.cpp:150] Setting up ext/pm4_mbox_loc_flat
I1025 13:39:57.226491 13868 net.cpp:157] Top shape: 1 600 (600)
I1025 13:39:57.226495 13868 net.cpp:165] Memory required for data: 203419424
I1025 13:39:57.226497 13868 layer_factory.hpp:77] Creating layer ext/pm4_mbox_conf
I1025 13:39:57.226506 13868 net.cpp:100] Creating Layer ext/pm4_mbox_conf
I1025 13:39:57.226511 13868 net.cpp:434] ext/pm4_mbox_conf <- stage4_tb/ext/pm4/res_stage4_tb/ext/pm4/res/relu_0_split_1
I1025 13:39:57.226518 13868 net.cpp:408] ext/pm4_mbox_conf -> ext/pm4_mbox_conf
I1025 13:39:57.228896 13868 net.cpp:150] Setting up ext/pm4_mbox_conf
I1025 13:39:57.228906 13868 net.cpp:157] Top shape: 1 72 5 5 (1800)
I1025 13:39:57.228910 13868 net.cpp:165] Memory required for data: 203426624
I1025 13:39:57.228916 13868 layer_factory.hpp:77] Creating layer ext/pm4_mbox_conf_perm
I1025 13:39:57.228924 13868 net.cpp:100] Creating Layer ext/pm4_mbox_conf_perm
I1025 13:39:57.228929 13868 net.cpp:434] ext/pm4_mbox_conf_perm <- ext/pm4_mbox_conf
I1025 13:39:57.228938 13868 net.cpp:408] ext/pm4_mbox_conf_perm -> ext/pm4_mbox_conf_perm
I1025 13:39:57.229012 13868 net.cpp:150] Setting up ext/pm4_mbox_conf_perm
I1025 13:39:57.229019 13868 net.cpp:157] Top shape: 1 5 5 72 (1800)
I1025 13:39:57.229022 13868 net.cpp:165] Memory required for data: 203433824
I1025 13:39:57.229025 13868 layer_factory.hpp:77] Creating layer ext/pm4_mbox_conf_flat
I1025 13:39:57.229032 13868 net.cpp:100] Creating Layer ext/pm4_mbox_conf_flat
I1025 13:39:57.229037 13868 net.cpp:434] ext/pm4_mbox_conf_flat <- ext/pm4_mbox_conf_perm
I1025 13:39:57.229055 13868 net.cpp:408] ext/pm4_mbox_conf_flat -> ext/pm4_mbox_conf_flat
I1025 13:39:57.229074 13868 net.cpp:150] Setting up ext/pm4_mbox_conf_flat
I1025 13:39:57.229079 13868 net.cpp:157] Top shape: 1 1800 (1800)
I1025 13:39:57.229084 13868 net.cpp:165] Memory required for data: 203441024
I1025 13:39:57.229086 13868 layer_factory.hpp:77] Creating layer ext/pm4_mbox_priorbox
I1025 13:39:57.229094 13868 net.cpp:100] Creating Layer ext/pm4_mbox_priorbox
I1025 13:39:57.229099 13868 net.cpp:434] ext/pm4_mbox_priorbox <- stage4_tb/ext/pm4/res_stage4_tb/ext/pm4/res/relu_0_split_2
I1025 13:39:57.229104 13868 net.cpp:434] ext/pm4_mbox_priorbox <- data_data_0_split_4
I1025 13:39:57.229112 13868 net.cpp:408] ext/pm4_mbox_priorbox -> ext/pm4_mbox_priorbox
I1025 13:39:57.229133 13868 net.cpp:150] Setting up ext/pm4_mbox_priorbox
I1025 13:39:57.229140 13868 net.cpp:157] Top shape: 1 2 600 (1200)
I1025 13:39:57.229142 13868 net.cpp:165] Memory required for data: 203445824
I1025 13:39:57.229146 13868 layer_factory.hpp:77] Creating layer ext/pm5_mbox_loc
I1025 13:39:57.229156 13868 net.cpp:100] Creating Layer ext/pm5_mbox_loc
I1025 13:39:57.229161 13868 net.cpp:434] ext/pm5_mbox_loc <- stage4_tb/ext/pm5/res_stage4_tb/ext/pm5/res/relu_0_split_0
I1025 13:39:57.229166 13868 net.cpp:408] ext/pm5_mbox_loc -> ext/pm5_mbox_loc
I1025 13:39:57.230675 13868 net.cpp:150] Setting up ext/pm5_mbox_loc
I1025 13:39:57.230685 13868 net.cpp:157] Top shape: 1 16 3 3 (144)
I1025 13:39:57.230688 13868 net.cpp:165] Memory required for data: 203446400
I1025 13:39:57.230695 13868 layer_factory.hpp:77] Creating layer ext/pm5_mbox_loc_perm
I1025 13:39:57.230702 13868 net.cpp:100] Creating Layer ext/pm5_mbox_loc_perm
I1025 13:39:57.230707 13868 net.cpp:434] ext/pm5_mbox_loc_perm <- ext/pm5_mbox_loc
I1025 13:39:57.230715 13868 net.cpp:408] ext/pm5_mbox_loc_perm -> ext/pm5_mbox_loc_perm
I1025 13:39:57.230790 13868 net.cpp:150] Setting up ext/pm5_mbox_loc_perm
I1025 13:39:57.230795 13868 net.cpp:157] Top shape: 1 3 3 16 (144)
I1025 13:39:57.230798 13868 net.cpp:165] Memory required for data: 203446976
I1025 13:39:57.230801 13868 layer_factory.hpp:77] Creating layer ext/pm5_mbox_loc_flat
I1025 13:39:57.230809 13868 net.cpp:100] Creating Layer ext/pm5_mbox_loc_flat
I1025 13:39:57.230813 13868 net.cpp:434] ext/pm5_mbox_loc_flat <- ext/pm5_mbox_loc_perm
I1025 13:39:57.230818 13868 net.cpp:408] ext/pm5_mbox_loc_flat -> ext/pm5_mbox_loc_flat
I1025 13:39:57.230837 13868 net.cpp:150] Setting up ext/pm5_mbox_loc_flat
I1025 13:39:57.230844 13868 net.cpp:157] Top shape: 1 144 (144)
I1025 13:39:57.230846 13868 net.cpp:165] Memory required for data: 203447552
I1025 13:39:57.230849 13868 layer_factory.hpp:77] Creating layer ext/pm5_mbox_conf
I1025 13:39:57.230859 13868 net.cpp:100] Creating Layer ext/pm5_mbox_conf
I1025 13:39:57.230864 13868 net.cpp:434] ext/pm5_mbox_conf <- stage4_tb/ext/pm5/res_stage4_tb/ext/pm5/res/relu_0_split_1
I1025 13:39:57.230870 13868 net.cpp:408] ext/pm5_mbox_conf -> ext/pm5_mbox_conf
I1025 13:39:57.234652 13868 net.cpp:150] Setting up ext/pm5_mbox_conf
I1025 13:39:57.234663 13868 net.cpp:157] Top shape: 1 48 3 3 (432)
I1025 13:39:57.234668 13868 net.cpp:165] Memory required for data: 203449280
I1025 13:39:57.234674 13868 layer_factory.hpp:77] Creating layer ext/pm5_mbox_conf_perm
I1025 13:39:57.234683 13868 net.cpp:100] Creating Layer ext/pm5_mbox_conf_perm
I1025 13:39:57.234688 13868 net.cpp:434] ext/pm5_mbox_conf_perm <- ext/pm5_mbox_conf
I1025 13:39:57.234694 13868 net.cpp:408] ext/pm5_mbox_conf_perm -> ext/pm5_mbox_conf_perm
I1025 13:39:57.234771 13868 net.cpp:150] Setting up ext/pm5_mbox_conf_perm
I1025 13:39:57.234777 13868 net.cpp:157] Top shape: 1 3 3 48 (432)
I1025 13:39:57.234779 13868 net.cpp:165] Memory required for data: 203451008
I1025 13:39:57.234783 13868 layer_factory.hpp:77] Creating layer ext/pm5_mbox_conf_flat
I1025 13:39:57.234788 13868 net.cpp:100] Creating Layer ext/pm5_mbox_conf_flat
I1025 13:39:57.234792 13868 net.cpp:434] ext/pm5_mbox_conf_flat <- ext/pm5_mbox_conf_perm
I1025 13:39:57.234800 13868 net.cpp:408] ext/pm5_mbox_conf_flat -> ext/pm5_mbox_conf_flat
I1025 13:39:57.234831 13868 net.cpp:150] Setting up ext/pm5_mbox_conf_flat
I1025 13:39:57.234836 13868 net.cpp:157] Top shape: 1 432 (432)
I1025 13:39:57.234839 13868 net.cpp:165] Memory required for data: 203452736
I1025 13:39:57.234843 13868 layer_factory.hpp:77] Creating layer ext/pm5_mbox_priorbox
I1025 13:39:57.234848 13868 net.cpp:100] Creating Layer ext/pm5_mbox_priorbox
I1025 13:39:57.234853 13868 net.cpp:434] ext/pm5_mbox_priorbox <- stage4_tb/ext/pm5/res_stage4_tb/ext/pm5/res/relu_0_split_2
I1025 13:39:57.234858 13868 net.cpp:434] ext/pm5_mbox_priorbox <- data_data_0_split_5
I1025 13:39:57.234867 13868 net.cpp:408] ext/pm5_mbox_priorbox -> ext/pm5_mbox_priorbox
I1025 13:39:57.234892 13868 net.cpp:150] Setting up ext/pm5_mbox_priorbox
I1025 13:39:57.234897 13868 net.cpp:157] Top shape: 1 2 144 (288)
I1025 13:39:57.234899 13868 net.cpp:165] Memory required for data: 203453888
I1025 13:39:57.234902 13868 layer_factory.hpp:77] Creating layer ext/pm6_mbox_loc
I1025 13:39:57.234912 13868 net.cpp:100] Creating Layer ext/pm6_mbox_loc
I1025 13:39:57.234917 13868 net.cpp:434] ext/pm6_mbox_loc <- stage4_tb/ext/pm6/res_stage4_tb/ext/pm6/res/relu_0_split_0
I1025 13:39:57.234925 13868 net.cpp:408] ext/pm6_mbox_loc -> ext/pm6_mbox_loc
I1025 13:39:57.236428 13868 net.cpp:150] Setting up ext/pm6_mbox_loc
I1025 13:39:57.236438 13868 net.cpp:157] Top shape: 1 16 1 1 (16)
I1025 13:39:57.236440 13868 net.cpp:165] Memory required for data: 203453952
I1025 13:39:57.236447 13868 layer_factory.hpp:77] Creating layer ext/pm6_mbox_loc_perm
I1025 13:39:57.236455 13868 net.cpp:100] Creating Layer ext/pm6_mbox_loc_perm
I1025 13:39:57.236460 13868 net.cpp:434] ext/pm6_mbox_loc_perm <- ext/pm6_mbox_loc
I1025 13:39:57.236466 13868 net.cpp:408] ext/pm6_mbox_loc_perm -> ext/pm6_mbox_loc_perm
I1025 13:39:57.236539 13868 net.cpp:150] Setting up ext/pm6_mbox_loc_perm
I1025 13:39:57.236546 13868 net.cpp:157] Top shape: 1 1 1 16 (16)
I1025 13:39:57.236548 13868 net.cpp:165] Memory required for data: 203454016
I1025 13:39:57.236552 13868 layer_factory.hpp:77] Creating layer ext/pm6_mbox_loc_flat
I1025 13:39:57.236557 13868 net.cpp:100] Creating Layer ext/pm6_mbox_loc_flat
I1025 13:39:57.236560 13868 net.cpp:434] ext/pm6_mbox_loc_flat <- ext/pm6_mbox_loc_perm
I1025 13:39:57.236568 13868 net.cpp:408] ext/pm6_mbox_loc_flat -> ext/pm6_mbox_loc_flat
I1025 13:39:57.236587 13868 net.cpp:150] Setting up ext/pm6_mbox_loc_flat
I1025 13:39:57.236591 13868 net.cpp:157] Top shape: 1 16 (16)
I1025 13:39:57.236594 13868 net.cpp:165] Memory required for data: 203454080
I1025 13:39:57.236598 13868 layer_factory.hpp:77] Creating layer ext/pm6_mbox_conf
I1025 13:39:57.236608 13868 net.cpp:100] Creating Layer ext/pm6_mbox_conf
I1025 13:39:57.236613 13868 net.cpp:434] ext/pm6_mbox_conf <- stage4_tb/ext/pm6/res_stage4_tb/ext/pm6/res/relu_0_split_1
I1025 13:39:57.236620 13868 net.cpp:408] ext/pm6_mbox_conf -> ext/pm6_mbox_conf
I1025 13:39:57.238135 13868 net.cpp:150] Setting up ext/pm6_mbox_conf
I1025 13:39:57.238143 13868 net.cpp:157] Top shape: 1 48 1 1 (48)
I1025 13:39:57.238147 13868 net.cpp:165] Memory required for data: 203454272
I1025 13:39:57.238153 13868 layer_factory.hpp:77] Creating layer ext/pm6_mbox_conf_perm
I1025 13:39:57.238162 13868 net.cpp:100] Creating Layer ext/pm6_mbox_conf_perm
I1025 13:39:57.238165 13868 net.cpp:434] ext/pm6_mbox_conf_perm <- ext/pm6_mbox_conf
I1025 13:39:57.238173 13868 net.cpp:408] ext/pm6_mbox_conf_perm -> ext/pm6_mbox_conf_perm
I1025 13:39:57.238247 13868 net.cpp:150] Setting up ext/pm6_mbox_conf_perm
I1025 13:39:57.238253 13868 net.cpp:157] Top shape: 1 1 1 48 (48)
I1025 13:39:57.238256 13868 net.cpp:165] Memory required for data: 203454464
I1025 13:39:57.238260 13868 layer_factory.hpp:77] Creating layer ext/pm6_mbox_conf_flat
I1025 13:39:57.238266 13868 net.cpp:100] Creating Layer ext/pm6_mbox_conf_flat
I1025 13:39:57.238270 13868 net.cpp:434] ext/pm6_mbox_conf_flat <- ext/pm6_mbox_conf_perm
I1025 13:39:57.238277 13868 net.cpp:408] ext/pm6_mbox_conf_flat -> ext/pm6_mbox_conf_flat
I1025 13:39:57.238303 13868 net.cpp:150] Setting up ext/pm6_mbox_conf_flat
I1025 13:39:57.238308 13868 net.cpp:157] Top shape: 1 48 (48)
I1025 13:39:57.238312 13868 net.cpp:165] Memory required for data: 203454656
I1025 13:39:57.238315 13868 layer_factory.hpp:77] Creating layer ext/pm6_mbox_priorbox
I1025 13:39:57.238323 13868 net.cpp:100] Creating Layer ext/pm6_mbox_priorbox
I1025 13:39:57.238328 13868 net.cpp:434] ext/pm6_mbox_priorbox <- stage4_tb/ext/pm6/res_stage4_tb/ext/pm6/res/relu_0_split_2
I1025 13:39:57.238333 13868 net.cpp:434] ext/pm6_mbox_priorbox <- data_data_0_split_6
I1025 13:39:57.238342 13868 net.cpp:408] ext/pm6_mbox_priorbox -> ext/pm6_mbox_priorbox
I1025 13:39:57.238360 13868 net.cpp:150] Setting up ext/pm6_mbox_priorbox
I1025 13:39:57.238365 13868 net.cpp:157] Top shape: 1 2 16 (32)
I1025 13:39:57.238369 13868 net.cpp:165] Memory required for data: 203454784
I1025 13:39:57.238373 13868 layer_factory.hpp:77] Creating layer mbox_loc
I1025 13:39:57.238381 13868 net.cpp:100] Creating Layer mbox_loc
I1025 13:39:57.238385 13868 net.cpp:434] mbox_loc <- ext/pm1_mbox_loc_flat
I1025 13:39:57.238390 13868 net.cpp:434] mbox_loc <- ext/pm2_mbox_loc_flat
I1025 13:39:57.238395 13868 net.cpp:434] mbox_loc <- ext/pm3_mbox_loc_flat
I1025 13:39:57.238399 13868 net.cpp:434] mbox_loc <- ext/pm4_mbox_loc_flat
I1025 13:39:57.238404 13868 net.cpp:434] mbox_loc <- ext/pm5_mbox_loc_flat
I1025 13:39:57.238407 13868 net.cpp:434] mbox_loc <- ext/pm6_mbox_loc_flat
I1025 13:39:57.238415 13868 net.cpp:408] mbox_loc -> mbox_loc
I1025 13:39:57.238435 13868 net.cpp:150] Setting up mbox_loc
I1025 13:39:57.238440 13868 net.cpp:157] Top shape: 1 34928 (34928)
I1025 13:39:57.238442 13868 net.cpp:165] Memory required for data: 203594496
I1025 13:39:57.238445 13868 layer_factory.hpp:77] Creating layer mbox_conf
I1025 13:39:57.238452 13868 net.cpp:100] Creating Layer mbox_conf
I1025 13:39:57.238456 13868 net.cpp:434] mbox_conf <- ext/pm1_mbox_conf_flat
I1025 13:39:57.238461 13868 net.cpp:434] mbox_conf <- ext/pm2_mbox_conf_flat
I1025 13:39:57.238466 13868 net.cpp:434] mbox_conf <- ext/pm3_mbox_conf_flat
I1025 13:39:57.238471 13868 net.cpp:434] mbox_conf <- ext/pm4_mbox_conf_flat
I1025 13:39:57.238476 13868 net.cpp:434] mbox_conf <- ext/pm5_mbox_conf_flat
I1025 13:39:57.238479 13868 net.cpp:434] mbox_conf <- ext/pm6_mbox_conf_flat
I1025 13:39:57.238485 13868 net.cpp:408] mbox_conf -> mbox_conf
I1025 13:39:57.238504 13868 net.cpp:150] Setting up mbox_conf
I1025 13:39:57.238509 13868 net.cpp:157] Top shape: 1 104784 (104784)
I1025 13:39:57.238512 13868 net.cpp:165] Memory required for data: 204013632
I1025 13:39:57.238515 13868 layer_factory.hpp:77] Creating layer mbox_priorbox
I1025 13:39:57.238520 13868 net.cpp:100] Creating Layer mbox_priorbox
I1025 13:39:57.238523 13868 net.cpp:434] mbox_priorbox <- ext/pm1_mbox_priorbox
I1025 13:39:57.238529 13868 net.cpp:434] mbox_priorbox <- ext/pm2_mbox_priorbox
I1025 13:39:57.238533 13868 net.cpp:434] mbox_priorbox <- ext/pm3_mbox_priorbox
I1025 13:39:57.238536 13868 net.cpp:434] mbox_priorbox <- ext/pm4_mbox_priorbox
I1025 13:39:57.238540 13868 net.cpp:434] mbox_priorbox <- ext/pm5_mbox_priorbox
I1025 13:39:57.238545 13868 net.cpp:434] mbox_priorbox <- ext/pm6_mbox_priorbox
I1025 13:39:57.238551 13868 net.cpp:408] mbox_priorbox -> mbox_priorbox
I1025 13:39:57.238569 13868 net.cpp:150] Setting up mbox_priorbox
I1025 13:39:57.238574 13868 net.cpp:157] Top shape: 1 2 34928 (69856)
I1025 13:39:57.238577 13868 net.cpp:165] Memory required for data: 204293056
I1025 13:39:57.238580 13868 layer_factory.hpp:77] Creating layer mbox_conf_reshape
I1025 13:39:57.238586 13868 net.cpp:100] Creating Layer mbox_conf_reshape
I1025 13:39:57.238595 13868 net.cpp:434] mbox_conf_reshape <- mbox_conf
I1025 13:39:57.238602 13868 net.cpp:408] mbox_conf_reshape -> mbox_conf_reshape
I1025 13:39:57.238627 13868 net.cpp:150] Setting up mbox_conf_reshape
I1025 13:39:57.238633 13868 net.cpp:157] Top shape: 1 8732 12 (104784)
I1025 13:39:57.238636 13868 net.cpp:165] Memory required for data: 204712192
I1025 13:39:57.238641 13868 layer_factory.hpp:77] Creating layer mbox_conf_softmax
I1025 13:39:57.238652 13868 net.cpp:100] Creating Layer mbox_conf_softmax
I1025 13:39:57.238657 13868 net.cpp:434] mbox_conf_softmax <- mbox_conf_reshape
I1025 13:39:57.238662 13868 net.cpp:408] mbox_conf_softmax -> mbox_conf_softmax
I1025 13:39:57.239109 13868 net.cpp:150] Setting up mbox_conf_softmax
I1025 13:39:57.239118 13868 net.cpp:157] Top shape: 1 8732 12 (104784)
I1025 13:39:57.239122 13868 net.cpp:165] Memory required for data: 205131328
I1025 13:39:57.239125 13868 layer_factory.hpp:77] Creating layer mbox_conf_flatten
I1025 13:39:57.239132 13868 net.cpp:100] Creating Layer mbox_conf_flatten
I1025 13:39:57.239136 13868 net.cpp:434] mbox_conf_flatten <- mbox_conf_softmax
I1025 13:39:57.239143 13868 net.cpp:408] mbox_conf_flatten -> mbox_conf_flatten
I1025 13:39:57.239163 13868 net.cpp:150] Setting up mbox_conf_flatten
I1025 13:39:57.239171 13868 net.cpp:157] Top shape: 1 104784 (104784)
I1025 13:39:57.239173 13868 net.cpp:165] Memory required for data: 205550464
I1025 13:39:57.239176 13868 layer_factory.hpp:77] Creating layer detection_out
I1025 13:39:57.239190 13868 net.cpp:100] Creating Layer detection_out
I1025 13:39:57.239194 13868 net.cpp:434] detection_out <- mbox_loc
I1025 13:39:57.239198 13868 net.cpp:434] detection_out <- mbox_conf_flatten
I1025 13:39:57.239202 13868 net.cpp:434] detection_out <- mbox_priorbox
I1025 13:39:57.239209 13868 net.cpp:408] detection_out -> detection_out
I1025 13:39:57.239250 13868 net.cpp:150] Setting up detection_out
I1025 13:39:57.239255 13868 net.cpp:157] Top shape: 1 1 1 7 (7)
I1025 13:39:57.239259 13868 net.cpp:165] Memory required for data: 205550492
I1025 13:39:57.239261 13868 layer_factory.hpp:77] Creating layer detection_eval
I1025 13:39:57.239269 13868 net.cpp:100] Creating Layer detection_eval
I1025 13:39:57.239274 13868 net.cpp:434] detection_eval <- detection_out
I1025 13:39:57.239277 13868 net.cpp:434] detection_eval <- label
I1025 13:39:57.239282 13868 net.cpp:408] detection_eval -> detection_eval
I1025 13:39:57.239317 13868 net.cpp:150] Setting up detection_eval
I1025 13:39:57.239322 13868 net.cpp:157] Top shape: 1 1 12 5 (60)
I1025 13:39:57.239326 13868 net.cpp:165] Memory required for data: 205550732
I1025 13:39:57.239328 13868 net.cpp:228] detection_eval does not need backward computation.
I1025 13:39:57.239333 13868 net.cpp:228] detection_out does not need backward computation.
I1025 13:39:57.239336 13868 net.cpp:228] mbox_conf_flatten does not need backward computation.
I1025 13:39:57.239341 13868 net.cpp:228] mbox_conf_softmax does not need backward computation.
…
